grj/DogCat_Recognition/binary_weight_weights.pth (torch, 236875 bytes, 40 tensors)

conv1.weight f4 [16, 1, 3, 3]
0	0x3dac081a	0.08399983
1	0xbda232dd	-0.07919858
2	0xbe55c744	-0.20876795
3	0x3e97a3db	0.296172
4	0xbea47fa2	-0.32128626
5	0xbda4f032	-0.08053626
6	0x3ea715ee	0.3263392
7	0x3eb7f50c	0.35929143
8	0x3e8bdc1e	0.27316374
9	0xbd8a7ee2	-0.06762482
10	0xbd98afce	-0.07455407
11	0xbe515b0f	-0.20444892
12	0xbe03fea2	-0.12890103
13	0x3e106401	0.14100648
14	0xbeabee2c	-0.33580148
15	0xbd8f3a63	-0.06993558
16	0x3e28754e	0.16450998
17	0xbdb0c113	-0.08630576
18	0xbdca4c42	-0.09877826
19	0xbdb3a73f	-0.08772134
20	0x3ea80c82	0.32822043
21	0xbd9562f0	-0.072942615
22	0x3e7c2415	0.24623139
23	0x3e0f2911	0.1398051
24	0x3e424de7	0.1897503
25	0xbea6ca3f	-0.32576177
26	0xbdf91f8f	-0.121642224
27	0xbd8c626b	-0.06854709
28	0xbe77f63c	-0.24215025
29	0xbd78f99b	-0.060784917
30	0x3dcc8dd1	0.09987987
31	0x3e9edd1e	0.31028074
32	0xbe827a37	-0.25483868
33	0xbea3cbf1	-0.31991532
34	0xbe9b1466	-0.30289
35	0xbd7e3a52	-0.062067337
36	0x3e3b1a31	0.1827171
37	0xbeca502a	-0.39514285
38	0x3e20fd4e	0.15721628
39	0xbe45426f	-0.19263624
40	0x3dcc06cc	0.09962234
41	0xbeaeaf40	-0.3411808
42	0xbe41cdc1	-0.18926145
43	0x3e64d63b	0.22347347
44	0x3e935508	0.2877581
45	0xbe275fa7	-0.16345082
46	0xbe340f09	-0.1758386
47	0xbe896c58	-0.26840472
48	0x3dc093d1	0.09403194
49	0x3ea1e1b9	0.31617525
50	0x3e0c2be1	0.13688613
51	0xbdcf5b64	-0.10124853
52	0x3e3a1123	0.181706
53	0x3d0b450d	0.0340014
54	0x3dad3faf	0.08459412
55	0x3d879e5b	0.06622001
56	0x3e1b6797	0.15176235
57	0x3e83ce2c	0.25743234
58	0x3e97ad5f	0.2962446
59	0xbe9d4b43	-0.30721483
60	0xbdc83672	-0.097760096
61	0x3e8725a7	0.26395914
62	0x3e2a90f6	0.1665686
63	0x3e2c42fa	0.16822425
64	0xbeb80505	-0.3594133
65	0x3e763773	0.2404459
66	0x3e6e6d4e	0.23283884
67	0xbe0d287b	-0.13784973
68	0xbe1b328a	-0.15155998
69	0x3e8fd7ae	0.28094238
70	0x3dc480db	0.0959489
71	0xbe834d49	-0.256449
72	0x3e105dc2	0.14098266
73	0xbe0581bc	-0.13037771
74	0xbe927c53	-0.28610477
75	0x3e0da40e	0.13832113
76	0xbe91c268	-0.28468633
77	0xbd5a1ad0	-0.053248227
78	0xbe8bdf4c	-0.273188
79	0xbea862a5	-0.3288776
80	0x3e259128	0.16168654
81	0xbda8bedb	-0.08239528
82	0xbda9690b	-0.082719885
83	0xbe0aa528	-0.13539565
84	0xbda658fc	-0.08122441
85	0x3db39ef3	0.087705515
86	0x3e6504c0	0.22365093
87	0x3e16e033	0.14733963
88	0x3e94fbcc	0.29098356
89	0x3dc62a52	0.09676041
90	0xbdbfbaf7	-0.093618326
91	0xbe07eed0	-0.13274693
92	0xbe87b8de	-0.2650823
93	0xbe409be7	-0.18809472
94	0x3dc449d7	0.09584396
95	0xbd7a1923	-0.06105913
96	0xbd1f7614	-0.038930967
97	0xbc06f9a7	-0.008238233
98	0xbceced70	-0.028921813
99	0xbe5b9570	-0.21443725
100	0x3e1a94c5	0.15095814
101	0x3e214bf3	0.15751629
102	0xbdf62d69	-0.1202038
103	0xbdce6866	-0.10078506
104	0xbdcc54f2	-0.099771395
105	0x3e1dcec7	0.1541091
106	0xbe049086	-0.12945756
107	0x3e120358	0.14259088
108	0xbc7c628b	-0.015404354
109	0xbdd5d8d5	-0.10441748
110	0x3dd9bb45	0.10631422
111	0xbe0a4d19	-0.13505973
112	0xbce6ed2a	-0.02818926
113	0xbdb4e15d	-0.08832047
114	0xbc2656ed	-0.010152561
115	0xbdaf99d9	-0.08574266
116	0xbe8b9929	-0.2726529
117	0x3de1a38f	0.110175245
118	0x3e9f9029	0.31164673
119	0x3dec5566	0.11539726
120	0x3de2a56f	0.1106671
121	0xbea7f530	-0.3280425
122	0xbd5e175f	-0.054221507
123	0xbd612db2	-0.05497522
124	0xbd7c34f4	-0.061573938
125	0xbdd84b60	-0.10561252
126	0xbe1aa6d1	-0.15102698
127	0xbe3699a5	-0.17832048
128	0x3d502112	0.05081279
129	0xbe0a26fb	-0.13491432
130	0xbe2020cf	-0.15637515
131	0x3e29deaf	0.16588853
132	0x3e25d0c2	0.16192916
133	0x3eb85c2b	0.3600782
134	0x3d9d1f78	0.07672018
135	0xbd44c159	-0.048035953
136	0xbe6da76d	-0.23208399
137	0xbe3475b9	-0.17623033
138	0xbe8f008a	-0.279301
139	0xbdd400dc	-0.103517264
140	0x3dffb675	0.12485973
141	0xbda2a3ee	-0.07941423
142	0x3ea1bd52	0.31589752
143	0x3eb6379f	0.3558931

conv1.bias f4 [16]
0	0x3ec0aacb	0.37630305
1	0x3ea5d62e	0.3238997
2	0xbe02d420	-0.12776232
3	0x3ee7d294	0.45277846
4	0x3decf2b7	0.11569732
5	0x3ef44493	0.47708568
6	0x3c83e195	0.016098777
7	0x3d0e2107	0.034699466
8	0x3e490620	0.19631243
9	0x3d6aa0d9	0.057282303
10	0xbeb7c736	-0.35894173
11	0x3efe25bd	0.49638167
12	0xbe4f3ba2	-0.20237592
13	0x3f010f8e	0.5041436
14	0x3eb3be87	0.35106298
15	0x3e4a7083	0.19769482

normalization1.weight f4 [16]
0	0x3f96f0b5	1.1792208
1	0x3f726b05	0.9469455
2	0x3f26f5b5	0.6521867
3	0x3f6aaf2a	0.9167353
4	0x3f77194e	0.96522987
5	0x3f60ff48	0.8788953
6	0x3f782ca3	0.9694311
7	0x3fa952e9	1.3228427
8	0x3f6c96df	0.9241771
9	0x3f75d468	0.9602723
10	0x3f6dffdd	0.9296854
11	0x3f6d8857	0.92786163
12	0x3f7ede56	0.9955801
13	0x3f62719a	0.8845459
14	0x3f9f4677	1.2443379
15	0x3f877ca1	1.0584909

normalization1.bias f4 [16]
0	0x3daf3cc5	0.08556513
1	0x3d6cb5de	0.05779063
2	0x3e00d3a9	0.12580742
3	0x3dc1b711	0.09458745
4	0x3def5085	0.1168528
5	0x3cff7f79	0.031188713
6	0x3c81dd18	0.015852496
7	0xbdf014a3	-0.11722686
8	0x3deba613	0.115062855
9	0x3d765835	0.060142715
10	0x3d41643c	0.04721473
11	0x3e3481a2	0.17627576
12	0x3d33a2c6	0.043856405
13	0xbd7d002d	-0.061767746
14	0x3e361de9	0.17784847
15	0x3e10f543	0.1415606

normalization1.running_mean f4 [16]
0	0x3f57c877	0.8429026
1	0x3bb7d85a	0.005610508
2	0x3a874559	0.001032035
3	0x3c4ddd22	0.012564929
4	0x3f13c60b	0.57724065
5	0x3f73c99f	0.95229524
6	0x401587b6	2.3364081
7	0x3f001fce	0.5004853
8	0x3b9151d1	0.004434802
9	0x3f0bc38d	0.5459526
10	0x00000004	6e-45
11	0x3e0edfc3	0.13952546
12	0x340c621b	1.3074207e-07
13	0x3e35d562	0.1775718
14	0x3f5175f9	0.81820637
15	0x3c22f35c	0.009945717

normalization1.running_var f4 [16]
0	0x3e0cbef6	0.13744721
1	0x3a8a3745	0.0010545036
2	0x39abf0f2	0.0003279518
3	0x3b4ff0ce	0.0031729224
4	0x3da9766f	0.082745425
5	0x3e107aaf	0.141093
6	0x3fd21922	1.641392
7	0x3dcae622	0.099071756
8	0x3a225de6	0.00061938015
9	0x3e1b731f	0.15180634
10	0x00000004	6e-45
11	0x3cf92990	0.030415326
12	0x32a20db2	1.886551e-08
13	0x3d8ae58c	0.06782064
14	0x3e0b8fcf	0.13629077
15	0x3b29d9c7	0.002591716

conv2.weight f4 [32, 16, 3, 3]
0	0x3d20d5dc	0.039266452
1	0xbd6d994e	-0.05800753
2	0xbd25b06c	-0.040451452
3	0xbd683c68	-0.056698233
4	0x3db10d34	0.086450964
5	0xbdcacea0	-0.09902692
6	0x3d6b5e23	0.057462823
7	0xbd686675	-0.056738336
8	0xbd0c4cb3	-0.034252834
9	0xbd8e698b	-0.069537245
10	0x3dc3abca	0.095542505
11	0x3d71278f	0.058875617
12	0xbd4fdf48	-0.050750047
13	0xbcded2c8	-0.027200118
14	0x3da98190	0.08276665
15	0xbd096b0c	-0.033549353
16	0xbd86aa6e	-0.06575476
17	0xbcbd7438	-0.023126706
18	0xbcdb19c2	-0.02674568
19	0x3d085c55	0.03329118
20	0xbd0010a2	-0.031265862
21	0xbd94be78	-0.072628915
22	0xbd3141a5	-0.043275494
23	0x3d277377	0.0408816
24	0x3d0f7c5e	0.035030715
25	0xbcdfd0f5	-0.027321318
26	0x3d30aafb	0.04313181
27	0xbd8a6a9d	-0.06758616
28	0xbd42318b	-0.04741053
29	0x3dcb232e	0.09918819
30	0x3d6f36dd	0.05840193
31	0x3d8308ff	0.063982
32	0xbd5dc90c	-0.05414681
33	0xbd987c7a	-0.07445617
34	0xbd50e2f6	-0.050997697
35	0x3d8df9e2	0.06932427
36	0x3d7b5f26	0.061370037
37	0xbd761e11	-0.060087267
38	0x3de267a2	0.11054923
39	0x3d93aba3	0.072104715
40	0xbd5cae46	-0.053877138
41	0x3da67816	0.08128373
42	0x3d882b87	0.06648927
43	0xbdaa5125	-0.08316258
44	0x3d1c80c4	0.038208738
45	0x3da29689	0.079388686
46	0x3d0bfac5	0.0341747
47	0xbd3e819b	-0.04651032
48	0x3d131ce4	0.035916224
49	0x3d816877	0.06318753
50	0xbd249a41	-0.04018617
51	0xbd185b44	-0.037196413
52	0xbdb16e65	-0.08663634
53	0x3d3d66b4	0.046240523
54	0xbd8c9f96	-0.06866376
55	0xbd2e8098	-0.042603105
56	0xbd4b47dd	-0.04962908
57	0x3daf6ba3	0.08565452
58	0xbd85507e	-0.06509493
59	0xbd749a9a	-0.059717752
60	0x3d387bbc	0.045039877
61	0xbd6526a7	-0.055945065
62	0x3d2656cd	0.040610123
63	0xbd3f6309	-0.046725307
64	0xbd1dc224	-0.038515225
65	0x3d2f0490	0.04272896
66	0x3dc012f6	0.093786165
67	0x3d5321aa	0.051545776
68	0x3dc266ed	0.09492288
69	0x3d84aa85	0.064778365
70	0x3d90c7f6	0.070693895
71	0x3d850562	0.06495167
72	0xbcbc0c32	-0.022955034
73	0xbd085e82	-0.033293255
74	0x3d245c57	0.040127125
75	0xbcc1b02c	-0.023643576
76	0x3d0115c4	0.031514898
77	0xbd2521e9	-0.040315542
78	0x3d5c62f1	0.053805295
79	0xbd3a6926	-0.045510434
80	0xbd948d88	-0.072535574
81	0xbd360008	-0.044433624
82	0xbd5cc3e0	-0.05389774
83	0x3dcb648b	0.099312864
84	0xbd211af7	-0.039332356
85	0xbd6fba3e	-0.058527224
86	0xbd5306d4	-0.051520184
87	0x3d172cb8	0.03690788
88	0x3d96aa12	0.07356657
89	0xbd288cd0	-0.041149914
90	0x3d3c2296	0.04593142
91	0x3d00194e	0.031274132
92	0xbb2314f3	-0.0024884313
93	0x3bdf1483	0.006807865
94	0x3d31da8f	0.043421324
95	0xbc2a2ece	-0.010387136
96	0xbd23b29a	-0.03996525
97	0x3d3babe4	0.045818225
98	0xbd1e6364	-0.038669005
99	0xbd08ef44	-0.033431306
100	0x3dc9e72b	0.09858545
101	0x3d8b708d	0.06808577
102	0xbd95c909	-0.07313735
103	0x3d261963	0.040551554
104	0x3d8b8aef	0.06813609
105	0x3db10325	0.08643178
106	0x3cfc88ea	0.030827004
107	0x3d47d0aa	0.048782982
108	0xbc881020	-0.016609251
109	0xbd6ce674	-0.057836965
110	0xbd76fca4	-0.06029953
111	0x3b068731	0.0020527358
112	0x3d35cae4	0.044382945
113	0x3d7edbb1	0.062221233
114	0x3cad0975	0.021122674
115	0x3d59fe4f	0.053221043
116	0xbd203e67	-0.03912201
117	0xbd2b85fc	-0.041875824
118	0xbd5fad05	-0.054608364
119	0x3d499396	0.049213015
120	0xbd3b5682	-0.045736797
121	0xbd56c615	-0.052435
122	0xbcfceb6f	-0.030873982
123	0xbd19ee9a	-0.037581064
124	0x3d514e84	0.05110027
125	0x3d8e5d31	0.069513686
126	0xbd100c1f	-0.03516781
127	0xbd37fdc1	-0.044919733
128	0x3d2bc709	0.04193786
129	0x3d99d8f5	0.075120844
130	0xbd397252	-0.04527504
131	0x3d34d15d	0.044144977
132	0x3daf1e57	0.08550709
133	0xbd67e642	-0.056616075
134	0x3d64341a	0.05571375
135	0xbce9602e	-0.028488245
136	0xbdba026d	-0.09082494
137	0x3d47bd29	0.04876438
138	0x3d987e8b	0.07446011
139	0xbda840b4	-0.08215466
140	0xbd8fcfe3	-0.07022073
141	0xbd5d580d	-0.05403905
142	0x3d274ff5	0.040847737
143	0xbd82f989	-0.06395251
144	0x3de08e4a	0.109646395
145	0xbd2cdf12	-0.042204924
146	0xbdc351d0	-0.09537089
147	0x3d7fce2d	0.062452484
148	0x3d94ad46	0.07259612
149	0xbd958ba5	-0.07302026
150	0xbdd405f6	-0.103526995
151	0x3da8db9e	0.08245014
152	0x3e02c9e1	0.12772323
153	0x3d3cf574	0.04613252
154	0xbd60149b	-0.05470715
155	0xbd52efb0	-0.051498115
156	0xbd7569d0	-0.059915364
157	0xbc6ffb67	-0.014647341
158	0xbcc52226	-0.024064135
159	0xbd668b24	-0.05628504
160	0xbd88bbc2	-0.06676437
161	0x3d1a2a5a	0.037638046
162	0x3d558257	0.052126255
163	0x3d5b7bc5	0.053584833
164	0xbd39d5ac	-0.04536979
165	0xbd69faf6	-0.0571241
166	0xbd1c8670	-0.038214147
167	0x3d0166e0	0.03159225
168	0xbd490125	-0.049073357
169	0xbd894c26	-0.06703977
170	0x3d2db8b8	0.04241249
171	0xbd1a6d9c	-0.037702188
172	0xbcff9a88	-0.031201616
173	0xbd65cb78	-0.056102246
174	0xbd967488	-0.07346445
175	0xbc9f0065	-0.019409368
176	0x3dc4439c	0.09583208
177	0xbd8973fd	-0.06711576
178	0xbd3f20b1	-0.046662036
179	0x3dbc5ea8	0.09197742
180	0xbd8c8fdc	-0.068633765
181	0x3cd7b1ef	0.026329963
182	0x3d91d9f2	0.07121648
183	0xbd791ca3	-0.060818326
184	0x3cbd02d7	0.023072643
185	0xbda7c23c	-0.08191344
186	0x3d40d3ed	0.04707711
187	0x3ce42549	0.02784981
188	0xbd5b2654	-0.05350335
189	0xbd3991aa	-0.04530493
190	0xbd4f63d8	-0.050632328
191	0x3d8882de	0.06665586
192	0x3d90d66e	0.07072149
193	0x3cb4a74e	0.022052433
194	0xbd664877	-0.05622145
195	0xbda504f3	-0.080575846
196	0x3d5a600b	0.05331425
197	0x3d7f8cf4	0.062390283
198	0xbd8fb4d1	-0.0701691
199	0x3d710f57	0.05885252
200	0x3daeee92	0.085415974
201	0x3d402ac9	0.046915803
202	0xbd810cbe	-0.063012585
203	0xbd955ba8	-0.07292873
204	0x3daadb06	0.08342557
205	0xbd98f32c	-0.07468256
206	0xbd9553cc	-0.072913736
207	0x3dde5123	0.10855319
208	0xbd4bd9b7	-0.049768176
209	0xbd8230b8	-0.063569486
210	0x3cc5bfa9	0.024139242
211	0x3dce10f8	0.1006183
212	0x3d59b6df	0.053152915
213	0xbd946994	-0.072467
214	0xbdaf7966	-0.08568077
215	0xbd77f090	-0.060532153
216	0xbcc7c164	-0.024384208
217	0x3d6dc69a	0.05805073
218	0xbd4f5c80	-0.050625324
219	0xbd2f985e	-0.042869918
220	0xbd78148a	-0.060566463
221	0x3d93d5d4	0.07218519
222	0xbcc411dc	-0.023934297
223	0xbd467309	-0.04844955
224	0xbd1e190d	-0.03859811
225	0x3d6f5e4c	0.058439538
226	0xbd8baaf4	-0.06819716
227	0xbda74874	-0.08168116
228	0x3db55391	0.0885383
229	0xbda5d712	-0.08097662
230	0x3cac2858	0.021015331
231	0x3d82194c	0.06352481
232	0xbd4511bc	-0.048112616
233	0x3ce930f3	0.028465724
234	0x3ca5495b	0.02017658
235	0x3d7b4fa5	0.06135525
236	0xbd8a2c4a	-0.06746729
237	0x3cea1e57	0.02857892
238	0xbcf464d8	-0.029833242
239	0xbd895474	-0.06705561
240	0x3cae763c	0.021296613
241	0x3d80a9e0	0.06282401
242	0xbd372746	-0.04471519
243	0xbd5af5a5	-0.05345692
244	0x3da20f34	0.07913056
245	0x3d7009e5	0.058603186
246	0xbd99adbe	-0.07503842
247	0xbd5b5a37	-0.053552832
248	0x3dafcd87	0.08584123
249	0xbd1906d5	-0.03736003
250	0xbda407bc	-0.08009288
251	0xbd6e500d	-0.05818181
252	0xbc9a4340	-0.018830895
253	0x3d9da648	0.07697731
254	0x3c8a84fc	0.016909115
255	0xbd3cf096	-0.046127878

conv2.bias f4 [32]
0	0x3d91861e	0.07105659
1	0xbbb9d550	-0.005671181
2	0x3ccdb902	0.025112633
3	0x3d9c8740	0.076429844
4	0xbdc091c5	-0.09402803
5	0xbd7a07d2	-0.061042614
6	0xbd90cc78	-0.07070249
7	0xbe019cb2	-0.12657431
8	0x3db5de5a	0.08880301
9	0x3cbfe51c	0.023424678
10	0xbc8bd840	-0.01707089
11	0xbd09d664	-0.033651724
12	0x3d1f3309	0.03886703
13	0xbd93a444	-0.072090656
14	0x3d173a1d	0.036920656
15	0xbcc18af4	-0.023625828
16	0xbda65d20	-0.08123231
17	0xbdb2103b	-0.08694502
18	0xbd9ef985	-0.07762436
19	0xbcaa7894	-0.02080945
20	0x3d94d5d3	0.07267346
21	0x3d738441	0.0594523
22	0xbd262166	-0.040559195
23	0xbd59b7d6	-0.053153835
24	0x3d75ca46	0.060007356
25	0x3b17b902	0.0023151045
26	0xbdaa494f	-0.08314764
27	0x3dba6249	0.09100778
28	0xbc9f5ad1	-0.019452484
29	0xbd33952e	-0.04384344
30	0x3c299018	0.010349296
31	0x3dc14391	0.094367154

normalization2.weight f4 [32]
0	0x3f68fe26	0.910128
1	0x3f8d1f5c	1.1025195
2	0x3f71822d	0.9433926
3	0x3f805bfc	1.0028071
4	0x3f86f5fe	1.0543821
5	0x3f78c666	0.9717773
6	0x3f703fa2	0.93847096
7	0x3f936e41	1.1518022
8	0x3f88fdaf	1.0702418
9	0x3f6ef87d	0.93347913
10	0x3f8065b2	1.0031035
11	0x3f81f4e9	1.0152866
12	0x3f7f824b	0.99808186
13	0x3f76efc7	0.9645962
14	0x3f731c4d	0.9496506
15	0x3f7a8109	0.9785314
16	0x3f721b3e	0.9457282
17	0x3f769fe7	0.9633774
18	0x3f69afda	0.91283953
19	0x3f781ce7	0.969191
20	0x3f79fa2a	0.97647345
21	0x3f6d35a4	0.92659974
22	0x3f7d45fc	0.9893491
23	0x3f77c763	0.96788615
24	0x3f7325ff	0.9497985
25	0x3f875f99	1.0576049
26	0x3f810312	1.0079062
27	0x3f7eb887	0.99500316
28	0x3f7aadd3	0.97921485
29	0x3f853cfb	1.0409235
30	0x3f7c1ebd	0.984844
31	0x3f838f90	1.0278187

normalization2.bias f4 [32]
0	0x3c385f9c	0.011253264
1	0x3e023be1	0.12718154
2	0xbdc578f5	-0.09642211
3	0x3db64378	0.088995874
4	0x3df5ee38	0.12008327
5	0x3dcaeec0	0.09908819
6	0x3e6d995d	0.23203035
7	0xbdbefe56	-0.093258545
8	0x3e6c7439	0.2309121
9	0x3dcb4ec9	0.099271365
10	0x3df358fc	0.11882207
11	0x3e408bce	0.18803331
12	0x3e11ce07	0.1423875
13	0x3dddec68	0.108361065
14	0x3e55a4d6	0.20863661
15	0x3d08da39	0.03341124
16	0x3e21dc84	0.15806776
17	0xbd97680c	-0.07392892
18	0x3e1bcb5b	0.15214293
19	0x3e1eb688	0.15499318
20	0x3e1b42ce	0.15162203
21	0x3e040072	0.12890795
22	0x3e5487b8	0.20754898
23	0x3e62acaf	0.22136186
24	0x3d71f834	0.059074596
25	0x3d53834d	0.05163889
26	0x3db5bf48	0.08874375
27	0x3e15b689	0.14620413
28	0x3dc0a701	0.094068535
29	0x3db25b0a	0.087087706
30	0x3dab11db	0.08353015
31	0x3b1d5d0b	0.0024011757

normalization2.running_mean f4 [32]
0	0x404d2e83	3.2059639
1	0x40222cec	2.5339918
2	0x407ae5ce	3.9202762
3	0x409dd9ce	4.9328375
4	0x407a1e98	3.9081173
5	0x4089d70b	4.3075004
6	0x3fbb5d33	1.4637817
7	0x3fc7259a	1.555835
8	0x4024bf25	2.5741665
9	0x40d1ae8a	6.552556
10	0x3fb3e48e	1.4054124
11	0x4083ac9c	4.1148205
12	0x40786cc9	3.8816397
13	0x40387752	2.8822827
14	0x402729c2	2.6119237
15	0x402fc114	2.7461596
16	0x408018a9	4.0030103
17	0x40392886	2.8930984
18	0x4013464f	2.3011663
19	0x413951cc	11.58247
20	0x401dfa9f	2.4684217
21	0x4040bb83	3.0114448
22	0x404e00f6	3.2188087
23	0x40e5f6fc	7.1863995
24	0x3f94e916	1.1633632
25	0x3f902bed	1.1263405
26	0x3f33ce20	0.70236397
27	0x40c2b25e	6.0842733
28	0x40495c3d	3.1462548
29	0x3f0fc109	0.56153923
30	0x409eedc9	4.9665265
31	0x40c80f75	6.251887

normalization2.running_var f4 [32]
0	0x41b38539	22.44005
1	0x41a70f68	20.882523
2	0x423c9dd9	47.15415
3	0x4296d290	75.411255
4	0x4259f8cd	54.49297
5	0x42940c0d	74.02354
6	0x410e74b1	8.903489
7	0x41bd1886	23.636974
8	0x41b614c5	22.760141
9	0x430c8d9c	140.55316
10	0x4163ec59	14.245202
11	0x42753a32	61.30683
12	0x426bfc2b	58.996258
13	0x4210de33	36.21699
14	0x41ff16b3	31.886084
15	0x42090d4a	34.262978
16	0x4256c3e5	53.691303
17	0x41c8a791	25.08182
18	0x417efb80	15.936401
19	0x434988f9	201.53505
20	0x41e87171	29.055391
21	0x41e3b594	28.463661
22	0x42aa4c03	85.14846
23	0x42b082e6	88.25566
24	0x41794301	15.578858
25	0x411483c1	9.2821665
26	0x40ba962c	5.8308315
27	0x42b4dd79	90.43256
28	0x41e4450b	28.533712
29	0x40a79e58	5.238079
30	0x428012f3	64.03701
31	0x42a73454	83.6022

conv3.weight f4 [64, 32, 3, 3]
0	0xbd7566f7	-0.059912648
1	0xbcfa325e	-0.030541595
2	0x3d0dece3	0.03464974
3	0xbc0e179d	-0.008672622
4	0x3d0242d4	0.031802014
5	0x3d02ba7b	0.031916123
6	0x3cbecd37	0.023291213
7	0xbda423ef	-0.08014666
8	0x3c6b8ea6	0.014377272
9	0x3d0c71a3	0.03428806
10	0x3d20bed0	0.039244473
11	0x3d37ffc5	0.044921655
12	0x3d1fb8d6	0.038994633
13	0x3d473b6e	0.04864066
14	0x3d12ee8f	0.03587204
15	0x3cf4b260	0.029870212
16	0x3d849f32	0.064756766
17	0x3d7b3cbe	0.061337225
18	0xbc9971d3	-0.018731033
19	0x3d2d5ccb	0.042324822
20	0xbcaac29e	-0.020844754
21	0xbd3c1787	-0.045920875
22	0xbcd4a980	-0.02595973
23	0x3d2bc974	0.041940168
24	0x3cc0ca94	0.023534097
25	0xbd8bdf9b	-0.06829759
26	0x3d65f56b	0.056142252
27	0xbccf88bf	-0.02533376
28	0x3cd10e21	0.025519433
29	0xbc9c6a58	-0.019093677
30	0xbcd34164	-0.025788017
31	0x3d8367db	0.06416293
32	0xbd324baf	-0.04352921
33	0x3d6ca98d	0.057778884
34	0xbce83dd1	-0.028349789
35	0x3d065b9e	0.032802217
36	0xbcfd173f	-0.030894874
37	0x3d15738f	0.03648716
38	0xbce9efd1	-0.028556736
39	0xbca955ad	-0.020670736
40	0xbc8987a2	-0.016788308
41	0x3d114289	0.035463843
42	0x3d4353a9	0.047687206
43	0x3d778d44	0.060437456
44	0xbd4aca44	-0.0495093
45	0x3c9b0de3	0.01892752
46	0x3d0b8366	0.03406086
47	0xbd77103b	-0.060318213
48	0xbc49d315	-0.012318392
49	0x3cd3eec2	0.025870685
50	0x3d3d9246	0.046282075
51	0xbd0a034c	-0.03369455
52	0xbd2e4a3e	-0.04255127
53	0xbcfcb08d	-0.030845905
54	0xbcf3233f	-0.029679893
55	0x3ce48fdb	0.027900627
56	0x3d5f7cf5	0.054562528
57	0x3d38af77	0.04508921
58	0xbd19d247	-0.03755405
59	0x3c7c0340	0.015381634
60	0x3d0343b7	0.032047
61	0xbcda66a6	-0.026660275
62	0xbcd74530	-0.026278108
63	0xbc8466fe	-0.016162392
64	0x3d73b00d	0.059494067
65	0xbd0073aa	-0.031360306
66	0x3d232618	0.03983125
67	0x3db5e259	0.08881063
68	0x3d18c2ad	0.037295032
69	0x3ce43f4b	0.027862212
70	0x3cd5bbb6	0.026090484
71	0xbcf1d2e1	-0.0295195
72	0x3d543c52	0.05181534
73	0xbd11da0f	-0.035608348
74	0xbd707d84	-0.05871345
75	0xbd631ff5	-0.0554504
76	0xbd061ca8	-0.032742172
77	0xbd03b73e	-0.032157175
78	0xbc80d95e	-0.015728649
79	0xbd7e9aae	-0.062159233
80	0xbd28779a	-0.041129686
81	0xbcc075f7	-0.02349375
82	0x3d416c6f	0.04722255
83	0xbd560ec0	-0.05226016
84	0x3d194aed	0.03742497
85	0x3d236062	0.03988684
86	0xbce66f39	-0.028129207
87	0x3cf249c1	0.029576184
88	0xbc7b058e	-0.015321149
89	0xbd301581	-0.042989258
90	0xbd5442c4	-0.051821485
91	0x3cc66287	0.024216903
92	0x3d213767	0.039359476
93	0x3d86b00c	0.06576547
94	0xbd1d110b	-0.03834633
95	0xbd3e9ede	-0.046538226
96	0x3d34c774	0.044135526
97	0xbd0d1720	-0.03444588
98	0xbd3f1c62	-0.046657927
99	0xbd31f1d8	-0.04344353
100	0x3ce9cf1b	0.028541138
101	0x3ccabbf6	0.02474783
102	0xbcb328dd	-0.021870071
103	0xbd39f22c	-0.04539697
104	0x3d0ac826	0.033882283
105	0xbd676258	-0.056490272
106	0xbd6635ad	-0.056203533
107	0xbd933736	-0.07188265
108	0xbd31e4ec	-0.043431208
109	0x3d0f0747	0.03491905
110	0x3d913d48	0.070917666
111	0xbd1ce6b3	-0.03830595
112	0xbd28b146	-0.041184686
113	0xbd1a5709	-0.03768066
114	0xbcbb9523	-0.022898262
115	0xbd328472	-0.04358334
116	0xbca5a99f	-0.020222483
117	0xbd4f16d1	-0.05055887
118	0xbd197d1e	-0.037472837
119	0xbcc97144	-0.024590142
120	0x3ce19f31	0.027541729
121	0xbcfb001e	-0.030639704
122	0xbd335333	-0.043780517
123	0x3d937d74	0.07201663
124	0x3d59d537	0.053181853
125	0x3d3a0a84	0.045420185
126	0xbd89722f	-0.06711232
127	0x3ca0c751	0.019626291
128	0x3cbef6c1	0.02331102
129	0xbd22f2a5	-0.039782185
130	0x3cadc99b	0.021214297
131	0xbcb4ae0d	-0.02205565
132	0xbd3eadd2	-0.046552487
133	0xbd6ba20c	-0.057527587
134	0xbce401cf	-0.027832894
135	0x3d73be00	0.05950737
136	0xbce07797	-0.027400775
137	0xbce16c0c	-0.027517341
138	0xbd2d909e	-0.042374246
139	0x3d1d1d40	0.038357973
140	0x3d2cab15	0.042155344
141	0x3d005f78	0.031341046
142	0x3d395f4b	0.045256894
143	0x3d0ef684	0.034903064
144	0xbcd9b7e0	-0.026576936
145	0xbd4c2735	-0.04984208
146	0xbd0cd024	-0.034378186
147	0xbd3c3929	-0.04595295
148	0xbcd805a0	-0.02636987
149	0x3d06e9da	0.032937862
150	0xbcfd1628	-0.030894354
151	0x3ceeeba2	0.029165093
152	0x3d19cb79	0.037547562
153	0xbd389b7b	-0.045070153
154	0xbd7b7449	-0.061390195
155	0xbcfdd0d8	-0.030983374
156	0xbd82fc35	-0.06395761
157	0xbcfa285f	-0.030536829
158	0x3ca36a10	0.019948035
159	0x3cd174d7	0.025568409
160	0x3c919869	0.01777287
161	0x3cd63080	0.026146173
162	0xbcf608b8	-0.030033454
163	0xbd7dfad1	-0.062006775
164	0xbcbab7a4	-0.022792645
165	0xbd1ae0b5	-0.037811954
166	0xbcf15256	-0.029458206
167	0xbd0b396d	-0.033990312
168	0xbd01aa51	-0.031656567
169	0xbcfb8e47	-0.030707492
170	0xbd827b69	-0.06371195
171	0xbcf008dc	-0.0293011
172	0xbcde770c	-0.027156375
173	0xbd23fccf	-0.04003602
174	0xbca41827	-0.020031048
175	0xbd66db24	-0.056361333
176	0xbd457395	-0.04820593
177	0x3d3f5d72	0.046719976
178	0xbcd5452e	-0.026033964
179	0xbd5dc9f4	-0.054147676
180	0xbd4ce337	-0.050021376
181	0x3d20f6c5	0.039297838
182	0x3d86b0b5	0.06576673
183	0x3d4ef3a7	0.050525334
184	0x3cdf01b1	0.027222486
185	0xbcc9051c	-0.02453857
186	0x3cb61fcb	0.022231957
187	0x3caaecd7	0.020864887
188	0xbcd4d238	-0.025979146
189	0xbd809bd7	-0.06279724
190	0xbd81623a	-0.06317563
191	0xbd856aab	-0.06514486
192	0x3d1b67bd	0.03794073
193	0xbcc6806a	-0.024231154
194	0xbd4f07a9	-0.050544415
195	0xbcd8203c	-0.026382558
196	0xbd426db3	-0.0474679
197	0xbd141ece	-0.03616219
198	0xbd598f5f	-0.053115245
199	0xbd418bc4	-0.04725243
200	0x3cd31fbf	0.025771974
201	0xbcfd7395	-0.030938903
202	0xbd5f3cb1	-0.05450124
203	0xbccbf304	-0.024896152
204	0x3cc0a29c	0.023515038
205	0xbd3bccfc	-0.045849785
206	0xbcd04810	-0.025424987
207	0x3cfa457f	0.030550716
208	0xbc9d7ee3	-0.019225543
209	0xbd02991a	-0.03188429
210	0xbd2c1b70	-0.042018354
211	0x3ca98393	0.020692622
212	0xbd3d1cf4	-0.04617019
213	0xbd43cf9f	-0.047805425
214	0xbd6d3694	-0.057913378
215	0xbce7cab3	-0.028294897
216	0x3d679223	0.05653585
217	0xbd2f2b5b	-0.042765956
218	0xbd21a6cc	-0.03946571
219	0x3cf3d84a	0.02976622
220	0x3d218c7e	0.039440624
221	0xbcd8eec5	-0.026481042
222	0x3d21425f	0.039369937
223	0x3d9d7eea	0.076902226
224	0x3d1b4520	0.03790772
225	0x3cadde52	0.021224175
226	0xbd1f18ee	-0.038842134
227	0x3cbd37c7	0.023097886
228	0xbd394075	-0.045227487
229	0xbd1e438d	-0.03863864
230	0xbd12d0ae	-0.035843544
231	0xbd398e9c	-0.04530202
232	0xbcb7145a	-0.022348572
233	0x3ca4bdcb	0.020110032
234	0x3ce17bd6	0.02752487
235	0x3d642adf	0.055704948
236	0x3d860223	0.06543376
237	0x3cd9dd8f	0.026594905
238	0xbd9dec40	-0.07711077
239	0xbce0a9e4	-0.02742476
240	0xbd0b2c7d	-0.033977974
241	0xbd1ddd25	-0.038540978
242	0xbc5d898d	-0.013521564
243	0xbca97081	-0.020683529
244	0x3d01c0aa	0.03167788
245	0x3d064d74	0.03278871
246	0xbd7b9771	-0.061423723
247	0xbd89e505	-0.06733135
248	0x3d258dc5	0.040418405
249	0x3d0b7402	0.03404618
250	0x3d662cec	0.056195185
251	0x3d23abce	0.039958768
252	0xbd7d60f9	-0.06186006
253	0xbd1f9317	-0.038958635
254	0xbce4c67d	-0.027926678
255	0xba960a10	-0.0011447091

conv3.bias f4 [64]
0	0x3c700525	0.014649664
1	0xbc3a354a	-0.011365244
2	0xbd2aeff7	-0.041732755
3	0x3cd492b7	0.025948865
4	0xbde04285	-0.109501876
5	0x3d0e2837	0.03470632
6	0x3c75fc4a	0.015013764
7	0x3c41b574	0.011823047
8	0xbbf60da2	-0.0075089494
9	0x3cd6091b	0.026127389
10	0xbd21c3c9	-0.039493356
11	0xbd18b3ea	-0.037280954
12	0xbca00146	-0.019531857
13	0xbb910fe7	-0.0044269445
14	0xbd81016d	-0.062991
15	0xbccb2669	-0.024798589
16	0x3d2cb0fa	0.042160966
17	0x3ba3293e	0.0049792817
18	0xbd3e418b	-0.046449225
19	0xbd57da29	-0.052698288
20	0xbd44f0eb	-0.04808132
21	0x3d16957c	0.036763653
22	0xbc5a9894	-0.0133420415
23	0xbc9c5383	-0.01908279
24	0x3bb3accb	0.005483245
25	0xbcad1654	-0.021128811
26	0xbddf3385	-0.108984984
27	0x3d012959	0.031533573
28	0xbaca7cb0	-0.0015448537
29	0xbd18e566	-0.037328146
30	0x3acb506e	0.0015511641
31	0x3bea3afc	0.0071481448
32	0xbc2f94e9	-0.010716655
33	0xbd8b569e	-0.0680363
34	0xbc1ab53f	-0.0094426265
35	0x3ca28d7c	0.019842856
36	0xbcda754a	-0.026667256
37	0x3d48afa3	0.048995625
38	0x3c1330e5	0.008983825
39	0xbcba17fc	-0.022716515
40	0x3cc77ef3	0.024352526
41	0x3d26f1f0	0.040758073
42	0x3c74ff7e	0.014953492
43	0xbbc2463b	-0.0059287823
44	0x3c4c8a14	0.012484092
45	0xbd480607	-0.048833873
46	0x3ca69f0e	0.020339515
47	0x3cb42f36	0.021995168
48	0xbd702d41	-0.058636907
49	0x3aa3e025	0.0012502713
50	0xbd3649b7	-0.044503894
51	0x3be46bee	0.006970874
52	0xbc8e004d	-0.017334128
53	0x3d0eb85e	0.034843795
54	0xbd08fdd0	-0.03344518
55	0x3c9c05a1	0.019045653
56	0xbd87973b	-0.06620642
57	0xbd26de87	-0.040739562
58	0xbcb6cd93	-0.022314822
59	0xbd5ef3b2	-0.054431625
60	0x3cab9bb3	0.020948267
61	0x3c6c6de9	0.0144305015
62	0xbd697264	-0.056993857
63	0xbd8953e2	-0.067054525

normalization3.weight f4 [64]
0	0x3f875a2c	1.0574393
1	0x3f8328fb	1.0246881
2	0x3f7c6a7c	0.9859998
3	0x3f7a4334	0.97758794
4	0x3f91477c	1.134994
5	0x3f85865e	1.0431631
6	0x3f83b9b9	1.0291053
7	0x3f7deefe	0.991928
8	0x3f8f65dd	1.1202961
9	0x3f7b1e9f	0.980936
10	0x3f862c97	1.0482358
11	0x3f75d3bd	0.9602621
12	0x3f798876	0.9747385
13	0x3f87e87d	1.0617825
14	0x3f7afbe3	0.980406
15	0x3f77a624	0.96737885
16	0x3f814c8a	1.0101483
17	0x3f7b13b9	0.9807697
18	0x3f8d29a1	1.1028329
19	0x3f7b2c6e	0.9811467
20	0x3f8f5e7e	1.1200712
21	0x3f818e8e	1.0121629
22	0x3f81e598	1.0148191
23	0x3f7ba2d3	0.98295325
24	0x3f82598f	1.0183581
25	0x3f799808	0.97497606
26	0x3f922880	1.141861
27	0x3f778422	0.96685994
28	0x3f78f428	0.9724755
29	0x3f7d49a7	0.9894051
30	0x3f7cf270	0.9880743
31	0x3f773c94	0.9657681
32	0x3f8d6ac5	1.1048208
33	0x3f7655df	0.9622478
34	0x3f805fb1	1.0029203
35	0x3f936d71	1.1517774
36	0x3f7ce582	0.987877
37	0x3f7a157e	0.97689044
38	0x3f81a6c6	1.012902
39	0x3f82c612	1.0216696
40	0x3f8089d7	1.0042065
41	0x3f80d6a0	1.0065498
42	0x3f822ce3	1.0169948
43	0x3f84e2cd	1.0381714
44	0x3f7b3a00	0.98135376
45	0x3f77e5b4	0.96834874
46	0x3f8138b2	1.0095427
47	0x3f7b6768	0.9820466
48	0x3f7c3a6e	0.98526657
49	0x3f89b9d3	1.0759834
50	0x3f76e927	0.9644951
51	0x3f8742a2	1.056721
52	0x3f84e762	1.0383112
53	0x3f7851c3	0.9699976
54	0x3f811510	1.0084553
55	0x3f7f8fef	0.99829
56	0x3f7c9b45	0.9867442
57	0x3f81a1d5	1.0127512
58	0x3f8391c0	1.0278854
59	0x3f78d6d8	0.97202826
60	0x3f7e48b8	0.9932971
61	0x3f79d82a	0.97595465
62	0x3f79e469	0.9761415
63	0x3f822ff4	1.0170884

normalization3.bias f4 [64]
0	0x3ca04113	0.01956228
1	0x3c997456	0.018732231
2	0xbc0d1266	-0.008610344
3	0xbcb1185f	-0.021618066
4	0xbdfc8535	-0.12330095
5	0xbd1af6da	-0.037833072
6	0xbcbb1f65	-0.022842119
7	0xbd59944f	-0.053119954
8	0x3dcb2d3f	0.099207394
9	0xbd2bd59a	-0.041951753
10	0xbcc9fd42	-0.024656896
11	0xbd3046c8	-0.043036252
12	0xbd416d24	-0.047223225
13	0xbd207e5c	-0.039183006
14	0xbcfd6bab	-0.03093513
15	0xbcdddceb	-0.027082881
16	0x3bc4c0d4	0.006004432
17	0xbcb2c994	-0.021824636
18	0xbd4032d1	-0.046923462
19	0xbd497bd2	-0.04919035
20	0x3cf904fc	0.030397885
21	0xbbeddb8b	-0.0072588376
22	0xbd1f2426	-0.038852833
23	0xbd121470	-0.035664022
24	0xbd3be25f	-0.04587018
25	0xbd407ab8	-0.046992034
26	0xbdc22931	-0.09480513
27	0xbd5a7b50	-0.053340256
28	0xbd4340e4	-0.047669306
29	0xbcc748bd	-0.024326677
30	0xbd539e87	-0.051664855
31	0xbd04a6ba	-0.032385565
32	0xbda7ba5c	-0.08189842
33	0xbd389325	-0.045062203
34	0xbd32ba7a	-0.04363487
35	0x3ca32556	0.019915264
36	0xbd37da16	-0.044885717
37	0xbba9f5f5	-0.005186791
38	0xbcbe5c96	-0.023237508
39	0xbd8e2a5f	-0.069416754
40	0xbcf5a521	-0.029985966
41	0xbd4f23e6	-0.050571345
42	0x3c1ac359	0.009445989
43	0xbcb4ec2b	-0.02208527
44	0xbcd44234	-0.025910474
45	0xbd2e87a3	-0.042609822
46	0x3c96fb86	0.018430483
47	0xbd39a02e	-0.045318775
48	0xbd254fe7	-0.040359404
49	0xbda9983c	-0.082809895
50	0xbcc06d3b	-0.023489585
51	0xbd8584b3	-0.06519451
52	0x3d0afde4	0.033933535
53	0xbca2ed0c	-0.019888423
54	0xbd38d1d1	-0.04512197
55	0x3c5e3050	0.013561323
56	0xbc90be2a	-0.017668802
57	0xbd8d5eb1	-0.069028266
58	0x3bb0f581	0.00540036
59	0xbd556a7f	-0.052103516
60	0xbbf16f75	-0.007368023
61	0xbcb2acee	-0.021810975
62	0x3ca1c8cf	0.019749073
63	0x3c815354	0.015786804

normalization3.running_mean f4 [64]
0	0x3fae0cb3	1.3597625
1	0x4043a54b	3.0569637
2	0x40a9f80a	5.311528
3	0x3ed33827	0.41253778
4	0x3fa874b7	1.3160619
5	0x3fe25234	1.7681336
6	0x4013fc2b	2.312266
7	0x40d249fe	6.5715322
8	0x3eff5ba4	0.49874604
9	0x418e581b	17.79302
10	0x3f7dd959	0.9915977
11	0x3fd00895	1.6252619
12	0x40601ac9	3.5016348
13	0x40277e4c	2.6170835
14	0x40ac36c9	5.3816876
15	0x410f9253	8.973224
16	0x3fc9e2da	1.5772355
17	0x4072bbed	3.79272
18	0x3f536a02	0.8258363
19	0x410054c4	8.020695
20	0x3f82604a	1.0185635
21	0x4050804c	3.2578306
22	0x40497ef8	3.1483746
23	0x4093744e	4.6079473
24	0x400e6749	2.225054
25	0x41278173	10.469104
26	0x3f53546b	0.82550687
27	0x4108a5f7	8.540519
28	0x40856181	4.1681523
29	0x40082e31	2.1278193
30	0x4022cb31	2.5436518
31	0x4041deb9	3.029219
32	0x3fd56ec9	1.6674434
33	0x410cf994	8.810932
34	0x4075767e	3.8353572
35	0x3f92521a	1.1431305
36	0x408b1358	4.3461113
37	0x40871443	4.2212234
38	0x40c8c4e0	6.2740326
39	0x406aed9c	3.6707525
40	0x401acfa8	2.4189243
41	0x402dc10c	2.7149076
42	0x403ca53e	2.9475856
43	0x3fe66d0d	1.800203
44	0x3f9e4765	1.2365538
45	0x4041ad47	3.026201
46	0x3ff7a906	1.9348457
47	0x40b6e6af	5.7156596
48	0x40c30529	6.09438
49	0x3fffe315	1.9991175
50	0x40981ea7	4.7537417
51	0x3fc2e59a	1.5226319
52	0x3f6367e9	0.8883043
53	0x4085792d	4.171042
54	0x4023563a	2.5521379
55	0x4064bcc2	3.5740209
56	0x3fc86012	1.5654318
57	0x3f906efa	1.1283867
58	0x4096efea	4.7167864
59	0x40e7bd0e	7.241828
60	0x404d2a47	3.2057054
61	0x3fb895d0	1.4420719
62	0x4027b93a	2.6206803
63	0x3fed7568	1.8551455

normalization3.running_var f4 [64]
0	0x41ce6d98	25.803513
1	0x424f2b69	51.792393
2	0x42e2274d	113.07676
3	0x409ee0ff	4.9649653
4	0x420ba928	34.91519
5	0x41eaaabe	29.33337
6	0x428ac6f6	69.388596
7	0x432c7002	172.43753
8	0x40fb83cd	7.859839
9	0x43b074ee	352.9135
10	0x41897f66	17.187206
11	0x41ff76ca	31.933002
12	0x42a8e6b7	84.450615
13	0x42892825	68.57841
14	0x43079e4f	135.6184
15	0x432eb486	174.70517
16	0x41d930cc	27.148827
17	0x42aae813	85.45327
18	0x4180e5c5	16.112192
19	0x43567e56	214.4935
20	0x41aecca4	21.849922
21	0x42a40e64	82.02811
22	0x42ae4541	87.13526
23	0x42c86cf3	100.21279
24	0x4238a082	46.156746
25	0x4395b2fc	299.39832
26	0x419d645a	19.674
27	0x43646b7c	228.41986
28	0x42b42989	90.08112
29	0x41d171fb	26.180655
30	0x4273e552	60.973946
31	0x42a27950	81.23694
32	0x423ca714	47.163162
33	0x43854c7b	266.5975
34	0x42abf840	85.98486
35	0x41a4c173	20.594458
36	0x42c30026	97.50029
37	0x42cd9afb	102.8027
38	0x431a7c0b	154.48454
39	0x4290816d	72.252785
40	0x421e47f7	39.57028
41	0x42a2bc05	81.367226
42	0x42924a20	73.144775
43	0x41b02865	22.019724
44	0x41c5a723	24.70661
45	0x42813820	64.60962
46	0x4258f222	54.236458
47	0x43187c61	152.48586
48	0x43240106	164.004
49	0x426bd727	58.96011
50	0x42be392c	95.111664
51	0x42181657	38.021816
52	0x418b8ea2	17.444645
53	0x42d7e047	107.93804
54	0x42715be8	60.339752
55	0x4296fe13	75.49624
56	0x4190a15b	18.078787
57	0x41b2b0ac	22.336266
58	0x42c1a8aa	96.82942
59	0x4311a0db	145.62834
60	0x423ce9cb	47.228313
61	0x41b9805a	23.187672
62	0x422b4380	42.815918
63	0x41d31bec	26.388634

dense.weight f4 [2, 16384]
0	0xbcc72d0f	-0.024313478
1	0xbccbf5af	-0.024897425
2	0x3d0df6ec	0.03465931
3	0x3ce9fa75	0.02856181
4	0xbcb07c88	-0.021543756
5	0x3c98afe4	0.018638559
6	0x3ca8e98d	0.020619178
7	0x3c2e2422	0.010628732
8	0xbc9813ce	-0.018564131
9	0x3b501bf3	0.003175494
10	0xbc28b404	-0.010296825
11	0xbce98b1b	-0.028508713
12	0xbc9b61e4	-0.018967576
13	0x3d0603b2	0.032718368
14	0xbc236f18	-0.009975217
15	0x3cd1586b	0.025554856
16	0x3b96f558	0.004606884
17	0x3cd5b528	0.026087359
18	0x3c75c4cf	0.015000536
19	0x3c661eb0	0.014045402
20	0x3cbee36c	0.023301803
21	0x3cc78048	0.024353161
22	0x3d460e2b	0.048353355
23	0xbcd15c76	-0.025556784
24	0xbd01172a	-0.03151623
25	0x3cba80cb	0.022766491
26	0x3c481cd8	0.012213908
27	0xbcd65d44	-0.02616752
28	0xbd1bba06	-0.038019203
29	0xbbd04c00	-0.006356716
30	0xbc9dbe88	-0.019255891
31	0xbd047af7	-0.03234383
32	0x3cb12ddd	0.021628315
33	0xbc2252e8	-0.009907462
34	0x3bbe9a87	0.005816761
35	0xbca159d4	-0.019696154
36	0x3cf1d945	0.029522547
37	0x3cf7a5e2	0.030230466
38	0xbc0f6cae	-0.008753939
39	0x3cba63e0	0.022752702
40	0x3c925222	0.01786143
41	0xbd2a982a	-0.04164902
42	0xbcfe08fc	-0.031010143
43	0xbcfd049a	-0.030885983
44	0x3c864933	0.016392326
45	0xbc4dff88	-0.01257313
46	0xbc99c8a9	-0.01877244
47	0x3c3c742e	0.011502309
48	0xbc52f9e0	-0.012876958
49	0x3c25e48b	0.01012529
50	0xbc8a5544	-0.016886361
51	0x3caa0a04	0.020756729
52	0x3d17ed60	0.037091613
53	0x3cabc247	0.020966662
54	0xbcce3ea7	-0.02517636
55	0xbd1837eb	-0.037162703
56	0xbd0d683d	-0.034523237
57	0x3c9f8963	0.01947469
58	0xbca2dcd9	-0.019880699
59	0xbd3613ce	-0.04445248
60	0xbce9b0ad	-0.028526628
61	0xbcd676bb	-0.026179662
62	0xbc91f907	-0.01781894
63	0xbc998d47	-0.018744124
64	0xbc92bba1	-0.017911734
65	0xbc8ce8b5	-0.017200807
66	0xbcf54458	-0.029939815
67	0x3c749e01	0.014930249
68	0x3b8a5f21	0.004222766
69	0x3c913893	0.017727172
70	0x3c0d113a	0.008610064
71	0x3c592d9c	0.013255503
72	0xbcd6d62c	-0.026225172
73	0xbd3c595d	-0.04598366
74	0xbd2dd352	-0.04243786
75	0xbd169e15	-0.036771853
76	0xbd07d165	-0.03315868
77	0xbc8c2e4b	-0.017111918
78	0x3c8db8ca	0.017300028
79	0x3c71f836	0.014768651
80	0x3b9d562e	0.004801533
81	0x3cfbde93	0.03074578
82	0xbc784117	-0.015152237
83	0x3d1354e0	0.035969615
84	0x3c831806	0.016002666
85	0x3c69db80	0.014273524
86	0xbc865358	-0.016397163
87	0xbd321168	-0.04347363
88	0x3a05f77f	0.0005110427
89	0xbd0baf7b	-0.034102898
90	0x3cb75814	0.022380866
91	0xbc4bf504	-0.012448553
92	0xbcd0eea5	-0.02550442
93	0xbd06ece2	-0.032940753
94	0xbceb674f	-0.028735785
95	0xbcd70fc7	-0.02625264
96	0xbd0f9640	-0.0350554
97	0x3c8e6486	0.017381918
98	0x3c50e49c	0.012749817
99	0xbca1821a	-0.019715358
100	0xbca556bd	-0.020182962
101	0x3d1723af	0.036899265
102	0x3c8ad7dd	0.016948635
103	0xbc4f0dec	-0.012637597
104	0xbd0586bf	-0.032599207
105	0xbd086c8f	-0.033306655
106	0xbc83ffe9	-0.016113238
107	0x3c193986	0.009352094
108	0xbd4e5ad4	-0.05037959
109	0x3d2ca6d3	0.042151283
110	0xbcf7fd10	-0.030272037
111	0xbcd9a4b9	-0.026567804
112	0xbc6f19a8	-0.014593519
113	0x3caef0a6	0.021354984
114	0x3c885111	0.016640218
115	0x3c84d9b0	0.016217083
116	0x3ce91197	0.02845077
117	0x3ca8e6e5	0.020617912
118	0xbc271e96	-0.010200163
119	0x3b6bd3dc	0.0035984432
120	0xbbf584c1	-0.007492632
121	0x3c80ae0c	0.015707992
122	0x3aa1972e	0.001232838
123	0xbc050c9b	-0.008120681
124	0x3c6e1f4e	0.014533831
125	0x3d131be5	0.035915274
126	0xbc8e5fc5	-0.01737965
127	0xbc899098	-0.01679258
128	0x3cf0355b	0.029322317
129	0xbcb8f4e9	-0.02257772
130	0x3cb97c00	0.022642136
131	0x3cf20a0a	0.029545803
132	0x3d05c0d5	0.032654602
133	0xbc475934	-0.012167264
134	0x3c686440	0.014184058
135	0xbc9333df	-0.01796907
136	0xbd21cc42	-0.039501436
137	0xbceb68d4	-0.02873651
138	0xbc84b135	-0.01619778
139	0xbc6af6a1	-0.0143410275
140	0x3cc47b90	0.0239847
141	0x3cbaeb4c	0.022817276
142	0x3c61acf0	0.013774142
143	0xbc8de8ed	-0.017322982
144	0x3ceca49c	0.028887086
145	0x3c0d647c	0.008629914
146	0x3d3bd180	0.04585409
147	0x3cc2a27b	0.023759117
148	0x3ce07d2d	0.027403438
149	0x3d0f610f	0.03500467
150	0xbcb82fcf	-0.022483734
151	0x3c8d76f3	0.017268633
152	0xbcbd6933	-0.023121452
153	0x3ca2b534	0.019861795
154	0x3ca4a0a9	0.02009614
155	0x3c77bfb3	0.015121388
156	0x3cec09b5	0.028813222
157	0xbc9dc1d7	-0.01925747
158	0x3cc3841c	0.023866706
159	0x3c798a88	0.015230782
160	0xbb8addf8	-0.0042378865
161	0x3cba44bb	0.022737851
162	0x3c98955c	0.018625908
163	0xbcd7b889	-0.02633311
164	0x3d0898f4	0.033348992
165	0x3d24ab4e	0.04020243
166	0x3d16cd80	0.036817074
167	0xbc8bad7d	-0.0170505
168	0x3caa3e37	0.02078162
169	0x3cca38a5	0.024685213
170	0x3d10e271	0.0353722
171	0x3cf63793	0.030055797
172	0xbcabd51e	-0.020975646
173	0x3cc903b3	0.024537897
174	0x3c8db200	0.017296791
175	0x3caa6a7a	0.020802725
176	0x3d15a8d4	0.03653796
177	0x3ca5fc60	0.020261943
178	0x3cf55eda	0.029952455
179	0x3cb36a3a	0.021901239
180	0x3cda4b8c	0.026647352
181	0x3cab1f41	0.020888926
182	0x3ce975d4	0.028498568
183	0x3ca0336d	0.019555772
184	0xbc852584	-0.01625324
185	0x3c865b4b	0.016400954
186	0x3ca229c8	0.019795313
187	0x3d047818	0.032341093
188	0x3d27c944	0.040963426
189	0x3d2e27c5	0.042518396
190	0x3c8e1f57	0.017348928
191	0x3d04cf8f	0.032424506
192	0xbbe6c078	-0.007041987
193	0xbc8c7712	-0.01714662
194	0x3c38688d	0.011255396
195	0x3ce1c6ec	0.027560674
196	0x3cbd19c0	0.023083568
197	0x3ce6b2a6	0.028161358
198	0x3ce6e908	0.02818729
199	0x3d464249	0.04840306
200	0xbc1c9fc6	-0.009559577
201	0x3cdaa10d	0.026688123
202	0x3ca9d677	0.020732148
203	0x3c59a2da	0.013283456
204	0x3ca1c576	0.019747477
205	0x3cb1e437	0.021715267
206	0x3cd63fa7	0.026153399
207	0xbc47cae8	-0.012194373
208	0x3c28517f	0.010273336
209	0xbcdb8b77	-0.0267999
210	0xbcdcbbe0	-0.026945055
211	0x3c9ae398	0.018907353
212	0x3c8a7fa7	0.016906573
213	0x3d1199fb	0.035547238
214	0x3cb7faba	0.022458423
215	0x3c8728be	0.01649892
216	0x3cba982f	0.022777645
217	0xbbf21efc	-0.0073889475
218	0x3ccd5d88	0.025069013
219	0x3d08d520	0.033406377
220	0x3d16766f	0.03673404
221	0x3d34d734	0.044150546
222	0x3d1fe68e	0.039038233
223	0x3cb459c5	0.022015462
224	0x3cfd56e7	0.030925227
225	0xbc41211b	-0.011787678
226	0xbc997e40	-0.018736959
227	0x3d25de5a	0.040495254
228	0x3d05a3b1	0.03262681
229	0x3d1b58c1	0.03792644
230	0x3cd1f43a	0.025629152
231	0x3cf6a9b7	0.030110223
232	0x3d043e7d	0.032286156
233	0x3d0c01d9	0.03418145
234	0x3caea0b3	0.021316862
235	0x3cb58c4f	0.02216163
236	0x3d055302	0.032549866
237	0x3ceb3e8e	0.028716352
238	0x3ccabd69	0.02474852
239	0x3cca432a	0.02469023
240	0x3c13406a	0.0089875255
241	0x3c51ad6e	0.0127976965
242	0x3bb8b4bb	0.005636779
243	0x3caed45d	0.021341497
244	0x3cf2ac2f	0.02962312
245	0x3ca32481	0.019914867
246	0xbc375e40	-0.011191905
247	0xbc80432d	-0.015657032
248	0x3cb57ab2	0.022153232
249	0x3cc8ffba	0.024536002
250	0xbc93b42f	-0.018030254
251	0xbcae4572	-0.021273348
252	0xbca23eae	-0.019805279
253	0xbca5fa3a	-0.020260919
254	0x3cc3f8dc	0.023922376
255	0xbc09cbab	-0.008410375

dense.bias f4 [2]
0	0x3bf09ac6	0.007342669
1	0xbc53ab86	-0.012919312

stack.0.weight f4 [16, 1, 3, 3]
0	0x3dac081a	0.08399983
1	0xbda232dd	-0.07919858
2	0xbe55c744	-0.20876795
3	0x3e97a3db	0.296172
4	0xbea47fa2	-0.32128626
5	0xbda4f032	-0.08053626
6	0x3ea715ee	0.3263392
7	0x3eb7f50c	0.35929143
8	0x3e8bdc1e	0.27316374
9	0xbd8a7ee2	-0.06762482
10	0xbd98afce	-0.07455407
11	0xbe515b0f	-0.20444892
12	0xbe03fea2	-0.12890103
13	0x3e106401	0.14100648
14	0xbeabee2c	-0.33580148
15	0xbd8f3a63	-0.06993558
16	0x3e28754e	0.16450998
17	0xbdb0c113	-0.08630576
18	0xbdca4c42	-0.09877826
19	0xbdb3a73f	-0.08772134
20	0x3ea80c82	0.32822043
21	0xbd9562f0	-0.072942615
22	0x3e7c2415	0.24623139
23	0x3e0f2911	0.1398051
24	0x3e424de7	0.1897503
25	0xbea6ca3f	-0.32576177
26	0xbdf91f8f	-0.121642224
27	0xbd8c626b	-0.06854709
28	0xbe77f63c	-0.24215025
29	0xbd78f99b	-0.060784917
30	0x3dcc8dd1	0.09987987
31	0x3e9edd1e	0.31028074
32	0xbe827a37	-0.25483868
33	0xbea3cbf1	-0.31991532
34	0xbe9b1466	-0.30289
35	0xbd7e3a52	-0.062067337
36	0x3e3b1a31	0.1827171
37	0xbeca502a	-0.39514285
38	0x3e20fd4e	0.15721628
39	0xbe45426f	-0.19263624
40	0x3dcc06cc	0.09962234
41	0xbeaeaf40	-0.3411808
42	0xbe41cdc1	-0.18926145
43	0x3e64d63b	0.22347347
44	0x3e935508	0.2877581
45	0xbe275fa7	-0.16345082
46	0xbe340f09	-0.1758386
47	0xbe896c58	-0.26840472
48	0x3dc093d1	0.09403194
49	0x3ea1e1b9	0.31617525
50	0x3e0c2be1	0.13688613
51	0xbdcf5b64	-0.10124853
52	0x3e3a1123	0.181706
53	0x3d0b450d	0.0340014
54	0x3dad3faf	0.08459412
55	0x3d879e5b	0.06622001
56	0x3e1b6797	0.15176235
57	0x3e83ce2c	0.25743234
58	0x3e97ad5f	0.2962446
59	0xbe9d4b43	-0.30721483
60	0xbdc83672	-0.097760096
61	0x3e8725a7	0.26395914
62	0x3e2a90f6	0.1665686
63	0x3e2c42fa	0.16822425
64	0xbeb80505	-0.3594133
65	0x3e763773	0.2404459
66	0x3e6e6d4e	0.23283884
67	0xbe0d287b	-0.13784973
68	0xbe1b328a	-0.15155998
69	0x3e8fd7ae	0.28094238
70	0x3dc480db	0.0959489
71	0xbe834d49	-0.256449
72	0x3e105dc2	0.14098266
73	0xbe0581bc	-0.13037771
74	0xbe927c53	-0.28610477
75	0x3e0da40e	0.13832113
76	0xbe91c268	-0.28468633
77	0xbd5a1ad0	-0.053248227
78	0xbe8bdf4c	-0.273188
79	0xbea862a5	-0.3288776
80	0x3e259128	0.16168654
81	0xbda8bedb	-0.08239528
82	0xbda9690b	-0.082719885
83	0xbe0aa528	-0.13539565
84	0xbda658fc	-0.08122441
85	0x3db39ef3	0.087705515
86	0x3e6504c0	0.22365093
87	0x3e16e033	0.14733963
88	0x3e94fbcc	0.29098356
89	0x3dc62a52	0.09676041
90	0xbdbfbaf7	-0.093618326
91	0xbe07eed0	-0.13274693
92	0xbe87b8de	-0.2650823
93	0xbe409be7	-0.18809472
94	0x3dc449d7	0.09584396
95	0xbd7a1923	-0.06105913
96	0xbd1f7614	-0.038930967
97	0xbc06f9a7	-0.008238233
98	0xbceced70	-0.028921813
99	0xbe5b9570	-0.21443725
100	0x3e1a94c5	0.15095814
101	0x3e214bf3	0.15751629
102	0xbdf62d69	-0.1202038
103	0xbdce6866	-0.10078506
104	0xbdcc54f2	-0.099771395
105	0x3e1dcec7	0.1541091
106	0xbe049086	-0.12945756
107	0x3e120358	0.14259088
108	0xbc7c628b	-0.015404354
109	0xbdd5d8d5	-0.10441748
110	0x3dd9bb45	0.10631422
111	0xbe0a4d19	-0.13505973
112	0xbce6ed2a	-0.02818926
113	0xbdb4e15d	-0.08832047
114	0xbc2656ed	-0.010152561
115	0xbdaf99d9	-0.08574266
116	0xbe8b9929	-0.2726529
117	0x3de1a38f	0.110175245
118	0x3e9f9029	0.31164673
119	0x3dec5566	0.11539726
120	0x3de2a56f	0.1106671
121	0xbea7f530	-0.3280425
122	0xbd5e175f	-0.054221507
123	0xbd612db2	-0.05497522
124	0xbd7c34f4	-0.061573938
125	0xbdd84b60	-0.10561252
126	0xbe1aa6d1	-0.15102698
127	0xbe3699a5	-0.17832048
128	0x3d502112	0.05081279
129	0xbe0a26fb	-0.13491432
130	0xbe2020cf	-0.15637515
131	0x3e29deaf	0.16588853
132	0x3e25d0c2	0.16192916
133	0x3eb85c2b	0.3600782
134	0x3d9d1f78	0.07672018
135	0xbd44c159	-0.048035953
136	0xbe6da76d	-0.23208399
137	0xbe3475b9	-0.17623033
138	0xbe8f008a	-0.279301
139	0xbdd400dc	-0.103517264
140	0x3dffb675	0.12485973
141	0xbda2a3ee	-0.07941423
142	0x3ea1bd52	0.31589752
143	0x3eb6379f	0.3558931

stack.0.bias f4 [16]
0	0x3ec0aacb	0.37630305
1	0x3ea5d62e	0.3238997
2	0xbe02d420	-0.12776232
3	0x3ee7d294	0.45277846
4	0x3decf2b7	0.11569732
5	0x3ef44493	0.47708568
6	0x3c83e195	0.016098777
7	0x3d0e2107	0.034699466
8	0x3e490620	0.19631243
9	0x3d6aa0d9	0.057282303
10	0xbeb7c736	-0.35894173
11	0x3efe25bd	0.49638167
12	0xbe4f3ba2	-0.20237592
13	0x3f010f8e	0.5041436
14	0x3eb3be87	0.35106298
15	0x3e4a7083	0.19769482

stack.2.weight f4 [16]
0	0x3f96f0b5	1.1792208
1	0x3f726b05	0.9469455
2	0x3f26f5b5	0.6521867
3	0x3f6aaf2a	0.9167353
4	0x3f77194e	0.96522987
5	0x3f60ff48	0.8788953
6	0x3f782ca3	0.9694311
7	0x3fa952e9	1.3228427
8	0x3f6c96df	0.9241771
9	0x3f75d468	0.9602723
10	0x3f6dffdd	0.9296854
11	0x3f6d8857	0.92786163
12	0x3f7ede56	0.9955801
13	0x3f62719a	0.8845459
14	0x3f9f4677	1.2443379
15	0x3f877ca1	1.0584909

stack.2.bias f4 [16]
0	0x3daf3cc5	0.08556513
1	0x3d6cb5de	0.05779063
2	0x3e00d3a9	0.12580742
3	0x3dc1b711	0.09458745
4	0x3def5085	0.1168528
5	0x3cff7f79	0.031188713
6	0x3c81dd18	0.015852496
7	0xbdf014a3	-0.11722686
8	0x3deba613	0.115062855
9	0x3d765835	0.060142715
10	0x3d41643c	0.04721473
11	0x3e3481a2	0.17627576
12	0x3d33a2c6	0.043856405
13	0xbd7d002d	-0.061767746
14	0x3e361de9	0.17784847
15	0x3e10f543	0.1415606

stack.2.running_mean f4 [16]
0	0x3f57c877	0.8429026
1	0x3bb7d85a	0.005610508
2	0x3a874559	0.001032035
3	0x3c4ddd22	0.012564929
4	0x3f13c60b	0.57724065
5	0x3f73c99f	0.95229524
6	0x401587b6	2.3364081
7	0x3f001fce	0.5004853
8	0x3b9151d1	0.004434802
9	0x3f0bc38d	0.5459526
10	0x00000004	6e-45
11	0x3e0edfc3	0.13952546
12	0x340c621b	1.3074207e-07
13	0x3e35d562	0.1775718
14	0x3f5175f9	0.81820637
15	0x3c22f35c	0.009945717

stack.2.running_var f4 [16]
0	0x3e0cbef6	0.13744721
1	0x3a8a3745	0.0010545036
2	0x39abf0f2	0.0003279518
3	0x3b4ff0ce	0.0031729224
4	0x3da9766f	0.082745425
5	0x3e107aaf	0.141093
6	0x3fd21922	1.641392
7	0x3dcae622	0.099071756
8	0x3a225de6	0.00061938015
9	0x3e1b731f	0.15180634
10	0x00000004	6e-45
11	0x3cf92990	0.030415326
12	0x32a20db2	1.886551e-08
13	0x3d8ae58c	0.06782064
14	0x3e0b8fcf	0.13629077
15	0x3b29d9c7	0.002591716
