grj/DogCat_Recognition/full_binary_weights.pth (torch, 236821 bytes, 40 tensors)

conv1.weight f4 [16, 1, 3, 3]
000000 82 eb dd 3e 89 6b 43 be 96 4b fd be 9a 94 64 3e
       0.4334374 -0.1908399 -0.4947173 0.22322312
000010 2f ad f0 3c 7c 66 80 be 36 4a 0c bf 7f 3b c6 be
       0.029379455 -0.2507819 -0.54800737 -0.38717267
000020 af ce 6d bf 81 90 89 bc c9 77 b4 be fe 17 32 be
       -0.928935 -0.016792538 -0.3524764 -0.17391965
000030 0a a5 cf be f2 ca 6d be a2 dc 10 bf 54 ee 95 3d
       -0.40555602 -0.23221949 -0.5658666 0.07320848
000040 0a ec e8 3d 82 8b 38 be f5 85 a5 3d 1a 6e 00 3e
       0.11373146 -0.18021968 0.08082191 0.12542
000050 dd 42 bb be e0 1a 86 3d fa 02 a1 be 27 16 f7 3d
       -0.3657445 0.06548095 -0.31447583 0.12064772
000060 c1 82 85 be 59 5e 83 be 86 d9 19 be a8 9c 23 bd
       -0.2607632 -0.2565792 -0.15024385 -0.03994432
000070 00 fa a9 bc 50 f6 13 be 08 eb 52 3d 40 32 89 bc
       -0.020749092 -0.1444943 0.051493675 -0.016747594
000080 bc a6 93 bd d0 6b ff bd 56 84 00 3e 58 18 47 be
       -0.072095364 -0.124717355 0.12550482 -0.1944288
000090 b0 46 64 be 8b 41 ad be 40 4d 55 3e b5 cf 10 3e
       -0.2229259 -0.33839068 0.2083025 0.14141734
0000a0 aa 37 85 bd 8d 00 d2 be a9 ef c8 bd 26 92 b5 3d
       -0.06504758 -0.41016045 -0.098113365 0.08865766
0000b0 e2 f3 02 3e 2b 6f 86 be 2d f1 dd be be 12 1a 3e
       0.12788346 -0.2625669 -0.43348065 0.15046212
0000c0 0d 80 8f be 2e 8a 13 be b3 94 5d 3d db d1 16 bd
       -0.28027382 -0.1440818 0.05409689 -0.036821228
0000d0 51 3c e4 bd 71 af 80 bd 7c 78 27 3e 09 9b 85 be
       -0.11144317 -0.06283463 0.16354555 -0.26094845
0000e0 d4 14 b5 be ba 73 31 be ac 6c b6 be ec 11 ac be
       -0.35367453 -0.17329302 -0.35629785 -0.33607423
0000f0 bf ce 39 3d 71 e2 38 be b9 4f 0b be a8 22 cb 3d
       0.045363184 -0.1805513 -0.1360463 0.099187195
000100 bb 43 98 be 50 e3 6a 3e ba 77 b5 be 80 45 d6 be
       -0.29739174 0.22938275 -0.35442907 -0.418499
000110 5d 3e 16 bd 4d 37 dc bd 53 9d b7 be d6 bb c3 bd
       -0.036680568 -0.10752735 -0.35862216 -0.09557311
000120 07 7d 1e bf 87 19 0b bd 97 8b ff be 94 8c 03 bf
       -0.61909527 -0.03395989 -0.49911186 -0.5138638
000130 df 80 64 bd f5 a0 a2 be 6b 3a bc be 2e f6 cd bb
       -0.055786964 -0.31763425 -0.3676332 -0.0062854504
000140 ea cb e3 be 60 24 c3 bd 07 a9 b9 bd 1d 0f 73 be
       -0.44491512 -0.09528422 -0.090654425 -0.23736234
000150 18 66 48 be d5 0c bf 3d f2 56 86 be b5 7c 18 3e
       -0.19570196 0.093286194 -0.2623821 0.14891322
000160 2c 1f 8b be 4f a3 5e be 77 22 28 bf 37 3e cf be
       -0.2717222 -0.21741985 -0.6567759 -0.40477154
000170 1e d1 9f be 7a fa da be 69 75 1b 3e 1c 3e 9a be
       -0.3121423 -0.42769223 0.15181507 -0.3012551
000180 44 c9 ff be 36 96 e5 3d 06 55 2f be 16 d4 44 be
       -0.4995824 0.11210291 -0.17122278 -0.1922153
000190 43 38 78 bd 16 6e 55 bd 52 50 e2 bd ef 1d 93 bc
       -0.06060053 -0.05210694 -0.11050476 -0.01795861
0001a0 a7 e5 f9 3d 1f c2 4a 3e a4 29 c1 bd a2 0f 4c 3e
       0.12202006 0.19800614 -0.094317704 0.19927838
0001b0 f3 20 1c 3f 54 3e 0b 3e 80 17 18 3f ce 16 2e be
       0.60987777 0.13597995 0.5941086 -0.17000887
0001c0 d5 f1 1f 3e 4f 57 d7 3e 4f 3f 05 be 43 c9 9f be
       0.15619595 0.420588 -0.13012432 -0.31208238
0001d0 ae f5 89 be 70 62 cd be 63 30 a0 3e 28 33 23 3e
       -0.2694525 -0.40114164 0.31286916 0.15937483
0001e0 35 1e 90 be d3 0d a7 3e 68 f6 e8 3e 08 5a ed bd
       -0.28148046 0.32627735 0.45500493 -0.11589438
0001f0 c4 06 e2 bd f1 1e de 3e 10 96 6b bd 24 b9 93 bb
       -0.11036447 0.4338298 -0.057516158 -0.0045081545
000200 1e 0f 60 3d 41 40 d3 be a8 95 bc bc 0e 05 0e bd
       0.054701917 -0.4125996 -0.02302058 -0.03467279
000210 2e 50 ae be 4a 2f fc be 39 bc bf 3d 09 f1 12 be
       -0.34045547 -0.4925483 0.093620725 -0.1434976
000220 d3 74 38 bd c8 f1 ef bd c3 28 cf be 09 e8 29 bf
       -0.045033287 -0.11716038 -0.40460786 -0.6636968
000230 1b 2c 2d be 61 0c 95 be 82 9a 96 bd e1 91 8c bd
       -0.16911356 -0.29111007 -0.07353689 -0.06863762

conv1.bias f4 [16]
000000 1d df 13 bf 28 ca df be 0b 58 6b be a3 a1 19 be
       -0.5776232 -0.4370892 -0.22982804 -0.15003066
000010 51 ac 33 be 44 ac 38 be 49 5d 97 be e0 90 d0 be
       -0.17546202 -0.18034464 -0.29563358 -0.4073553
000020 4b 39 18 3f 2a 0b 72 bd aa d4 36 be dc 4f bc be
       0.5946242 -0.059092678 -0.17854562 -0.36779678
000030 70 8d 51 3f ed b4 d0 bf 7c ea e8 be cc c1 c9 bc
       0.8185644 -1.6305214 -0.45491397 -0.024628542

normalization1.weight f4 [16]
000000 ee 24 8a 3f 2d 65 81 3f 9e df 7b 3f 00 00 80 3f
       1.079252 1.0109001 0.9838809 1.0
000010 51 1f 79 3f 12 65 81 3f 28 22 75 3f aa 99 6d 3f
       0.9731341 1.0108969 0.95755243 0.928126
000020 80 ca 79 3e 63 e2 7c 3f 35 43 92 3f 51 66 7f 3f
       0.24393654 0.9878294 1.142676 0.997655
000030 6f 4f 92 3f 17 f1 6e 3f f3 a8 81 3f 32 22 44 3f
       1.1430491 0.93336624 1.0129684 0.7661468

normalization1.bias f4 [16]
000000 32 b8 84 3e ce e4 cf 3e 88 50 ff 3d 2f 37 01 3e
       0.2592178 0.40604252 0.12466532 0.12618707
000010 73 c0 29 be 4f 96 39 3f 63 01 f9 bd 09 90 10 bd
       -0.1657732 0.7249498 -0.121584676 -0.035293613
000020 d6 ba ed 3d ee d9 b4 be 7c 59 23 bd a4 21 03 3e
       0.11607902 -0.35322517 -0.03988026 0.12805802
000030 3a 15 49 bf 36 fd 30 3f 0c ef 9e 3e 92 35 e0 be
       -0.78548014 0.6913637 0.31041753 -0.4379087

normalization1.running_mean f4 [16]
000000 04 00 00 00 04 00 00 00 04 00 00 00 00 00 00 00
       6e-45 6e-45 6e-45 0.0
000010 73 93 0e 2b 04 00 00 00 04 00 00 00 04 00 00 00
       5.065316e-13 6e-45 6e-45 6e-45
000020 20 78 39 3e 83 bd 9e 2c 04 00 00 00 04 00 00 00
       0.1811223 4.51167e-12 6e-45 6e-45
000030 f7 ff 7f 3f 04 00 00 00 04 00 00 00 04 00 00 00
       0.99999946 6e-45 6e-45 6e-45

normalization1.running_var f4 [16]
000000 04 00 00 00 04 00 00 00 04 00 00 00 04 00 00 00
       6e-45 6e-45 6e-45 6e-45
000010 fd 55 25 29 04 00 00 00 04 00 00 00 04 00 00 00
       3.6711943e-14 6e-45 6e-45 6e-45
000020 58 c7 0a 3e 90 70 72 2b 04 00 00 00 04 00 00 00
       0.13552606 8.6131883e-13 6e-45 6e-45
000030 98 38 6f 30 04 00 00 00 04 00 00 00 04 00 00 00
       8.702812e-10 6e-45 6e-45 6e-45

conv2.weight f4 [32, 16, 3, 3]
000000 7b 4b 2b 3e 9e 10 84 bd 1a 93 9f 3d d8 41 84 bc
       0.16728012 -0.06448482 0.07791729 -0.016144678
000010 94 78 1e be e7 fb f0 3d fd ff f5 3c d5 fb 6e bd
       -0.15475684 0.117667966 0.030029291 -0.058345634
000020 83 d5 28 3e ad a3 e5 3c a2 6f 0e be 86 35 cd bb
       0.16487698 0.028032148 -0.13909772 -0.006262484
000030 93 5c c2 bb 57 72 a1 bd 26 87 12 3c 22 8c 67 3d
       -0.005931446 -0.07883137 0.008943355 0.056530125
000040 70 e4 2d bd 3b 98 b4 3d af 3b 67 3d fb 5a 6c 3d
       -0.042454183 0.08818098 0.056453403 0.057703953
000050 3e c1 85 bd fd 77 81 3c 2a 5e 4e 3d 5b ab b0 3d
       -0.06530999 0.015804285 0.05038277 0.086264335
000060 de d8 5c bd 2a e7 c0 3d 7d fd de 3d 3f a5 92 3d
       -0.05391776 0.09419091 0.10888193 0.071604244
000070 87 1b b9 3c 5d ff 18 3d 0d 78 fd bc 03 eb 00 3c
       0.022596134 0.03735291 -0.030941034 0.007868531
000080 f7 51 4a 3d 80 a8 7d bd 6e 56 6c bc e1 4b b9 bc
       0.049394574 -0.061928272 -0.014424903 -0.02261919
000090 b3 d3 03 bd d8 fe 82 3d a5 8e b8 bd 93 bd 1b 3d
       -0.032184314 0.06396264 -0.09011582 0.03802259
0000a0 67 0a 42 3c 17 38 e9 bd 0c a5 00 3b 6f e0 47 3d
       0.0118433 -0.113876514 0.0019629626 0.04879802
0000b0 8e 20 a0 bc 9a fd c0 bb 6d 37 97 3d 32 ec 7e bc
       -0.019546773 -0.0058896067 0.073836185 -0.015559243
0000c0 57 bc 73 bd 97 68 03 3e be 24 04 3e 6d e7 7a bd
       -0.059505787 0.12832867 0.12904641 -0.06125586
0000d0 84 fe e7 3d 22 93 e9 3d bc 40 7e bc c2 88 80 3d
       0.11327842 0.114050165 -0.015518364 0.062760845
0000e0 e8 88 8f 3c 5a 0b 8a 3d f0 24 74 3c 48 27 49 bb
       0.017521337 0.067404464 0.014901385 -0.003069358
0000f0 20 f0 97 3d c1 20 04 3d 17 4f 07 3d b7 ee 4c bd
       0.07418847 0.0322578 0.03303441 -0.050032344
000100 19 3b 72 3d f5 53 96 3d 78 2a 8b bd 4a 92 f3 3d
       0.05913839 0.07340232 -0.0679521 0.11893137
000110 f2 80 99 bd 28 88 90 bd 66 d6 08 3e 27 06 8b bd
       -0.074952975 -0.0705722 0.13363037 -0.06788283
000120 13 4d 49 3d c1 cc e4 3b 10 a7 ca 3b 2a 71 07 bc
       0.04914577 0.0069824164 0.006184466 -0.0082667265
000130 bd 04 d2 bc fa 77 80 3d 2e 4f ed bc 9c 0b 91 bc
       -0.025637025 0.06272884 -0.02896842 -0.017705731
000140 3a 6b 0d bc a9 ac 9a 3b 30 e2 65 3d df 9d fc bc
       -0.008631522 0.0047202897 0.056123912 -0.030836998
000150 bc e4 81 3d 98 af 50 3d cb c1 8f bd d0 0c 82 bd
       0.06342456 0.05094871 -0.07019385 -0.063501
000160 52 2b e8 bc 29 41 31 bc 41 ba d9 3c 8d ef 86 bd
       -0.02834097 -0.010818758 0.02657807 -0.065886594
000170 c5 a0 e5 3d 3e 27 1a bd cf fd ea bc 3b 5e ca 3d
       0.11212305 -0.03763508 -0.028685478 0.09881254
000180 17 17 4a bc da 50 04 3e 14 b5 9a 3d b3 99 74 bc
       -0.012334607 0.12921467 0.07554069 -0.014929223
000190 b4 dd ae 3d 9d ac 9d bb 01 ff 3f bd 68 36 94 3d
       0.0853838 -0.004811837 -0.04687405 0.0723694
0001a0 af 57 1c bd 6f 47 0b bc 38 41 91 bd 53 aa 57 3c
       -0.03816956 -0.008500918 -0.070925176 0.013163167
0001b0 ec 9e c3 bd ed 97 c1 bd eb 08 37 be 31 fa e4 bd
       -0.09551796 -0.09452806 -0.17874496 -0.11180533
0001c0 ac f8 e5 bd ad 0f 2b be 35 16 48 be d8 59 cb bd
       -0.11229071 -0.16705199 -0.19539721 -0.09929246
0001d0 ae b7 47 be e7 16 b7 bd 3d 9b e5 3c 2f 43 a2 3c
       -0.19503662 -0.08939915 0.028028125 0.019807426
0001e0 90 d7 bb 3a 8f ee 62 bd 49 f4 3d bd 3f 99 de 3d
       0.001433121 -0.05540329 -0.046375547 0.10869073
0001f0 3d a4 12 3d 71 0b 33 bd 57 5a b1 3c c4 29 d3 3c
       0.03580116 -0.043712083 0.021649523 0.025776751
000200 76 a9 01 bc e2 61 15 3d 63 75 e4 bc e2 6e 99 3d
       -0.007913938 0.0364703 -0.027888006 0.07491852
000210 2b 51 b0 bd 6d c5 df 3d 63 a8 3e bc 1e 6f bf bc
       -0.086092316 0.10926328 -0.011636826 -0.023368414
000220 76 7a e3 bd 93 ad 86 bd f3 b4 07 bd 87 09 8b bd
       -0.11107342 -0.065760754 -0.03313155 -0.067889266
000230 b4 07 b2 bd f3 ee d8 bd 74 72 ca bb 6a bb ab bd
       -0.086928755 -0.10592451 -0.0061781947 -0.08385356
000240 0a ce a3 bc 35 c0 15 bd e3 5b 3d 3e b9 1d 0c be
       -0.019995708 -0.036560256 0.18492083 -0.13683213
000250 f9 6e 2b 3c 79 01 1a 3d 38 1e 01 bd d9 90 a8 bd
       0.01046347 0.03759906 -0.03152296 -0.082307525
000260 3d da 42 3d e8 4d 06 be de 98 28 bd a3 84 8a 3d
       0.04757141 -0.13115656 -0.04116141 0.0676358
000270 7d 17 07 be 89 19 fb bc 3f 1e a0 3d b3 21 fb bd
       -0.13192554 -0.030651825 0.07818269 -0.12262287
000280 ad 73 09 be 82 57 4d bd 34 dd 3e 3b f9 e6 24 3c
       -0.13423033 -0.050132282 0.0029123547 0.010064834
000290 49 89 e5 3c 63 15 90 bd 64 fc 24 3d af 29 60 3d
       0.028019564 -0.07035329 0.04027976 0.054727253
0002a0 f5 6f b7 bd 60 5a 70 3d d4 9e 0f 3d e4 72 ac bd
       -0.08956901 0.05867994 0.03506358 -0.08420351
0002b0 b6 56 7d bd ad e7 74 3d cc 19 18 bd aa 58 b0 3c
       -0.061850272 0.059791256 -0.037133977 0.021526653
0002c0 bd 18 8c bd e0 b1 b3 bd f6 6c 30 bc ad dd fd bc
       -0.06840656 -0.08774161 -0.010768166 -0.030989492
0002d0 56 bc 77 3d 01 71 63 bd 54 eb ed 3c e0 f8 51 3d
       0.060482346 -0.05552769 0.029042877 0.051262736
0002e0 7a 3b b7 3d b1 99 9b bc 19 78 b5 3b 57 b4 83 bc
       0.08946891 -0.018994184 0.0055379984 -0.016077204
0002f0 ab 6c a1 bd 8d 23 db bd 3a 07 bc 3d ef 77 b3 bd
       -0.07882055 -0.1070014 0.09181066 -0.0876311
000300 2a 1c a9 bd a0 c1 e5 3c 5f f8 1f bd f4 cb 05 bd
       -0.08257325 0.02804643 -0.039055225 -0.032665208
000310 1e 23 aa bd b0 0e 6e 3d de 3f d4 3c f4 80 c1 3c
       -0.08307479 0.058119476 0.02590936 0.02362106
000320 3e 97 90 bc a0 f6 a1 bd ab e5 78 bd 50 8b bf 3d
       -0.017650243 -0.07908368 -0.060765903 0.093527436
000330 7b 37 aa bb a3 31 4a 3c cd b7 23 3d 91 6b 56 3d
       -0.005194602 0.012340936 0.039970208 0.052348677
000340 ee c0 b0 bc 96 cb 64 3d 14 80 a9 3d d5 a9 90 3d
       -0.021576371 0.055858217 0.08276382 0.07063643
000350 f6 ad bd bc f6 f5 20 bd 03 fd 0c 3d ff 61 f4 bc
       -0.02315424 -0.039297067 0.03442098 -0.029831884
000360 3f db 4d be 66 f2 01 be 7a c7 3c be 7d 8c 26 be
       -0.20103167 -0.12690124 -0.1843547 -0.1626453
000370 b0 c2 38 be ad 4e 2e be cb 2d 58 bb 4f 9e 38 be
       -0.18043017 -0.170222 -0.003298628 -0.1802914
000380 a2 b4 bf bd 20 1a f8 bc d4 20 c6 3d c5 a3 66 3d
       -0.09360625 -0.030285895 0.0967423 0.056308527
000390 1d 59 9e 3d 6f e0 ae 3c 0f f3 cf 3d 20 9a d9 3d
       0.07731841 0.021347253 0.101537816 0.106251
0003a0 13 75 a2 3c 95 d7 90 3d 04 21 ce 3d 05 43 26 3e
       0.019831216 0.07072369 0.10064891 0.16236503
0003b0 53 74 c4 3d 6f 90 6a 3d f2 f9 41 bc a1 b5 23 3d
       0.095924996 0.05726665 -0.011839377 0.039968137
0003c0 0b da 33 3d 39 c0 88 3c e3 2b e0 3d e9 e9 8a bd
       0.043909114 0.016693221 0.10945871 -0.06782896
0003d0 60 e3 8a bd cb 02 a9 3d b2 2a 47 bd 8d b8 1b bd
       -0.067816496 0.08252486 -0.0486247 -0.0380178
0003e0 e3 32 57 bb a3 a7 09 bd f2 ed 2e bb 05 20 ac bd
       -0.0032836727 -0.033607136 -0.002669212 -0.08404545
0003f0 90 b6 f1 3d 67 84 53 bd 71 61 6e 3d 20 ca 3a 3e
       0.11802399 -0.05163994 0.058198396 0.18241167

conv2.bias f4 [32]
000000 1c ff 5c bc 76 84 17 bc b9 e0 87 bd 77 84 d7 bd
       -0.013488557 -0.00924789 -0.06634659 -0.105233125
000010 72 20 b5 3c 4a 5e a2 3d 22 28 c9 bc 0a 68 c3 bc
       0.022110198 0.079281405 -0.02455527 -0.02385332
000020 9b a9 ea 3d f5 e5 9f 3d 80 cb 1f 3c 80 3d 81 bd
       0.11458131 0.07807533 0.009753108 -0.06310558
000030 fd 25 24 bd 43 ea b9 3c d7 04 9d bd 56 35 1b bd
       -0.04007529 0.022694713 -0.07666939 -0.037892662
000040 6d 34 d0 bd c1 70 58 3d ca 62 df ba e4 25 e0 bd
       -0.101662494 0.052841906 -0.0017042991 -0.10944727
000050 d6 42 31 bd 2f 8d d4 3d 64 15 9c bd 82 e5 6e be
       -0.04327663 0.10378491 -0.076212674 -0.23329738
000060 d6 37 b8 bd 96 06 9f bd 99 a6 cd 3d 5e 3b 8f 3d
       -0.08995025 -0.07764928 0.100415416 0.06993745
000070 b5 8c 4d 3a df fc 36 3d 15 44 51 bd 50 95 e7 3c
       0.00078410964 0.04467475 -0.05109032 0.02826944

normalization2.weight f4 [32]
000000 ac 4c 83 3f 46 2b 6a 3f 0e b6 82 3f ab 1e 70 3f
       1.0257773 0.9147228 1.0211809 0.93796796
000010 72 c3 79 3f ff d4 67 3f 12 78 68 3f dd c6 5e 3f
       0.9756385 0.9055938 0.9080821 0.8702219
000020 f5 61 89 3f 61 15 64 3f b1 49 7d 3f bf 85 82 3f
       1.0733019 0.8909512 0.9894057 1.0197066
000030 84 58 72 3f a0 c4 6f 3f f3 52 73 3f fc 2e 70 3f
       0.94666314 0.936594 0.95048445 0.9382169
000040 50 98 7a 3f 25 78 7e 3f 6c 08 74 3f 91 43 7a 3f
       0.9788866 0.99402076 0.9532535 0.9775935
000050 cb f2 73 3f ba 7a 88 3f c1 85 7c 3f 17 ef 85 3f
       0.9529235 1.0662453 0.9864159 1.046359
000060 36 2e 91 3f 4f 51 82 3f 68 53 70 3f ae bd 5d 3f
       1.1342227 1.0181063 0.9387727 0.86617553
000070 8f 74 81 3f 1e d8 71 3f f3 5c 70 3f 5f 39 85 3f
       1.0113696 0.94470394 0.9389183 1.0408133

normalization2.bias f4 [32]
000000 29 ac 94 3d e2 52 df 3c 95 1c 53 3e 30 98 29 bd
       0.072593994 0.027261201 0.20616372 -0.041404903
000010 97 07 a2 3e 87 8f 12 3e 74 55 3e 3d 2d 91 14 3e
       0.31646416 0.14312564 0.046468213 0.14508505
000020 3a 79 ac 3e 3c 18 87 3d 80 c9 69 3e d8 07 0f 3e
       0.3368624 0.06596419 0.22830772 0.13967836
000030 19 9d d6 3d 55 ea 81 3d 2d 26 02 3b 44 29 26 3e
       0.10479183 0.063435234 0.001985918 0.16226679
000040 d2 f7 e0 3d 53 37 15 3e 81 5e 6f 3e a8 9b 09 3e
       0.10984768 0.14571886 0.23375894 0.13438284
000050 72 90 a7 3d 5b 3e 82 3e c3 16 42 3e 21 68 84 bd
       0.08181848 0.25438198 0.18953995 -0.064651735
000060 5c 81 08 be 8d 36 90 3d 9c 90 09 bd 23 27 16 3e
       -0.13330597 0.07041655 -0.033585176 0.14663367
000070 f3 aa a6 bc aa b3 b6 3e 4c 83 82 3e 78 25 18 3e
       -0.020345187 0.35683948 0.25490797 0.14858043

normalization2.running_mean f4 [32]
000000 f8 ff 7f 3f af 3c 03 30 f8 ff 7f 3f f8 ff 7f 3f
       0.9999995 4.774376e-10 0.9999995 0.9999995
000010 ff 6d 53 2f f8 ff 7f 3f 08 ad 51 2f f8 ff 7f 3f
       1.9229417e-10 0.9999995 1.9069912e-10 0.9999995
000020 2f b9 51 2f f8 ff 7f 3f f8 ff 7f 3f f8 ff 7f 3f
       1.907423e-10 0.9999995 0.9999995 0.9999995
000030 60 cd 7c 3f f8 ff 7f 3f c6 70 37 38 a3 5b 9f 2f
       0.9875088 0.9999995 4.373563e-05 2.8987043e-10
000040 59 89 9e 2f f8 ff 7f 3f 5f 04 50 2f ae 55 d3 2f
       2.8837624e-10 0.9999995 1.8919043e-10 3.8441555e-10
000050 f8 ff 7f 3f 6d 8f 9e 2f ff 6d 53 2f d3 61 d3 2f
       0.9999995 2.8841943e-10 1.9229417e-10 3.8450185e-10
000060 cb f6 7f 3f 4a 4d da 2e f8 ff 7f 3f f8 ff 7f 3f
       0.9998595 9.9272215e-11 0.9999995 0.9999995
000070 4a 7b d2 2f f8 ff 7f 3f f8 ff 7f 3f f8 ff 7f 3f
       3.828638e-10 0.9999995 0.9999995 0.9999995

normalization2.running_var f4 [32]
000000 94 ac 51 2f 94 3b 03 30 3f a8 9d 2f 3f 4d da 2e
       1.9069751e-10 4.774219e-10 2.867768e-10 9.927214e-11
000010 85 6d 53 2f 21 16 55 2f 94 ac 51 2f 64 b4 9d 2f
       1.9229247e-10 1.9380099e-10 1.9069751e-10 2.868631e-10
000020 bd b8 51 2f 00 0a 55 2f 21 16 55 2f 6f d4 a6 2c
       1.9074071e-10 1.937579e-10 1.9380099e-10 4.7415886e-12
000030 07 62 48 3c d2 8a e6 2b 2b c5 03 38 9b 59 9f 2f
       0.012230403 1.6381013e-12 3.141646e-05 2.89856e-10
000040 b3 88 9e 2f c3 8e 9e 2f f4 03 50 2f 58 54 d3 2f
       2.8837163e-10 2.884147e-10 1.8918894e-10 3.8440606e-10
000050 42 cb d0 2f c3 8e 9e 2f 85 6d 53 2f 7c 60 d3 2f
       3.7979403e-10 2.884147e-10 1.9229247e-10 3.8449233e-10
000060 61 ed 0c 39 33 4d da 2e b5 c1 9c 2f d7 64 a1 2f
       0.00013439871 9.9272056e-11 2.8513872e-10 2.935738e-10
000070 f0 79 d2 2f b4 ab d1 2f c0 e4 61 2f 5e cb d6 2e
       3.828542e-10 3.813888e-10 2.0544899e-10 9.7677186e-11

conv3.weight f4 [64, 32, 3, 3]
000000 05 91 08 3d aa ee 01 bd 7e 87 17 bd 45 6e 6c 3d
       0.033341426 -0.03172175 -0.03699445 0.05772235
000010 01 99 9b 3c 56 b8 5e bd 04 55 4f bd 34 0c 8d bd
       0.018993856 -0.054375015 -0.050618187 -0.06887093
000020 7a 1c 33 bc a3 a1 31 bd a5 52 2c 3c d9 93 b7 3d
       -0.010932082 -0.04336704 0.010517751 0.089637466
000030 c8 73 82 bc 25 92 c9 bc 5d 6b 85 3d 8c e2 e2 bd
       -0.01592435 -0.02460582 0.065146185 -0.11078367
000040 b4 1b 74 bc ec f1 85 3b 95 46 54 bd d2 28 4c 3d
       -0.014899183 0.004087677 -0.051825125 0.049843617
000050 58 95 32 3d e6 29 c5 bd 46 f5 95 bc 45 5b 04 3d
       0.043599457 -0.09627132 -0.018305432 0.032313604
000060 f1 6d d9 bd a7 84 5d bd c3 a5 0c bd fb e6 13 3d
       -0.10616673 -0.054081585 -0.03433777 0.036108952
000070 52 d7 0e bd 93 c6 a7 bd 29 8b 9e bc eb 94 8d bc
       -0.034873314 -0.08192172 -0.019353466 -0.017282924
000080 26 c4 98 bc 57 3d c5 bb c1 4e 55 bc c6 f0 e6 bc
       -0.018648218 -0.006019275 -0.013019265 -0.028190982
000090 39 82 28 bd b8 84 87 bb e8 fe 80 bc 77 d5 bf bd
       -0.041139815 -0.0041356944 -0.015746549 -0.09366887
0000a0 b2 6b 97 bc 22 e8 ce 3d 98 2d ad bd db e6 96 bb
       -0.01848397 0.101028696 -0.08455962 -0.004605157
0000b0 3e b7 84 3d 0e 26 e4 3c 6d be a5 3d 8d fa 11 3d
       0.06480263 0.027850177 0.080929615 0.035639334
0000c0 bf 1c 6f bd 5d 70 21 bd d3 e4 20 3c 3e d5 4d bd
       -0.058377024 -0.0394138 0.009820181 -0.05025219
0000d0 66 eb 08 3d 89 9b 05 bd 15 3f d0 3c bd 17 de 3c
       0.03342762 -0.032619033 0.025420705 0.027110929
0000e0 6b db 97 bc f6 65 27 bd e7 0d 77 3d 67 03 f8 bc
       -0.018537244 -0.040868722 0.060315993 -0.03027506
0000f0 62 de 16 3d d5 f5 e9 bc 3c 74 b0 bc 52 ab 1b 3b
       0.036833175 -0.028559605 -0.0215398 0.0023753238
000100 77 0a 6f bd 37 1a b8 bb 4b 05 28 bd be 02 39 bb
       -0.05835959 -0.0056183594 -0.041020673 -0.0028230394
000110 d7 49 5d bc e3 83 ae bd 9a b7 ac bd 97 12 ab bd
       -0.013506374 -0.08521249 -0.08433457 -0.08353155
000120 7a 74 0b bd 45 28 97 bd e7 d5 20 bd 5d f7 7d 3d
       -0.034046628 -0.07380728 -0.039266493 0.062003482
000130 ac b5 05 3c c9 c3 61 3d 1e ff d1 3d 23 e4 25 3d
       0.00816099 0.055118356 0.10253738 0.04050077
000140 c0 42 07 bc 3f 1c c1 bd e1 55 19 bd 3b d8 6f bd
       -0.0082556605 -0.09429216 -0.037435416 -0.058555823
000150 c2 de 1b bb ae f3 5c bd 2f de 1b bc 01 eb 48 3d
       -0.0023783897 -0.05394333 -0.009513422 0.049052242
000160 86 07 af bc ce 5b 52 bd 9b 25 3f bc 40 b5 ae bc
       -0.021365892 -0.051357083 -0.011666681 -0.021326661
000170 3a fc 4c bd 86 84 8d 3c 4c fe 49 b9 9c b3 a8 bd
       -0.05004523 0.017275106 -0.00019263587 -0.08237383
000180 dd 18 b6 3b 5e 2d a7 bd ee 74 ae bd 46 9d 8d bd
       0.005557163 -0.0816295 -0.08518396 -0.06914763
000190 ad 3d b3 39 54 fc ef bc 92 a5 00 bd 52 80 90 bd
       0.00034187493 -0.029295124 -0.0314079 -0.07055725
0001a0 a2 0b fb bc e5 ee 69 bc 5b 98 4e bd b0 b6 68 bd
       -0.030645195 -0.014278148 -0.050438266 -0.05681485
0001b0 8b 95 11 3d 57 7e 63 3c cd 09 1b 3d 7e 98 8d bd
       0.035543006 0.013885102 0.037851144 -0.06913851
0001c0 58 d2 5d 3c 60 79 c3 bd 9c 9a ae 3c d4 d6 07 3e
       0.013538919 -0.09544635 0.021313958 0.13265544
0001d0 3a 6a 4a bd a6 73 1a bb 05 bc 41 bd c7 10 6d bd
       -0.04941771 -0.0023567467 -0.04729845 -0.05787733
0001e0 5d cb 8f bd f9 49 a4 3c 4e 52 ba 3c 24 f8 9d bc
       -0.0702121 0.020054804 0.022744324 -0.019283362
0001f0 4f 76 b0 3c 0a 1d 32 3d 75 b5 fc bc 4e fd 35 bd
       0.021540789 0.043484725 -0.030848244 -0.044431023
000200 fd fd 3f 3d 49 a8 96 bd 66 34 81 bd 22 c9 b1 bd
       0.04687308 -0.073563166 -0.06308822 -0.08680941
000210 ff 94 16 bd b5 19 91 bc 7d 23 d5 bd aa 44 a7 bd
       -0.036763187 -0.017712453 -0.104071595 -0.081673935
000220 15 b9 02 bd 4d f8 0d 3d 70 d0 42 3d 6b ac 84 3d
       -0.03191479 0.034660626 0.047562063 0.064781986
000230 1e 1c 00 bb 1b cc 97 3d 50 79 b3 3c d5 a3 07 3c
       -0.001954801 0.07411977 0.021908432 0.008278807
000240 c2 9f 30 bd 30 41 87 bd 80 99 8a bd b1 2f 5c bb
       -0.043121107 -0.066042304 -0.06767559 -0.0033597762
000250 76 03 27 bd 1a 1f 5f bc 0c e9 a5 39 01 14 a3 ba
       -0.040774785 -0.013618255 0.00031644886 -0.0012441875
000260 5d c6 aa bd 51 2e 00 3c df a0 6e 3d 26 7f 36 3d
       -0.08338616 0.007823543 0.058258887 0.044554852
000270 0e c1 48 3d 0e eb 03 bc 44 c9 7a 3d 0c e5 4b bd
       0.049012236 -0.008051647 0.061227098 -0.049778983
000280 25 cf 91 3d 12 47 3c 3d c7 6a 4d bc 99 ba cb 3c
       0.07119588 0.045966215 -0.012537665 0.02486925
000290 79 62 ac bc e5 19 55 bd e3 43 3f b9 19 c2 cf bc
       -0.02104305 -0.052026648 -0.00018240469 -0.025361108
0002a0 e4 04 60 bd 5c 3b 72 3d 32 16 ac bc b2 74 8d bd
       -0.054692164 0.05913864 -0.021006677 -0.069070235
0002b0 b1 17 47 bc 11 60 fc 3c b1 a5 9d bc 98 a9 11 bd
       -0.012151645 0.030807527 -0.019244047 -0.035562128
0002c0 9b f7 e6 bc 31 e8 c6 3c 6c d5 6b 3c 31 f8 58 3b
       -0.02819424 0.02428064 0.014394145 0.0033106918
0002d0 f7 a2 6d bd 64 9b 20 bd f5 1d 41 bd 0b 72 79 bc
       -0.058016744 -0.039210692 -0.04714771 -0.015224944
0002e0 f0 82 97 3c c4 3c b8 bd af f8 85 bd 8b b5 f3 3a
       0.018495053 -0.08995965 -0.06541573 0.0018593533
0002f0 c4 6d b7 bd ea 2e ac bd ca fa 5f 3d e2 72 f8 3b
       -0.08956483 -0.08407386 0.05468253 0.0075820545
000300 8f ba 86 bd 90 7e 8f 3d 40 37 1e 3d 8f ec bd bc
       -0.06578552 0.07006562 0.03862691 -0.023184089
000310 e5 d2 e6 3d 30 a4 b6 3d 57 a5 97 bd 80 68 54 bd
       0.11270694 0.08918035 -0.07404583 -0.05185747
000320 53 7e a9 bd 17 73 0c bc 8a 5a bf bd db 7a f2 bc
       -0.082760476 -0.008572361 -0.09343441 -0.029599598
000330 94 fc c3 bd f0 1e c6 bc 61 b7 ba bc 6e 8f e3 bd
       -0.0956966 -0.024184674 -0.02279252 -0.111113414
000340 ef dd 2a bc 69 76 92 3c 32 5e 0d bd 23 c2 3e bd
       -0.01042889 0.017878728 -0.03451366 -0.046571862
000350 dc 4c 23 3c b3 ee 3a bb 33 3f f7 bc 6a 81 87 3b
       0.009967055 -0.0028523623 -0.030181503 0.0041353004
000360 55 d6 d3 3c c2 54 88 bd 4b 23 f8 3d 9b ae 0a bd
       0.025859037 -0.06656791 0.121161066 -0.033857923
000370 e4 d7 ba bd 35 c4 9a 3d cb c7 eb bd f1 e1 f5 bd
       -0.09123209 0.07556955 -0.11512717 -0.120059855
000380 58 20 d7 3d 09 06 a3 3c 44 4d 6f bd 5b c1 b9 bc
       0.10504216 0.019900339 -0.058423296 -0.022675207
000390 f0 77 f8 3c 1f 1b d5 bc ae d1 7b 3c ac 17 fe bc
       0.030330628 -0.026013909 0.015369816 -0.031017147
0003a0 d3 ee 81 3c bb 1e 42 3d 9f c6 a7 bb 24 5c 95 3d
       0.01586095 0.047392588 -0.005120113 0.07292965
0003b0 f0 2a 94 3d 11 73 a7 bc e8 94 33 3d bf 8a e0 bc
       0.07234752 -0.02044061 0.04384318 -0.02740991
0003c0 a1 bd 9c 3c 81 eb 53 3d e9 0a 00 bd 7c f3 a9 bd
       0.01913339 0.051738266 -0.031260405 -0.08298394
0003d0 1c 0b ba bd b9 3e 0c bd 94 e8 ad bd 71 5b a8 ba
       -0.0908415 -0.034239504 -0.084916264 -0.0012844634
0003e0 1c cc b8 3d 00 64 78 3d 80 7e b5 bd db f7 79 3d
       0.09023306 0.060642242 -0.088620186 0.06102739
0003f0 74 cf 71 bc 51 f5 31 bd 04 d7 14 3d 38 b4 a1 bc
       -0.014758933 -0.043446843 0.036337867 -0.019739255

conv3.bias f4 [64]
000000 b7 57 70 3c b9 58 44 bc ba 40 e4 3c 09 ed 36 bc
       0.01466935 -0.011984044 0.027862895 -0.011164912
000010 83 5c 85 bd 57 2b 5a bd 4a 42 e5 bc 20 4a a2 bd
       -0.06511786 -0.05326399 -0.02798571 -0.079242945
000020 bf 05 27 3c ae 73 82 bd ce 69 96 bd c1 46 ae bc
       0.010194241 -0.063697204 -0.073443994 -0.021273972
000030 d3 d3 a7 bd 2a 95 c9 bc 09 ce b0 ba d5 4f c4 bc
       -0.08194699 -0.02460726 -0.0013489138 -0.023963848
000040 a8 07 b4 b8 ee b8 04 3c d9 45 2c bc 16 67 9c bd
       -8.584495e-05 0.008100731 -0.0105147 -0.076368496
000050 58 35 c6 3b 96 c0 2a 3d 18 2a 86 bd 5a 0b 91 bc
       0.0060488395 0.04168757 -0.065509975 -0.017705608
000060 71 25 4e bc 2b 54 c5 bd 90 c2 88 bd af 0c 92 3b
       -0.012582169 -0.096351944 -0.06677735 0.0044570784
000070 6f 46 47 3c 30 43 80 3c 46 25 60 bd fe 36 83 3c
       0.012162789 0.015657037 -0.054723047 0.016017433
000080 2e 18 83 ba f2 6b 86 bd 4b fd 42 3d 67 ac 31 3d
       -0.0010001713 -0.06563558 0.04760484 0.043377306
000090 00 54 b0 39 e4 06 7f bc 74 06 4b 3d c1 fd 17 3c
       0.0003363192 -0.015565608 0.0495667 0.009276808
0000a0 67 c2 40 3c 0c c4 05 be 89 71 59 3b ad ff 39 bd
       0.011765099 -0.13063067 0.0033179244 -0.045409847
0000b0 ab 87 b3 bc 95 09 2b bd 3a d1 df bc 6d 47 9d bd
       -0.021915277 -0.041757185 -0.027321447 -0.07679639
0000c0 8a 1c 85 bc 78 e2 12 3c cb 47 82 bd 4e 19 e5 bc
       -0.01624896 0.008965127 -0.0636135 -0.027966168
0000d0 14 f3 b6 bc 11 a9 96 bd eb d4 d2 bc f3 0a 27 be
       -0.022332706 -0.073564656 -0.025736293 -0.1631277
0000e0 b3 a6 52 3c 42 15 b9 bc bf af 3d bc 7b e7 bf bd
       0.012857127 -0.022593144 -0.011577546 -0.09370323
0000f0 e5 3a b7 bd de 5b 85 bd 69 30 d5 3c 69 0b bf 3c
       -0.0894678 -0.06511663 0.02602406 0.02332087

normalization3.weight f4 [64]
000000 f3 07 81 3f eb 63 81 3f 32 e6 7f 3f d1 be 81 3f
       1.0080551 1.0108618 0.99960625 1.0136358
000010 bf f1 81 3f 91 9e 81 3f 66 6d 80 3f 17 84 83 3f
       1.01519 1.0126516 1.0033386 1.0274686
000020 89 57 80 3f 98 03 82 3f ec 19 80 3f 32 5b 82 3f
       1.0026714 1.0157347 1.0007911 1.0184081
000030 f7 71 82 3f 46 2c 7f 3f a5 41 82 3f 87 2f 80 3f
       1.0191029 0.9967693 1.0176283 1.0014504
000040 08 95 82 3f 40 01 81 3f 2f 32 84 3f ef 0d 81 3f
       1.0201731 1.0078506 1.0327815 1.0082377
000050 2d ab 83 3f 44 c7 80 3f 65 aa 7d 3f 68 8f 83 3f
       1.0286614 1.0060811 0.99088126 1.0278139
000060 74 60 7b 3f 1c bf 7d 3f 27 c4 80 3f b1 3e 80 3f
       0.9819405 0.99119735 1.0059861 1.0019132
000070 92 fd 7e 3f f4 bd 7d 3f 50 2e 88 3f a7 69 81 3f
       0.9960567 0.9911797 1.0639133 1.0110368
000080 34 af 7f 3f f5 05 79 3f d4 29 82 3f ab 34 80 3f
       0.99876714 0.97274715 1.0169015 1.0016073
000090 63 b0 7e 3f 7b eb 7c 3f 05 35 7a 3f 7a 12 7e 3f
       0.99487895 0.98796815 0.9773715 0.99246943
0000a0 2f e3 7c 3f 93 9c 92 3f b5 97 82 3f 47 5e 81 3f
       0.98784155 1.1454033 1.0202547 1.0106896
0000b0 10 48 81 3f 5f 0a 7c 3f 68 20 81 3f 1f 6d 81 3f
       1.0100117 0.98453325 1.0088015 1.0111426
0000c0 ea 3a 82 3f 3d 04 85 3f b2 4a 80 3f 5b e4 80 3f
       1.0174229 1.0391918 1.0022795 1.0069689
0000d0 fe 8d 80 3f f3 33 7d 3f 1c 73 7a 3f 65 24 84 3f
       1.0043333 0.98907393 0.9783189 1.0323607
0000e0 db 20 7b 3f 92 9d 7b 3f be da 82 3f e7 9b 82 3f
       0.9809701 0.9828731 1.0223005 1.0203828
0000f0 66 17 84 3f 1e df 82 3f ba bb 7d 3f 73 e3 81 3f
       1.0319641 1.022434 0.99114573 1.0147537

normalization3.bias f4 [64]
000000 c5 67 42 bd 9d fd 18 bd d4 41 97 bc b6 d6 70 3c
       -0.047462244 -0.03735124 -0.018464006 0.014699629
000010 9d 28 3a bd 29 64 8d bd 4f 8f ce bc f9 c0 ad 3c
       -0.045448888 -0.0690387 -0.02521482 0.02121018
000020 51 bd d4 bc df e9 cf bb 66 ef db bc b6 74 47 bd
       -0.02596918 -0.0063450183 -0.026847553 -0.04869529
000030 24 b5 22 bd a2 6f 5c 3b 42 34 db bc cd 35 14 bb
       -0.03972353 0.0033635874 -0.026758317 -0.0022615076
000040 a5 6c d1 bc b5 84 1a bd a7 9d 83 bd f5 de d0 bc
       -0.025564501 -0.037724216 -0.06426554 -0.02549694
000050 bf b4 c2 bc 2d e7 af bc 78 cd a1 bc e6 95 a9 bc
       -0.023767827 -0.021472538 -0.019751295 -0.02070136
000060 8e 94 27 bd b7 80 bb 3c 48 9b aa bc b0 db 6e 3d
       -0.040913157 0.022888524 -0.020825997 0.05831498
000070 49 9a 91 3c 35 eb 46 bc e3 35 e6 b9 92 1b 5e bd
       0.017773764 -0.012141039 -0.00043909167 -0.05422551
000080 58 0e 5c bc 31 5a 97 bb 87 50 07 bd d5 27 56 3b
       -0.013431154 -0.004618906 -0.03303578 0.003267755
000090 9f 41 f1 bb 19 8a d5 3c 6c e3 29 bc 21 c6 cf bc
       -0.007362559 0.026066827 -0.010369163 -0.02536303
0000a0 8f b7 52 bc 04 ab 2d be 17 d8 28 bd 7b c0 87 3d
       -0.012861147 -0.16959769 -0.041221704 0.066285096
0000b0 b8 ff 85 bc bc 8a 05 bd 51 08 65 bc 08 d9 22 3d
       -0.016357288 -0.03260301 -0.013979034 0.03975776
0000c0 1e 75 70 bd 09 5a 51 bd e7 78 a5 bc 70 fd 0a bd
       -0.05870544 -0.051111255 -0.020199252 -0.033933103
0000d0 82 15 65 bc 69 da 53 3c b7 db 5c bc 9f 01 a5 bd
       -0.013982179 0.012930491 -0.0134801185 -0.0805695
0000e0 ab 51 89 3c 52 e2 ec bb 02 ea 2a bd 09 2b b2 bd
       0.016762575 -0.007229128 -0.041727073 -0.086996146
0000f0 cc c4 23 3d 10 4f cd bc c0 16 c9 3b 11 b9 64 bd
       0.039982602 -0.025062114 0.006136745 -0.055840556

normalization3.running_mean f4 [64]
000000 ec 9c a6 3a 22 88 5c 3a 4b 44 ff 3c c1 e2 99 39
       0.0012711561 0.00084126194 0.031160494 0.0002935138
000010 57 d9 7f 3f 7a ec 7f 3f 89 a9 5c 3a 76 5f 42 2b
       0.9994101 0.9997021 0.00084175967 6.9055124e-13
000020 49 0f 1b 3a 58 60 9b 3a 2b 08 6a 3f 12 dc 7f 3f
       0.00059150584 0.0011854274 0.91418713 0.99945176
000030 5f 30 1a 3a 4e 85 7f 3f c1 e2 99 39 5f dc 7f 3f
       0.00058818416 0.9981278 0.0002935138 0.99945635
000040 2a 2c 78 3f f8 ff 7f 3f c8 85 7f 3f a2 8a 7f 3f
       0.9694239 0.9999995 0.9981351 0.9982091
000050 71 23 67 3a f8 ff 7f 3f 45 df 0e 3a a2 ec 7f 3f
       0.0008817232 0.9999995 0.000545014 0.9997045
000060 9a 24 04 3a c4 9f 94 3a be ec 7f 3f 5c 98 83 39
       0.00050408544 0.0011339118 0.99970615 0.00025099784
000070 6e e0 84 39 c5 19 1a 3a 48 84 56 3a d5 c8 7f 3f
       0.00025344215 0.0005878474 0.00081831636 0.9991582
000080 2d e5 79 3f 8b 6e 46 3a 61 ef 7f 3f b3 e2 99 39
       0.9761532 0.0007569573 0.9997464 0.00029351338
000090 fa e3 19 3a b2 c1 76 3d 5b c5 54 3d 5e d9 7f 3f
       0.0005870458 0.060243316 0.051946025 0.9994105
0000a0 bf e2 99 39 e0 93 f5 3c f8 ff 7f 3f 3b e0 04 3a
       0.00029351373 0.029977739 0.9999995 0.00050688133
0000b0 cc e2 99 39 b9 e2 19 3a 72 0f 9b 39 82 43 6c 3a
       0.0002935141 0.0005870271 0.00029575411 0.0009012745
0000c0 bd aa 75 3f c0 ec 7f 3f ee 32 5d 3a 9a c5 7f 3f
       0.9596365 0.99970627 0.000843807 0.9991089
0000d0 13 7b 5d 3a 0c 54 5c 3a 55 87 55 3d 5b b9 7f 3f
       0.00084488204 0.0008404858 0.052131016 0.99892205
0000e0 b5 91 d6 2f 3e 97 68 3a 24 dc 7f 3f f9 bf 7f 3f
       3.9029904e-10 0.00088726345 0.9994528 0.999023
0000f0 89 8e 5c 3a 9d ec 7f 3f 9c c9 74 3c c0 ec 7f 3f
       0.00084135734 0.9997042 0.014940646 0.99970627

normalization3.running_var f4 [64]
000000 5e 65 a6 3a 7f 33 5c 3a b2 51 f7 3c 6b d7 99 39
       0.0012695005 0.00084000075 0.030190323 0.00029342933
000010 83 6f 1a 3a 56 ff 9a 39 66 75 5c 3a 9f 5a 42 2b
       0.00058912503 0.0002956341 0.0008409828 6.904841e-13
000020 de f6 1a 3a 65 49 91 3a d7 04 5e 3d 00 9a 0f 3a
       0.000591142 0.0011084495 0.054203834 0.0005477965
000030 44 18 1a 3a 73 d3 f3 3a 6b d7 99 39 25 60 0e 3a
       0.00058782496 0.0018602445 0.00029342933 0.0005431197
000040 d3 c5 f2 3c 0d d2 4f 30 47 d6 f3 3a 91 35 e9 3a
       0.029635346 7.560466e-10 0.0018603288 0.0017792453
000050 dd eb 66 3a 20 d3 9b 30 88 c9 0e 3a 7b aa 9a 39
       0.000880895 1.133774e-09 0.00054469006 0.00029500187
000060 56 0f 04 3a 3d 6f 94 3a 83 dd 99 39 fe 8e 83 39
       0.00050376856 0.0011324655 0.00029347473 0.00025092805
000070 ee d6 84 39 d2 f1 19 3a 3d 39 3d 3a ce 69 5c 3a
       0.00025337137 0.0005872521 0.0007218307 0.00084081
000080 28 cc 8d 3c bc 40 46 3a d4 d6 84 39 5e d7 99 39
       0.017309263 0.0007562747 0.0002533706 0.00029342895
000090 f2 cb 19 3a 9b 3d 64 3d 65 e9 31 3d b2 60 1a 3a
       0.0005866877 0.055722814 0.043435473 0.00058890425
0000a0 6a d7 99 39 4d 39 ee 3c 3f f8 cf 2f 1f cc 04 3a
       0.0002934293 0.029080058 3.782947e-10 0.0005065817
0000b0 6a d7 99 39 b2 ca 19 3a ec 03 9b 39 8b db 59 3a
       0.0002934293 0.0005866691 0.00029566826 0.00083106075
0000c0 6e 94 06 3d 77 d7 99 39 47 00 5d 3a 7b 5e 68 3a
       0.032856397 0.00029342968 0.0008430522 0.00088641763
0000d0 46 48 5d 3a fb 21 5c 3a 43 00 2f 3d de e1 62 3a
       0.00084412505 0.00083973975 0.04272486 0.00086548727
0000e0 92 71 d6 2f 12 5f 68 3a 61 4c 0f 3a 5a c2 7f 3a
       3.900707e-10 0.0008864264 0.00054663984 0.00097564387
0000f0 d4 4e 5c 3a bf fb 9a 39 b3 3c f0 3b 27 da 99 39
       0.000840408 0.00029560734 0.0073314547 0.0002934497

dense.weight f4 [2, 16384]
000000 5b e9 1a 3a 0f d1 df 3c 76 6f 80 3b 76 a1 bb 3c
       0.00059094065 0.027321367 0.003919537 0.022904139
000010 76 61 c3 3c 23 6e 94 3c 39 39 97 3c c7 e4 21 3d
       0.023850184 0.018118924 0.018459903 0.03952482
000020 28 b8 94 b9 a3 7a d9 3b a7 71 28 3d b8 1f 33 bb
       -0.00028365967 0.006636934 0.041124012 -0.0027332138
000030 92 92 df 3c 7f 0f 17 3c 33 fe 03 bb 43 32 47 bc
       0.02729157 0.009220003 -0.0020140528 -0.012157979
000040 21 c4 e2 bc 1f 76 0f bc 23 4f 2b 3c e8 a3 8a 3c
       -0.027681412 -0.00875619 0.010455879 0.01692386
000050 4a 34 05 3c a8 28 9b 3b aa 4c 8d 3b d8 a6 ee 3b
       0.008130142 0.004735071 0.0043121176 0.007283073
000060 61 57 b9 bb 4e ad 77 bc b3 e4 22 bc 9f 56 d3 bb
       -0.0056561683 -0.015117003 -0.009942221 -0.006449535
000070 b4 bc ce ba 75 73 6a 3c d2 e4 bc 3c 80 63 0b 3c
       -0.0015772791 0.014309754 0.023058329 0.008507609
000080 40 ea be bc 7c bc 45 3d 88 ec 88 3b 60 66 ab 3a
       -0.023305058 0.048275456 0.0041785873 0.0013076775
000090 6c 8c 42 bb 97 7a 9e ba a5 19 4e 3b 8f 1d 4b 3a
       -0.0029685749 -0.0012090978 0.003144839 0.000774824
0000a0 3e 44 39 bc 70 eb 00 bc 89 bf ba bb 01 16 83 3b
       -0.011307774 -0.007868633 -0.0056991023 0.004000426
0000b0 f0 2f 9f ba 9e 4e f4 3a ab 20 5d bc e1 93 04 bd
       -0.0012145024 0.0018639152 -0.013496558 -0.03236759
0000c0 78 82 03 bd 9f 4b cf 3c 3b 65 7b 3c c9 fc c1 3c
       -0.032106847 0.025304614 0.015343959 0.023680108
0000d0 19 d3 0f bc 60 1d 14 3c 55 dc 15 3c ad c3 09 bc
       -0.008778357 0.009040207 0.0091467695 -0.008408469
0000e0 25 9e 47 bc 36 60 0b bd a6 48 89 bc a1 55 d1 bc
       -0.012183701 -0.0340273 -0.016758274 -0.025553526
0000f0 92 1d 40 3c d7 9a 2f 3b 13 69 4a 3c fd 72 63 bc
       0.0117258 0.0026795173 0.012354153 -0.013882396
000100 0c 32 80 bd e8 c4 1c 3d ed 6a 26 3c 38 88 9e bb
       -0.06259546 0.038273722 0.010157329 -0.004838016
000110 bd 44 37 bc 60 47 77 bc c8 58 5e bb 21 f3 d4 bc
       -0.011185822 -0.015092701 -0.003392743 -0.02599484
000120 65 ac 8b bc 46 56 58 bc c9 af 82 bb 7a 3f 06 3d
       -0.017049978 -0.013204163 -0.0039882404 0.03277538
000130 f3 40 23 bc 61 0e 8d 3c b3 d8 2c bb 81 3f 85 3c
       -0.009964216 0.01721877 -0.002637428 0.016265633
000140 c9 39 10 ba 42 fd 31 3c 1e c4 c8 3b 95 13 84 3c
       -0.0005501775 0.010863604 0.0061268946 0.016122619
000150 83 9b f0 bc 18 52 51 bd 7e 6e 43 bc 2c 3d 8a bc
       -0.029371029 -0.05110368 -0.011928199 -0.016874872
000160 e4 56 d7 bc fd 5b b1 3b b1 b0 84 3c 56 5a 2a 3c
       -0.02628655 0.005412577 0.016197534 0.010397514
000170 da 4f 51 bc cd 13 c0 3c 51 f3 04 bd 76 d6 72 bc
       -0.012775386 0.023446942 -0.032458607 -0.014821639
000180 96 29 87 ba a2 08 09 3c 2f 4c 96 3b 58 63 81 ba
       -0.0010312076 0.008363875 0.0045867185 -0.0009871526
000190 ee 3b 99 bb 52 c8 ce bc 1c a9 f5 bc 5e 29 e8 3b
       -0.0046763336 -0.025242005 -0.029987864 0.0070850095
0001a0 f8 18 1e bd 71 07 56 3b b7 9c 36 bd b9 66 38 ba
       -0.03859803 0.0032658244 -0.04458305 -0.000703435
0001b0 ea fb ca 3c 33 aa 36 bc c2 60 7b 3c 95 87 da 3c
       0.024778325 -0.011148977 0.015342893 0.026675979
0001c0 78 e0 18 bd ea 2a 9b 3c 0a bb f2 3c 1d 07 8b 3c
       -0.037323445 0.018941361 0.029630203 0.016971165
0001d0 2d f3 9d 3c b5 11 ce bc 4b 50 3d 3b ca 24 24 3c
       0.019280994 -0.025154928 0.002888697 0.010018537
0001e0 5e 3e dd 3b e6 71 ab 3c 1c b1 9c bc 5d a4 f5 3a
       0.0067518195 0.020928334 -0.019127421 0.0018741001
0001f0 8c 38 23 3c a4 18 af 3b bf b6 b6 3b c0 b8 41 bc
       0.009962212 0.0053435136 0.0055759843 -0.011823833
000200 d2 92 a6 b9 9f 41 53 3b 87 dd 23 3c 8b 40 14 bc
       -0.00031771377 0.0032235158 0.010001547 -0.009048591
000210 4a 24 8e bc b9 9d eb 3b 6a 4f cc bc 31 9a dc 3c
       -0.017351288 0.007190433 -0.024940211 0.026928993
000220 4b 0d 30 bc 8e 42 1a bc 30 83 db bb 7d 9b 10 bc
       -0.010745357 -0.009415282 -0.0066989884 -0.008826134
000230 f9 fb 5e bb 25 b5 04 3c 08 26 9a bb 8a ed 87 3c
       -0.00340247 0.008099829 -0.0047042407 0.01659276
000240 8f 9e 55 bc a9 c4 ab bc 7e b2 ef 3c cd a7 34 bc
       -0.013038292 -0.020967798 0.029259916 -0.011026335
000250 06 1a 17 bc ee ad 36 bc 68 c9 4e ba 24 3e f4 bc
       -0.009222513 -0.0111498665 -0.0007888288 -0.029814787
000260 29 33 74 3b 0b 69 08 3c 11 a4 4a b9 5a a3 d3 bc
       0.003726194 0.008325825 -0.0001932534 -0.025834728
000270 d1 88 20 bc 73 66 57 3c 0f 68 01 3c 0a d1 c4 bc
       -0.009798245 0.013146984 0.007898345 -0.024025459
000280 7f a1 8e bb df cf 64 3b 04 cb 5b ba 5e 88 0b bc
       -0.004352748 0.003491394 -0.00083844387 -0.008516399
000290 d1 1a a8 3c 5a d7 05 bd 47 07 1b bd 19 fd 7a bc
       0.0205206 -0.03267608 -0.037848737 -0.015319132
0002a0 1d 43 62 bd 83 5a 6e bc cb 23 cc bc ed 82 23 bd
       -0.055239785 -0.014547947 -0.024919411 -0.039919782
0002b0 c8 c3 e3 bc fd 24 15 bd b7 90 c7 3a 1a b3 20 bb
       -0.027803317 -0.036412228 0.0015225624 -0.0024520815
0002c0 ff 6c c6 bc ab 1f b3 3c 3e 1f ba 3c 56 60 33 bb
       -0.024221895 0.021865686 0.022719976 -0.0027370653
0002d0 1c 50 88 3b f4 50 1a 3c 9a 56 ad 3b 17 1c 30 3b
       0.0041599404 0.009418715 0.0052898647 0.0026872212
0002e0 d0 9f 8e bc 23 15 38 bc 10 5b 86 bc e2 81 29 bd
       -0.017410189 -0.011235508 -0.016400844 -0.04138363
0002f0 9e 4c 1a bd f6 e9 c4 3a f5 54 0f bc f8 ef 12 bb
       -0.037670724 0.0015023339 -0.008748283 -0.0022420865
000300 fa 48 2d bd 18 7b 05 3c 48 23 d5 3b 33 00 39 3c
       -0.042305924 0.008147024 0.00650445 0.011291551
000310 f0 68 a0 bc dc 82 6f bb 58 80 ae bc 11 2e 08 bd
       -0.019581288 -0.0036546504 -0.021301433 -0.033247057
000320 07 d9 2d 3a 47 16 7b bc 99 48 cc ba 8f 5a f0 bc
       0.0006631766 -0.015325136 -0.0015585601 -0.029340057
000330 14 bd 34 bc 49 91 29 3c c2 24 d0 bc 16 34 71 bc
       -0.011031408 0.01034958 -0.025408152 -0.014721891
000340 b3 69 0f bd ff 88 21 3d 9e a5 d5 3c 8d 48 14 3c
       -0.035012912 0.03943729 0.026079949 0.009050501
000350 48 17 ff 3c 44 c6 89 3c b0 7e 0d 3c 88 8c 7a bb
       0.031139031 0.016818173 0.008636162 -0.0038230736
000360 7b 14 59 bb 0c f4 49 bc 5d d6 be bc 04 da 1d bc
       -0.003312378 -0.012326252 -0.023295576 -0.0096344985
000370 3d 5d ae bc bf 83 c4 bc 3e 06 68 bb cb a8 ef bc
       -0.021284694 -0.023988603 -0.0035404111 -0.029255291
000380 63 ed 78 3b 50 ed b7 3c 96 91 f9 3c 7b ca 51 3c
       0.003798329 0.022452027 0.030464929 0.012804623
000390 13 bd e8 3b 1b 68 29 3b cd d8 d4 bc f2 36 25 bc
       0.0071026175 0.0025849405 -0.025982285 -0.010083901
0003a0 14 92 8e 3c 1b bf 9f bc 86 02 80 bc e9 05 b7 bc
       0.01740364 -0.019500306 -0.015626203 -0.022341685
0003b0 26 6e 83 bc 58 82 02 bc ad 92 dd bc fd 07 96 bc
       -0.016043734 -0.007965647 -0.02704748 -0.018314356
0003c0 dc 52 e8 3b 99 ff 73 3c 8d f2 e9 3c 40 09 2c 3c
       0.0070899557 0.014892482 0.02855804 0.010500252
0003d0 cb ed 90 bc d8 29 bd 3a e4 99 c1 3c f6 c9 5b bc
       -0.017691514 0.0014432026 0.023632951 -0.01341485
0003e0 9f b5 d2 b7 15 8d 0a 3c 37 e4 15 bc 2d de 22 3c
       -2.5118525e-05 0.008456488 -0.009148649 0.009940666
0003f0 6d 94 32 3b d1 04 7d 3b ca ce 0a 3c 16 6c bd bc
       0.0027249113 0.0038607607 0.008472154 -0.023122828

dense.bias f4 [2]
000000 0a ec 26 3c a3 41 10 bc
       0.010188112 -0.0088047115

stack.0.weight f4 [16, 1, 3, 3]
000000 82 eb dd 3e 89 6b 43 be 96 4b fd be 9a 94 64 3e
       0.4334374 -0.1908399 -0.4947173 0.22322312
000010 2f ad f0 3c 7c 66 80 be 36 4a 0c bf 7f 3b c6 be
       0.029379455 -0.2507819 -0.54800737 -0.38717267
000020 af ce 6d bf 81 90 89 bc c9 77 b4 be fe 17 32 be
       -0.928935 -0.016792538 -0.3524764 -0.17391965
000030 0a a5 cf be f2 ca 6d be a2 dc 10 bf 54 ee 95 3d
       -0.40555602 -0.23221949 -0.5658666 0.07320848
000040 0a ec e8 3d 82 8b 38 be f5 85 a5 3d 1a 6e 00 3e
       0.11373146 -0.18021968 0.08082191 0.12542
000050 dd 42 bb be e0 1a 86 3d fa 02 a1 be 27 16 f7 3d
       -0.3657445 0.06548095 -0.31447583 0.12064772
000060 c1 82 85 be 59 5e 83 be 86 d9 19 be a8 9c 23 bd
       -0.2607632 -0.2565792 -0.15024385 -0.03994432
000070 00 fa a9 bc 50 f6 13 be 08 eb 52 3d 40 32 89 bc
       -0.020749092 -0.1444943 0.051493675 -0.016747594
000080 bc a6 93 bd d0 6b ff bd 56 84 00 3e 58 18 47 be
       -0.072095364 -0.124717355 0.12550482 -0.1944288
000090 b0 46 64 be 8b 41 ad be 40 4d 55 3e b5 cf 10 3e
       -0.2229259 -0.33839068 0.2083025 0.14141734
0000a0 aa 37 85 bd 8d 00 d2 be a9 ef c8 bd 26 92 b5 3d
       -0.06504758 -0.41016045 -0.098113365 0.08865766
0000b0 e2 f3 02 3e 2b 6f 86 be 2d f1 dd be be 12 1a 3e
       0.12788346 -0.2625669 -0.43348065 0.15046212
0000c0 0d 80 8f be 2e 8a 13 be b3 94 5d 3d db d1 16 bd
       -0.28027382 -0.1440818 0.05409689 -0.036821228
0000d0 51 3c e4 bd 71 af 80 bd 7c 78 27 3e 09 9b 85 be
       -0.11144317 -0.06283463 0.16354555 -0.26094845
0000e0 d4 14 b5 be ba 73 31 be ac 6c b6 be ec 11 ac be
       -0.35367453 -0.17329302 -0.35629785 -0.33607423
0000f0 bf ce 39 3d 71 e2 38 be b9 4f 0b be a8 22 cb 3d
       0.045363184 -0.1805513 -0.1360463 0.099187195
000100 bb 43 98 be 50 e3 6a 3e ba 77 b5 be 80 45 d6 be
       -0.29739174 0.22938275 -0.35442907 -0.418499
000110 5d 3e 16 bd 4d 37 dc bd 53 9d b7 be d6 bb c3 bd
       -0.036680568 -0.10752735 -0.35862216 -0.09557311
000120 07 7d 1e bf 87 19 0b bd 97 8b ff be 94 8c 03 bf
       -0.61909527 -0.03395989 -0.49911186 -0.5138638
000130 df 80 64 bd f5 a0 a2 be 6b 3a bc be 2e f6 cd bb
       -0.055786964 -0.31763425 -0.3676332 -0.0062854504
000140 ea cb e3 be 60 24 c3 bd 07 a9 b9 bd 1d 0f 73 be
       -0.44491512 -0.09528422 -0.090654425 -0.23736234
000150 18 66 48 be d5 0c bf 3d f2 56 86 be b5 7c 18 3e
       -0.19570196 0.093286194 -0.2623821 0.14891322
000160 2c 1f 8b be 4f a3 5e be 77 22 28 bf 37 3e cf be
       -0.2717222 -0.21741985 -0.6567759 -0.40477154
000170 1e d1 9f be 7a fa da be 69 75 1b 3e 1c 3e 9a be
       -0.3121423 -0.42769223 0.15181507 -0.3012551
000180 44 c9 ff be 36 96 e5 3d 06 55 2f be 16 d4 44 be
       -0.4995824 0.11210291 -0.17122278 -0.1922153
000190 43 38 78 bd 16 6e 55 bd 52 50 e2 bd ef 1d 93 bc
       -0.06060053 -0.05210694 -0.11050476 -0.01795861
0001a0 a7 e5 f9 3d 1f c2 4a 3e a4 29 c1 bd a2 0f 4c 3e
       0.12202006 0.19800614 -0.094317704 0.19927838
0001b0 f3 20 1c 3f 54 3e 0b 3e 80 17 18 3f ce 16 2e be
       0.60987777 0.13597995 0.5941086 -0.17000887
0001c0 d5 f1 1f 3e 4f 57 d7 3e 4f 3f 05 be 43 c9 9f be
       0.15619595 0.420588 -0.13012432 -0.31208238
0001d0 ae f5 89 be 70 62 cd be 63 30 a0 3e 28 33 23 3e
       -0.2694525 -0.40114164 0.31286916 0.15937483
0001e0 35 1e 90 be d3 0d a7 3e 68 f6 e8 3e 08 5a ed bd
       -0.28148046 0.32627735 0.45500493 -0.11589438
0001f0 c4 06 e2 bd f1 1e de 3e 10 96 6b bd 24 b9 93 bb
       -0.11036447 0.4338298 -0.057516158 -0.0045081545
000200 1e 0f 60 3d 41 40 d3 be a8 95 bc bc 0e 05 0e bd
       0.054701917 -0.4125996 -0.02302058 -0.03467279
000210 2e 50 ae be 4a 2f fc be 39 bc bf 3d 09 f1 12 be
       -0.34045547 -0.4925483 0.093620725 -0.1434976
000220 d3 74 38 bd c8 f1 ef bd c3 28 cf be 09 e8 29 bf
       -0.045033287 -0.11716038 -0.40460786 -0.6636968
000230 1b 2c 2d be 61 0c 95 be 82 9a 96 bd e1 91 8c bd
       -0.16911356 -0.29111007 -0.07353689 -0.06863762

stack.0.bias f4 [16]
000000 1d df 13 bf 28 ca df be 0b 58 6b be a3 a1 19 be
       -0.5776232 -0.4370892 -0.22982804 -0.15003066
000010 51 ac 33 be 44 ac 38 be 49 5d 97 be e0 90 d0 be
       -0.17546202 -0.18034464 -0.29563358 -0.4073553
000020 4b 39 18 3f 2a 0b 72 bd aa d4 36 be dc 4f bc be
       0.5946242 -0.059092678 -0.17854562 -0.36779678
000030 70 8d 51 3f ed b4 d0 bf 7c ea e8 be cc c1 c9 bc
       0.8185644 -1.6305214 -0.45491397 -0.024628542

stack.2.weight f4 [16]
000000 ee 24 8a 3f 2d 65 81 3f 9e df 7b 3f 00 00 80 3f
       1.079252 1.0109001 0.9838809 1.0
000010 51 1f 79 3f 12 65 81 3f 28 22 75 3f aa 99 6d 3f
       0.9731341 1.0108969 0.95755243 0.928126
000020 80 ca 79 3e 63 e2 7c 3f 35 43 92 3f 51 66 7f 3f
       0.24393654 0.9878294 1.142676 0.997655
000030 6f 4f 92 3f 17 f1 6e 3f f3 a8 81 3f 32 22 44 3f
       1.1430491 0.93336624 1.0129684 0.7661468

stack.2.bias f4 [16]
000000 32 b8 84 3e ce e4 cf 3e 88 50 ff 3d 2f 37 01 3e
       0.2592178 0.40604252 0.12466532 0.12618707
000010 73 c0 29 be 4f 96 39 3f 63 01 f9 bd 09 90 10 bd
       -0.1657732 0.7249498 -0.121584676 -0.035293613
000020 d6 ba ed 3d ee d9 b4 be 7c 59 23 bd a4 21 03 3e
       0.11607902 -0.35322517 -0.03988026 0.12805802
000030 3a 15 49 bf 36 fd 30 3f 0c ef 9e 3e 92 35 e0 be
       -0.78548014 0.6913637 0.31041753 -0.4379087

stack.2.running_mean f4 [16]
000000 04 00 00 00 04 00 00 00 04 00 00 00 00 00 00 00
       6e-45 6e-45 6e-45 0.0
000010 73 93 0e 2b 04 00 00 00 04 00 00 00 04 00 00 00
       5.065316e-13 6e-45 6e-45 6e-45
000020 20 78 39 3e 83 bd 9e 2c 04 00 00 00 04 00 00 00
       0.1811223 4.51167e-12 6e-45 6e-45
000030 f7 ff 7f 3f 04 00 00 00 04 00 00 00 04 00 00 00
       0.99999946 6e-45 6e-45 6e-45

stack.2.running_var f4 [16]
000000 04 00 00 00 04 00 00 00 04 00 00 00 04 00 00 00
       6e-45 6e-45 6e-45 6e-45
000010 fd 55 25 29 04 00 00 00 04 00 00 00 04 00 00 00
       3.6711943e-14 6e-45 6e-45 6e-45
000020 58 c7 0a 3e 90 70 72 2b 04 00 00 00 04 00 00 00
       0.13552606 8.6131883e-13 6e-45 6e-45
000030 98 38 6f 30 04 00 00 00 04 00 00 00 04 00 00 00
       8.702812e-10 6e-45 6e-45 6e-45
