grj/DogCat_Recognition/full_precision_weights.pth (torch, 236966 bytes, 40 tensors)

conv1.weight f4 [16, 1, 3, 3]
000000 de 49 2f bc 23 98 a1 3d a9 6f 7d 3d e8 61 0f be
       -0.010698764 0.07890346 0.061874066 -0.14002192
000010 57 d5 13 3c 21 23 e7 3d c2 a8 13 3e 1a 91 8b be
       0.009023032 0.11285997 0.14419845 -0.2725914
000020 e4 40 eb bd b7 67 4f 3e 91 23 57 3d c4 92 70 3e
       -0.11486986 0.20254408 0.052524153 0.23493487
000030 14 25 02 be ad ac aa be 04 eb 10 be 18 6d 13 bd
       -0.12709457 -0.33334866 -0.14152151 -0.03599271
000040 bd 7a 8d bd 0d 37 7e 3e 89 3c 31 be 3c fe 47 3e
       -0.06908176 0.24825688 -0.17308249 0.19530576
000050 ab ab 27 3e 1c 61 08 3e 38 50 94 be 6f 7f 24 be
       0.1637408 0.13318294 -0.28967452 -0.16064237
000060 ba ed 2f bd d0 9f b6 bd bc 53 35 3e 71 5c 8c 3e
       -0.042951323 -0.089172006 0.17707723 0.27414277
000070 2a 5b 13 bd 0f b9 3e be d2 f6 7d 3e 72 9e 8c be
       -0.035975613 -0.18625282 0.24801186 -0.27464634
000080 33 74 9f 3e 40 ab ff bd 4f d9 fa 3c 0f 66 81 be
       0.3114334 -0.12483835 0.030621199 -0.25273177
000090 7d 63 bf 3d 46 d7 9e be a5 ec 3a bd fc b9 3e 3d
       0.09345148 -0.31023616 -0.045635838 0.046564087
0000a0 8f 86 ab be 90 2e 75 be 9e 12 ac 3e 59 37 b2 3e
       -0.33501098 -0.23943543 0.33607954 0.34807852
0000b0 f5 46 9b 3d 70 26 95 bd b6 56 85 3e ac d0 5c be
       0.07581893 -0.07282722 0.26042718 -0.21563977
0000c0 0d fa 90 be e7 29 80 3d ae fb 4a 3c 80 09 3d be
       -0.28315774 0.06257992 0.012389107 -0.18460655
0000d0 ef f1 25 be 5e 15 f6 3d 68 b0 3c 3c 1c 26 3e be
       -0.16205572 0.12015794 0.011516668 -0.18569225
0000e0 85 12 77 3e 96 0b b7 bd 07 94 53 be ea 50 7b 3e
       0.24128158 -0.08937757 -0.20661937 0.24542585
0000f0 cb ac 79 be 96 0d 3d bc c4 5c 95 3e 50 69 90 bd
       -0.24382322 -0.011538884 0.29172337 -0.07051337
000100 ad 7e 19 be bb 92 5d be bd 4d 1c be 0b 9d 0b bd
       -0.14989729 -0.21638004 -0.1526403 -0.034085315
000110 ac 2d 47 3e 3c 02 97 be 8f a4 79 bd 78 c6 0e 3e
       0.19451016 -0.29493892 -0.06094795 0.13942897
000120 1b 78 57 3d 2d 80 69 3e 1b 87 ed bd fb cf 1e bd
       0.052604776 0.22802801 -0.11598035 -0.038772564
000130 34 41 b3 be 36 bf 2f be 9b c2 b8 3e de 47 d2 bd
       -0.35010684 -0.17162785 0.36085972 -0.10267614
000140 a6 ce 0c bd ca e2 95 be bb 5e a2 bd 19 b9 56 be
       -0.034376763 -0.2927459 -0.07928225 -0.20969047
000150 6d 0a 17 be 89 9e 37 3d f7 05 92 3e d7 7b 3a 3e
       -0.14750071 0.044828925 0.28520176 0.18211304
000160 8c fa 86 3e 96 0b 1a 3e cd 6f 9b be 1b d3 6e 3e
       0.26363027 0.15043482 -0.30358735 0.23322718
000170 4e 27 b0 be d9 d9 a9 bd b7 b3 8a bd 0b e7 6b be
       -0.34404987 -0.08293504 -0.06772559 -0.23037355
000180 85 2f ca bd 5f 61 41 3d 6e 4e ac be df e2 01 3d
       -0.09872345 0.047212 -0.33653587 0.0317105
000190 57 24 e8 3c 25 8f 1e 3e dd e7 82 3e 53 f8 7b bc
       0.02833764 0.15484293 0.25567523 -0.015379029
0001a0 bd 61 88 bd 64 d2 b5 3e 8d 9a 07 be aa 8a a9 be
       -0.06659267 0.35512078 -0.1324255 -0.33113605
0001b0 60 96 a1 be 29 3d 71 3e 99 96 26 be 00 33 61 be
       -0.3156004 0.23558487 -0.16268386 -0.21992111
0001c0 99 b3 4c 3e a3 ba 45 3d 89 34 e1 bd fb ed af 3e
       0.19990386 0.048273694 -0.109963484 0.34361252
0001d0 15 67 23 bc 30 43 67 3e de c9 92 3e d0 b2 21 be
       -0.009973307 0.22584224 0.28669637 -0.15790868
0001e0 77 45 cf bd c5 7f 8d bd 37 c7 91 3e 50 6c 09 3d
       -0.10120671 -0.06909136 0.284723 0.03355056
0001f0 d5 b5 64 3e 34 7d 0c 3e 36 e7 9b be c0 15 ba 3c
       0.22334988 0.13719636 -0.30449837 0.02271545
000200 e0 44 66 bd 21 5c 81 3e f8 9b 3f be 74 0a 83 3d
       -0.056218028 0.252656 -0.18711841 0.06398478
000210 96 ee c4 bd 7e a2 a4 be 3e b3 1a 3e 44 70 85 be
       -0.09615819 -0.32155222 0.15107438 -0.26062214
000220 2d fd 82 be 19 7b 1e be 4f 94 7a be a6 4a 50 be
       -0.25583783 -0.15476646 -0.24470638 -0.20340976
000230 cf 67 ce 3d a2 29 bb 3e 79 80 94 3e 1a 7a 89 3e
       0.10078394 0.365552 0.29004267 0.2685097

conv1.bias f4 [16]
000000 ed f9 93 3e 89 b9 31 3e 70 e7 86 3e 21 19 91 be
       0.28901616 0.17355932 0.26348448 -0.28339484
000010 bc cb 6a ba 86 97 b7 3d 76 e0 88 be 88 a6 43 3e
       -0.00089567504 0.08964448 -0.2673375 0.19106495
000020 97 50 f3 3c 99 d9 a8 3e da 3c 8b 3e 41 da 25 be
       0.029701514 0.32978514 0.27194864 -0.16196539
000030 2d 18 2a bc 5b 6b 17 bc 1b bb 70 be e2 6e a6 3d
       -0.0103817405 -0.009241904 -0.23508875 0.08126618

normalization1.weight f4 [16]
000000 e8 1e 7b 3f 32 a1 84 3f 81 02 7c 3f 18 0c 7f 3f
       0.98094034 1.0361693 0.9844132 0.9962783
000010 e1 2d 86 3f 61 90 7c 3f 28 c3 78 3f 1e 39 7e 3f
       1.0482751 0.98657805 0.97172785 0.99305904
000020 48 40 7f 3f ff f7 7e 3f 5e 75 7b 3f 22 0f 81 3f
       0.9970746 0.9959716 0.98225963 1.0082743
000030 d4 62 81 3f 16 aa 78 3f 00 00 80 3f 8d a7 83 3f
       1.0108285 0.9713453 1.0 1.0285507

normalization1.bias f4 [16]
000000 19 c0 66 bc 3d 0d 71 3c 61 ee ac 3b 2d 22 26 3c
       -0.014083886 0.014712629 0.0052774404 0.010139984
000010 3a 6d 4f 3b 0a 73 77 3b b8 2e 6e 3b 0c c0 9e 3a
       0.0031650797 0.0037757778 0.0036343765 0.0012111678
000020 a0 5a e7 3b 2a 25 0f 3c 95 5c ae 3a ce c2 98 3a
       0.007060364 0.008736888 0.0013302738 0.0011654736
000030 f6 4e 3a bc 2c b2 4c 3c e5 51 53 3c 9c 68 f9 3b
       -0.011371365 0.012493651 0.012897943 0.0076113474

normalization1.running_mean f4 [16]
000000 4f fa 68 3e bd 7e 3d 3e 55 e7 62 3e bd 5c 0d 38
       0.22751735 0.18505378 0.22158559 3.370339e-05
000010 7f 92 59 3c 2f 1e 05 3c dc 64 87 39 fb 3a dd 3c
       0.013279556 0.008124872 0.00025824353 0.027005663
000020 47 db c2 3b 97 74 d8 3e 7a 51 d7 3c d4 66 b7 3c
       0.00594655 0.4227645 0.026283968 0.0223879
000030 38 19 49 3c c9 98 c8 3e 00 00 00 00 e0 31 51 3d
       0.012274079 0.39179066 0.0 0.051072955

normalization1.running_var f4 [16]
000000 33 00 e3 3a 6a e0 a4 3a b2 2b 8e 3a a4 f6 b4 35
       0.0017318785 0.0012579088 0.0010846762 1.3482827e-06
000010 3f f3 ac 3a a0 6f e8 39 65 fb d5 37 74 16 21 3b
       0.0013195052 0.00044333655 2.5508643e-05 0.0024580033
000020 8e 63 aa 39 af 0f f8 3b 20 70 65 3b e9 dc d8 3a
       0.000324991 0.007570229 0.0035009459 0.0016545329
000030 5a bc cb 3a 8b 76 44 3d 04 00 00 00 95 1b 87 3b
       0.0015543804 0.047964614 6e-45 0.004123161

conv2.weight f4 [32, 16, 3, 3]
000000 a1 27 57 3c 95 10 16 3d 09 aa 81 bd 41 eb 47 bc
       0.013132007 0.036636908 -0.0633126 -0.012202085
000010 51 5d aa bd c3 bd 55 3d 71 93 23 3d ad 32 95 3d
       -0.0831858 0.052182924 0.039935533 0.07285056
000020 d7 1b f9 3c 91 0c d1 3b 54 e7 89 3d 84 15 a3 bd
       0.030408783 0.006379672 0.067335755 -0.07963088
000030 10 eb 26 bd 7e 66 37 bd 39 ac 87 3d 2f 9d 0a bd
       -0.040751517 -0.04477548 0.06624646 -0.03384131
000040 5e c9 ac bd 58 6a 00 bc 2e 29 29 bc f8 8a 27 3d
       -0.08436845 -0.007837854 -0.010324759 0.040904015
000050 53 1c 98 bb 3c c0 4a bd d0 3f 28 bd 5c fa be 3c
       -0.0046420484 -0.049499735 -0.04107648 0.02331274
000060 f7 87 00 3c 46 c4 81 3c ce 17 31 3d 95 f0 61 3c
       0.007844917 0.01584066 0.043235593 0.013790269
000070 e8 35 15 bd 8a 6e 75 3d 65 b5 33 bd f9 c5 5f 3c
       -0.036428362 0.05991987 -0.043874163 0.01365804
000080 a4 b8 85 bc da 7a c6 3c 59 d9 07 bd dc bb a1 bd
       -0.016323395 0.024228502 -0.033166263 -0.078971595
000090 cc ad a0 bd 55 41 b3 bd 51 52 1a bd f9 43 85 3c
       -0.07845649 -0.087526955 -0.03767616 0.016267763
0000a0 f1 aa 50 3c 99 e3 4b 3b 93 10 e1 bc c7 32 cb bb
       0.012736068 0.0031111 -0.027473724 -0.0062011215
0000b0 75 9a cd bb b7 92 67 3d 97 63 60 bd 9c 65 29 3c
       -0.006274516 0.056536403 -0.054782476 0.010339167
0000c0 fa ec 16 bd f9 6d 92 3b 18 05 10 3d 25 69 46 3d
       -0.036847092 0.004468676 0.035161108 0.048440117
0000d0 cd db ac 3c 80 c3 0a 3d 26 ad 69 3d 42 3d 5c 3d
       0.021100903 0.03387785 0.057049893 0.053769358
0000e0 44 a6 3b 3d f8 23 9c 3d ab 8f ff bb 1d 8e 3b 3d
       0.04581286 0.07624048 -0.007799109 0.045789827
0000f0 fb f6 91 bd a8 64 ac bc 18 41 06 bd e9 27 39 3d
       -0.07127186 -0.02104409 -0.032776922 0.045204077
000100 4a 3b 86 bd 47 ef 34 bd 5b ba b4 bd b8 4b 62 3d
       -0.06554277 -0.044173505 -0.08824607 0.055247992
000110 83 7a 89 bd 82 3a 84 3d b7 33 91 bc f0 d6 00 3d
       -0.067128204 0.06456472 -0.017724855 0.03145498
000120 09 68 22 bd de 87 b5 bd dd c4 af bd 48 85 ef bc
       -0.039649997 -0.08863805 -0.085824706 -0.029238358
000130 47 35 12 3d 8e 0d b7 3d 92 dc 03 3d 69 01 90 bd
       0.03569534 0.08938132 0.032192774 -0.07031519
000140 48 1a 82 3d d4 a9 6d 3d 52 be df 3c b2 28 ab 3d
       0.06352669 0.05802329 0.027312431 0.083573714
000150 8d 57 27 3d dd 12 f0 3b 06 b5 2e 3d 74 4c 63 bd
       0.04085498 0.0073264674 0.042653106 -0.055492833
000160 f6 b1 f5 bb 03 73 89 3d 7f 7f 5c 3c ab 75 9a bd
       -0.0074980212 0.0671139 0.013458132 -0.07541975
000170 f1 b7 e0 bc 01 13 97 bd d8 70 97 3d 1d 03 af bd
       -0.02743146 -0.073766716 0.0739457 -0.08545516
000180 40 b7 81 3d 72 49 85 bd 35 06 12 bd 17 32 59 bd
       0.0633378 -0.06508149 -0.03565045 -0.053026285
000190 c8 00 13 39 68 9f 7e 3d 26 75 83 bc ce 04 86 3d
       0.00014019303 0.06216374 -0.016047072 0.06543885
0001a0 39 7d 63 3d ab d8 88 3d e9 ed 22 bd 48 ea 84 bd
       0.055539344 0.06681951 -0.03977767 -0.06489998
0001b0 a0 fc 9f bd 23 06 be bc 1b 68 52 bd 47 78 55 3d
       -0.07811856 -0.023196286 -0.051368814 0.05211666
0001c0 0e 60 8c 3d 27 14 6f 3b 68 85 02 3d 63 1d 23 3d
       0.068542585 0.0036480518 0.031865507 0.039822947
0001d0 5a 26 67 3d 32 b1 a4 3c 68 a4 bb bd 81 14 89 39
       0.05643306 0.020104025 -0.091622174 0.00026145953
0001e0 9c 4e 85 3c e5 ed 0b bd d4 26 b8 bb 5f f2 48 bc
       0.016272835 -0.03416242 -0.005619863 -0.012264817
0001f0 dc 5f 00 3d 71 b5 93 3d 56 b0 a9 bd 4d 18 17 3d
       0.03134142 0.072123416 -0.082855865 0.03688841
000200 22 2a 7e 3d ce ce b1 3c 4a 45 90 3d 66 62 cd bc
       0.0620519 0.021705057 0.07044466 -0.025071334
000210 ed 46 88 bd c3 30 cd 3c 8f 8f a1 bd a1 d3 6f 3d
       -0.06654153 0.025047665 -0.0788871 0.058551434
000220 78 8d 8e 3c 78 f7 83 bd c5 b6 a6 3d 57 93 ce bc
       0.017401442 -0.06443685 0.08140329 -0.025216741
000230 27 d4 4e 3d 6b d0 5c 3d 1e 9e 85 bd 37 39 8a 3d
       0.050495293 0.0539097 -0.06524299 0.06749194
000240 b3 85 16 3c ab 83 96 bd aa c8 5b bd 3e b0 dd 3d
       0.00918715 -0.073493324 -0.053658165 0.10824631
000250 de 5c 9c bd 4f f5 26 bd cf 57 85 bb 01 08 62 3d
       -0.076349005 -0.04076129 -0.0040693055 0.055183414
000260 7c 53 17 3c e7 36 84 3a 89 b5 4e 3d 21 9e 7d 3d
       0.009236213 0.0010087163 0.050466094 0.06191838
000270 17 d9 c0 3c 50 7a 29 bd 37 ff a7 bd 63 42 0a bd
       0.023541017 -0.041376412 -0.08202975 -0.033754718
000280 6a c0 2f 3d b8 2d d5 3b 47 eb a1 bd e7 b3 55 bc
       0.04290811 0.0065056942 -0.07906204 -0.01304338
000290 8c bd 75 bd 37 99 74 3d 87 e6 0c bd 6a 4c 30 3d
       -0.05999522 0.05971643 -0.034399536 0.043041624
0002a0 29 18 41 bd d8 33 38 bd eb d6 77 bc a7 cf 91 3d
       -0.04714218 -0.044971317 -0.015126924 0.07119685
0002b0 e6 5b 97 3c 27 25 83 3d 77 14 65 3d 4b c3 32 bd
       0.018476438 0.064035706 0.05592772 -0.043643277
0002c0 be 11 16 bd 5b e7 3f 3d fa 54 71 bc 25 48 0e 3d
       -0.036638014 0.046851497 -0.014729733 0.03473677
0002d0 c1 2b 0b 3d 48 a9 1c 3d a5 88 5b 3d f7 65 8d 3b
       0.033977274 0.038247377 0.05359711 0.0043151337
0002e0 27 a4 05 bd 79 fe a6 3c 32 d0 2b 3d 46 db 47 bd
       -0.03262725 0.020385014 0.041946597 -0.0487931
0002f0 ea 29 53 3d 17 ff 6f bd 4f 13 22 3c 92 36 75 3d
       0.051553644 -0.058592882 0.009892299 0.059866495
000300 65 22 25 3d aa 4c 8c bd 44 b3 10 bc 94 cf a5 bc
       0.040316004 -0.0685056 -0.008831803 -0.020240583
000310 24 e6 73 3b 1c 3b 6f 3d fa d6 63 3c d2 a3 92 3d
       0.0037216032 0.05840598 0.013906235 0.071601525
000320 e3 89 06 3d 83 15 d0 3c 7f 1e 95 bd 87 9f cc 3c
       0.032846343 0.025400883 -0.07281207 0.024978412
000330 ce f8 39 3d 12 9c 5b bd 72 03 b0 3c 7f 23 8d 3d
       0.045403294 -0.053615637 0.021486018 0.06891536
000340 1d eb 6d bd 68 fa 64 bd 6d 04 b8 bc 25 61 99 bd
       -0.05808555 -0.05590287 -0.022463048 -0.07489232
000350 32 6a 84 bd 5f 96 a5 bd 94 b1 1e bb da f5 e4 3c
       -0.06465568 -0.08085322 -0.0024214732 0.027949262
000360 24 f5 69 3c 77 2c 6f bb 52 eb 88 bd 88 51 43 3d
       0.0142796375 -0.003649501 -0.06685509 0.047685176
000370 29 a0 44 3d f9 88 29 3d f7 cb a7 bc bf 8a eb bc
       0.048004303 0.041390393 -0.020483 -0.028752683
000380 95 f6 9d 3c 6a 50 8c 3d 54 a8 07 3c 9d c0 1c 3c
       0.019282619 0.06851275 0.008279879 0.009567407
000390 52 e7 1c bd 1e 26 56 bd 28 d0 de bc 76 99 3a bd
       -0.03830654 -0.052282445 -0.027198866 -0.045556508
0003a0 3d 9e 84 bd ee ac 37 bd a1 ae 65 3d 33 88 47 bd
       -0.06475494 -0.044842653 0.056074742 -0.048713874
0003b0 cb 3f ef ba 1d 7e 17 3d 5f 25 ca bb 03 43 96 bd
       -0.0018253265 0.036985505 -0.0061690058 -0.07337
0003c0 66 63 a4 bd c0 a6 4c bd 16 b0 1a 3d 4e 97 4f bd
       -0.08026771 -0.049963713 0.037765585 -0.050681405
0003d0 8d 44 ff 3b 41 e0 2b 3d 42 3d 9c bd 0a 38 08 3c
       0.0077901543 0.041961912 -0.076288715 0.008314142
0003e0 46 36 82 3d 22 f8 96 3c ae c1 a1 3d 71 61 2b bd
       0.06358008 0.018428866 0.078982696 -0.041840974
0003f0 0a 16 3e bd 2b e7 84 bc d7 3f 0a bd 3f a1 9d bd
       -0.046407737 -0.01622351 -0.03375229 -0.07696771

conv2.bias f4 [32]
000000 b4 af dc 3c 52 51 dd 3b 63 d9 6e bc aa a6 2f bc
       0.02693925 0.006754079 -0.014578196 -0.010720888
000010 25 0b c4 bd 43 06 92 bc d9 14 ad 3b c1 b4 12 3c
       -0.09572438 -0.017825251 0.0052820262 0.008954228
000020 d7 aa a2 bd 3c 27 48 3d 26 f2 ce 3b 27 5f 6d bd
       -0.07942741 0.04886554 0.0063154874 -0.057952072
000030 b1 de a3 bd 4b 5b b0 bc ae d6 6e bd 39 31 ec 3c
       -0.080014594 -0.021527907 -0.058310203 0.028832065
000040 aa 27 7b bd 76 fd 11 3c 2e 45 07 bd ed b9 8b bd
       -0.061317123 0.008910527 -0.03302496 -0.06822572
000050 bb c1 32 bd 6c 4e b5 3d 80 45 86 bd 10 4a 9c 3b
       -0.043641787 0.088528484 -0.06556225 0.004769571
000060 93 45 1e 3d 54 81 96 bd cf 21 c8 bd d5 fc 6f bd
       0.03864057 -0.07348886 -0.097720735 -0.05859073
000070 41 6b 40 bd e6 97 7a 3d b8 c0 0f bd 6e 3e 5f 3d
       -0.046977285 0.061180018 -0.0350959 0.054502897

normalization2.weight f4 [32]
000000 a2 1a 80 3f 22 16 80 3f 52 df 80 3f 6b e2 7f 3f
       1.0008128 1.0006754 1.0068152 0.9995486
000010 77 b6 7f 3f 81 0f 7e 3f 2e 8a 7d 3f 11 04 7f 3f
       0.99887794 0.9924241 0.9903897 0.9961558
000020 a0 7f 80 3f 15 82 7b 3f 4e be 7c 3f 2d 08 82 3f
       1.0038948 0.98245364 0.9872788 1.0158745
000030 17 2f 7e 3f 3c 38 80 3f dd c0 7d 3f 43 12 80 3f
       0.99290603 1.0017161 0.9912241 1.0005573
000040 b3 62 81 3f 96 d8 80 3f c5 84 7e 3f 46 04 7f 3f
       1.0108246 1.0066097 0.9942134 0.99615896
000050 49 0f 80 3f 18 c7 80 3f 78 5f 7e 3f dd ab 7f 3f
       1.0004665 1.0060759 0.99364424 0.9987162
000060 26 9d 80 3f f1 1b 80 3f 2c 27 80 3f b2 7e 80 3f
       1.0047958 1.0008527 1.0011954 1.0038664
000070 97 1b 7e 3f d0 d7 82 3f 8a a0 7b 3f 08 65 7e 3f
       0.9926085 1.0222111 0.9829184 0.9937291

normalization2.bias f4 [32]
000000 c2 ca 67 3c 5e b3 88 3d 4c cc ba 3b be da 99 3c
       0.014147462 0.066748366 0.0057006236 0.018781062
000010 88 90 e5 3c 20 7a 46 3d bc cb 38 3d 5b 5a 83 3d
       0.02802302 0.04845631 0.04511617 0.06413718
000020 ff b5 00 3d 35 cf af 3c 76 9c 69 3c 37 bd dd 3c
       0.031423565 0.021461109 0.014258495 0.027067764
000030 7f f1 46 3d 21 d7 f0 3c 35 22 3b 3d 31 74 90 3c
       0.048570152 0.029399456 0.04568692 0.01763353
000040 7d b4 d8 3c e1 87 56 3d 01 6d d9 3c f5 06 5a 3c
       0.026453251 0.052375678 0.026541235 0.013307323
000050 be 15 91 3b bb 7c 41 3d fc ee fb 3a d5 e8 39 3d
       0.0044276407 0.047238093 0.0019221003 0.04538806
000060 2f 15 e9 bb 77 74 6d 3c 8c 51 b4 3c e8 64 47 3d
       -0.007113121 0.014493099 0.02201154 0.048680216
000070 40 bc e4 3c c3 51 ab 3c 92 25 9b bb 5b 73 1e 3c
       0.027921796 0.02091301 -0.0047347033 0.009671058

normalization2.running_mean f4 [32]
000000 7a 28 68 3e ee 33 3d 3e d6 75 c1 3d 92 ba d9 3d
       0.2267169 0.18476841 0.094463035 0.106312886
000010 35 f2 ea 3c c0 1f e1 3d 64 98 ad 3e 7c e5 2c 3e
       0.028679946 0.10992384 0.33905327 0.16884416
000020 7e f8 24 3e 09 e0 b2 3e 93 a1 81 3e aa 37 03 3e
       0.16110417 0.3493655 0.25318584 0.12814203
000030 60 38 23 3e ad 55 33 3e 88 ab 0c 3e bb 5a 2e 3e
       0.15939474 0.17513151 0.13737309 0.17026798
000040 09 a9 91 3d e2 27 83 3e d1 a8 7f 3e d7 52 d5 3d
       0.07112319 0.25616366 0.24966742 0.10416191
000050 e6 99 0c 3e 33 77 1b 3e 32 b2 94 3e 29 25 35 3e
       0.13730583 0.1518219 0.29042202 0.17689957
000060 0c 8b 35 3e e0 bc b6 3e d6 c8 71 3d 7d a2 d8 3d
       0.17728823 0.35690975 0.059029423 0.10577867
000070 8a 2f a7 3d 2f 56 c1 3d 78 a4 ea 3d 5e 04 10 3e
       0.08163364 0.09440266 0.11457151 0.14064166

normalization2.running_var f4 [32]
000000 b9 15 0c 3e cd 52 a0 3d 4b 8a 8d 3d 23 96 44 3d
       0.13680162 0.07828293 0.06911143 0.047994744
000010 45 86 34 3c 9e aa 46 3d aa b6 90 3e 69 76 fe 3d
       0.0110183405 0.048502557 0.28264362 0.12424929
000020 b6 64 e8 3d 45 41 5b 3e e6 5c 19 3e 05 4e 2a 3d
       0.11347334 0.21411617 0.14976844 0.04157831
000030 dc a3 e5 3d 3e dd f1 3d 20 d9 65 3d 75 48 1e 3e
       0.11212894 0.11809777 0.05611527 0.15457328
000040 1f 99 20 3d 0c 58 35 3e 13 fd 19 3e ee 0d 6b 3d
       0.039208528 0.17709368 0.15037946 0.05738633
000050 6a 19 95 3d 7f 20 21 3d 30 89 0e 3e 60 8b a9 3d
       0.07280238 0.03933763 0.1391952 0.08278537
000060 03 c2 4c 3d 5c a8 8f 3e e6 a5 2c 3d 97 76 56 3d
       0.04998971 0.28058136 0.0421504 0.05235919
000070 c2 1c 90 3d d5 5e e9 3c 88 d0 6c 3d 4d 03 92 3d
       0.07036735 0.028487602 0.05781606 0.07129536

conv3.weight f4 [64, 32, 3, 3]
000000 80 50 19 3d 21 6f 38 bc b3 ce 1f bc 78 ae 7c 3b
       0.037430286 -0.011256964 -0.009753871 0.003855614
000010 55 7a 43 3d e6 53 9d bc aa 23 a7 3c 07 c3 1a 3d
       0.047724087 -0.019205045 0.020402748 0.03778365
000020 55 32 21 3d 76 1f 7c bc ad 5a 3d 3d c1 a4 73 bd
       0.03935464 -0.01538836 0.046229053 -0.059483293
000030 62 cb 8b 3c af 0c 18 3d c2 6b 15 bd 69 bf 87 3c
       0.017064754 0.03712147 -0.03647972 0.016570764
000040 a5 23 cb 3c c2 9d 2d 39 4b 7e 0a bd 6d 2e a4 ba
       0.02479727 0.00016557335 -0.03381185 -0.0012526043
000050 f8 e2 bf bc 48 78 a7 bb f1 3f 0e bd 34 cc 77 bc
       -0.023423657 -0.005110774 -0.034728948 -0.015124369
000060 b0 50 3f bb b3 65 84 bd 9b 19 16 bc 7a f0 16 bd
       -0.002919238 -0.0646471 -0.009161378 -0.03685043
000070 77 34 c0 3c 61 b9 e6 b9 01 8b 66 3d 96 d5 da 3c
       0.023462517 -0.00044007137 0.05628491 0.026713174
000080 37 9a 54 bd 77 93 e6 bc 6c 9f dd bc b5 8b 67 3b
       -0.051904883 -0.028146489 -0.027053557 0.0035331075
000090 bd e1 53 bd 8d 79 8e bb 8c 9c 52 bd 40 85 52 bc
       -0.051728953 -0.004347986 -0.051418826 -0.012849152
0000a0 a1 16 1a 3d 5b 74 26 bc f2 b5 78 3c 89 f3 05 3d
       0.037619237 -0.010159577 0.015180098 0.032702956
0000b0 98 6e c4 3c 4c 8f 98 3c a8 56 ea ba 41 93 d3 3c
       0.023978516 0.018623017 -0.0017878609 0.025827052
0000c0 dd d3 81 bd 57 12 86 3c a0 28 3d bd 68 77 90 bc
       -0.06339238 0.016366167 -0.04618132 -0.017635062
0000d0 dc 8d 91 3c 32 e4 0b b9 c7 18 11 bd c9 fa dd bc
       0.01776784 -0.00013341082 -0.03542402 -0.027097123
0000e0 ac e9 77 bd e0 e9 ce 3c 5e d4 51 3d 74 b1 8e 3b
       -0.06052558 0.025258005 0.05122792 0.00435465
0000f0 8e ca 2d bc 34 be df bb 59 96 5e 3c 00 95 8b bd
       -0.010607375 -0.006828094 0.01358565 -0.06815529
000100 5b cf 06 bd 38 ba 20 bd 69 47 df bc 5f 88 76 bc
       -0.032912593 -0.039240092 -0.02725573 -0.015047162
000110 de 53 0d 3c 83 33 db 3c 69 cc 5f 3c 2f 19 14 3d
       0.0086259525 0.026757961 0.013659575 0.03615683
000120 1b 0e 09 bd 2f 73 5f 3d 00 f1 fe 3b 25 5f 3f 3d
       -0.033460718 0.054553207 0.0077801943 0.046721596
000130 bc 58 b5 bb 8d ee a4 3c d2 b1 00 3d 33 01 79 bd
       -0.0055342596 0.020133281 0.031419583 -0.06079216
000140 8f eb 1c bd c3 9f 99 3b d8 a3 ac 3c 4c 32 4c bd
       -0.038310584 0.0046882345 0.02107422 -0.049852654
000150 e3 b8 6e 3c 48 54 c8 3c 39 ed 34 bd 7a ec 7d bc
       0.014570448 0.024454251 -0.044171546 -0.015498275
000160 8e c2 2a bd d2 af c7 3c 64 71 ad 3c 0e 17 2d bd
       -0.041689448 0.02437583 0.021172233 -0.042258315
000170 27 b6 a8 bc 44 05 2b bd 7c de 88 3c 42 df c1 bc
       -0.02059467 -0.04175307 0.016707651 -0.023666028
000180 b8 b0 37 3d df b0 e6 3c 4b 02 2a bd 1d 52 ca bb
       0.044846267 0.02816051 -0.041506093 -0.0061743394
000190 03 77 2d 3d ff 17 15 3d 0e b9 07 3d 7d f3 6b bd
       0.042349827 0.036399838 0.033135466 -0.057605255
0001a0 de fe 54 bd ce 64 12 bc dd 4b 85 bc 1e 0c 7b 3d
       -0.052000873 -0.0089351665 -0.016271526 0.061290853
0001b0 a0 67 14 3d ae 83 a9 3c e5 79 07 bd c7 f8 d2 bc
       0.036231637 0.020692673 -0.033075232 -0.025753392
0001c0 5a 2d e6 bb 14 af 0e bd c5 78 2f bd f0 78 f0 bc
       -0.0070244493 -0.034834936 -0.042839784 -0.029354542
0001d0 e5 37 52 3c 4d 43 07 bd e5 ad f4 bc 28 da fd 3c
       0.012830709 -0.033023167 -0.029868076 0.030987814
0001e0 f3 86 ff bb 4d c3 f3 bc 79 14 3f bd 90 f6 3d bc
       -0.0077980696 -0.029756213 -0.046650384 -0.01159443
0001f0 70 14 b8 3c 97 1b 26 bd f6 2a 05 bb b8 31 3c 3c
       0.022470683 -0.040553655 -0.0020319796 0.011486463
000200 99 26 da 3c 05 af 5d bd 18 b9 53 bd 07 90 de bc
       0.026629733 -0.05412199 -0.05169019 -0.027168287
000210 d1 2d 03 bd 48 4a fb 3c 4c f2 4f bd 10 83 fc bc
       -0.032026116 0.030675068 -0.05076818 -0.030824214
000220 9c 1d ce 3c a8 86 0b 3d f8 71 7c 3c 5b 3a 56 bd
       0.025160603 0.034063965 0.015408032 -0.052301746
000230 f0 23 28 bc 8f 07 2e bc bf 9c 9d bc d3 34 51 3d
       -0.010262474 -0.010621919 -0.019239781 0.051075768
000240 a7 14 f1 bc 44 4b 70 3d 01 f1 fd 3b 3b 04 e9 3b
       -0.029428793 0.05866553 0.007749677 0.0071111
000250 80 38 77 3d 38 2f 1a bd b1 d5 17 3d a7 f9 ff 3c
       0.060356617 -0.037642688 0.037069026 0.031246973
000260 f1 e4 ba 3b f5 f7 17 bd da 8d df 3b 28 45 e5 3c
       0.0057035615 -0.037101705 0.00682233 0.027987078
000270 9f 91 24 bc 99 63 74 bd 59 89 49 3c b5 ff 05 bd
       -0.010044484 -0.059665296 0.012300813 -0.032714564
000280 e0 cb 0a 3d 2d 03 f0 3b 62 1c 0e bd 88 a2 32 3d
       0.033885837 0.0073245973 -0.034695037 0.043612033
000290 94 3c ee bb f9 09 4f bd 38 d4 04 bd 9d 34 c7 3c
       -0.007270405 -0.05054662 -0.03242895 0.02431708
0002a0 51 5c 32 bd a2 56 17 3d 4e 44 59 bc 65 d8 76 3c
       -0.04354507 0.036947854 -0.013260914 0.015066241
0002b0 06 22 14 bd 3a 22 10 bd c4 0d 1f bd e3 01 45 3d
       -0.03616526 -0.03518889 -0.038831487 0.048097502
0002c0 45 fd b0 bc 38 c8 61 bd 56 13 38 bc 4b 13 bb 3c
       -0.021605143 -0.055122584 -0.011235079 0.022836348
0002d0 b5 6c c8 bb 61 b8 f5 3a 5b 6c 58 bc 0b a0 99 bb
       -0.0061164745 0.0018746966 -0.013209428 -0.004688268
0002e0 88 fe 4b bb ae b1 42 bd 3c 71 12 bd f7 33 5f bc
       -0.0031127054 -0.04753273 -0.03575252 -0.013623229
0002f0 e9 b4 c2 3c 7a d5 c0 bb 3b c3 43 bd 6f d6 04 3d
       0.023767905 -0.0058848234 -0.04779361 0.032431062
000300 17 91 7d bd db 2d 12 bd 72 d1 3a 3d 0d a1 22 3d
       -0.061905947 -0.035688262 0.0456099 0.03970437
000310 67 0b 90 bd 9c 17 e7 3a e3 7a 91 bc bb 7d dd 3c
       -0.07033425 0.0017630938 -0.017758792 0.027037492
000320 72 89 1c bc 12 36 01 bd 9a 9a 85 3c af f9 38 bd
       -0.009554254 -0.031545706 0.016309071 -0.04515999
000330 d8 fe 84 3c 4e 9f 08 bd 87 b6 c7 3c 2a 4a 8a 3c
       0.0162348 -0.03335505 0.024379028 0.016881067
000340 67 31 81 3b 98 03 c5 bc 99 b7 97 3b 02 27 a3 bc
       0.003942657 -0.024049565 0.004630041 -0.019916061
000350 5f 6c 6b bd b7 ad 89 3d 83 5e 92 3c a8 96 c4 3c
       -0.057476398 0.067225866 0.017867332 0.02399762
000360 f4 e7 b6 3b b5 d5 50 3d 59 f5 ee bc 64 6d 0b 3d
       0.00558185 0.050985057 -0.029169725 0.03403987
000370 54 b2 ea bc ea 97 ad 3c 46 4e f0 bc 0e f7 e2 bc
       -0.028649487 0.021190602 -0.029334199 -0.027705695
000380 2e e7 dc bc 8a 74 90 3c cb 2b 38 bd c8 07 4c 3c
       -0.026965704 0.017633695 -0.04496364 0.012453027
000390 d5 9d 41 3d ff ba b9 bb 2c 2a f7 bc fd 74 5a 3c
       0.04726966 -0.0056680436 -0.030171476 0.013333556
0003a0 21 da 3d bc fc 40 c2 36 98 02 8b 3c cd a2 84 bd
       -0.0115876505 5.7892157e-06 0.01696901 -0.06476364
0003b0 1e 01 96 bc fb d9 7a bd 8f 88 fc 3c b1 66 d6 bb
       -0.01831108 -0.06124304 0.030826835 -0.0065430035
0003c0 33 bf 32 bd 42 bf 47 3d 27 67 ef 3c f0 da ad 3b
       -0.043639373 0.048766382 0.029223992 0.0053056404
0003d0 26 7b de 3c aa af bb 3c 71 b6 9f bd 59 39 67 3c
       0.027158331 0.022910912 -0.0779847 0.014112794
0003e0 e4 77 80 bc 4c 14 03 bd 1d 7b 67 bd 18 50 37 bc
       -0.015682168 -0.03200178 -0.056513894 -0.011188529
0003f0 b9 b5 10 3d 50 e8 88 3b ce 20 34 bd 0c 16 4a bc
       0.035329554 0.0041780844 -0.043976597 -0.012334358

conv3.bias f4 [64]
000000 c4 46 41 bc 21 6f 92 bd 01 bb 36 bd ba 13 0f bc
       -0.011796657 -0.071501024 -0.044611935 -0.0087327305
000010 8f 98 5a bd 6d f9 dd bc 41 0a 96 bb f0 cc 1a bd
       -0.053368147 -0.027096475 -0.004578859 -0.0377931
000020 19 1e 3d bd b8 2f ff 3c 28 55 74 3b 73 0a 2c bc
       -0.04617128 0.031150684 0.0037282202 -0.010500538
000030 0f ac f3 bc f8 9a fc bc 6d 4e 7f bd dc f3 87 bd
       -0.02974513 -0.030835614 -0.062330652 -0.06638309
000040 45 b5 02 3d c1 60 2f 3d 5a 78 94 b9 fe 57 8b bd
       0.031911153 0.04281688 -0.0002831843 -0.068038926
000050 cb 92 01 bd 77 30 40 bd ba 72 11 bd 9c d3 36 bc
       -0.031634133 -0.04692122 -0.035509802 -0.01115885
000060 da c0 44 3c 22 5d 91 bd 3b a5 b9 3c 67 14 36 bc
       0.01200887 -0.07097842 0.022661796 -0.011113263
000070 1f 36 07 bc 05 20 54 3b fa 68 ea bc 3d 8d 5f 3b
       -0.00825265 0.0032367718 -0.02861451 0.0034111284
000080 b1 34 db 3c 45 17 75 bd 68 de 53 bd c3 79 ed bc
       0.026758524 -0.059836645 -0.051725775 -0.028988725
000090 73 5c 25 bd a4 8f 01 3d cc dd 88 3c a7 5e be 3c
       -0.04037137 0.031631127 0.016707323 0.023238493
0000a0 33 f2 b2 bc 5a e7 5f bd ea 55 49 bd b4 4a 05 bd
       -0.021844005 -0.054663993 -0.0491542 -0.032541946
0000b0 dc 5a 6c 3b a2 0e 6b bd fa 09 c1 bb fe 46 38 bd
       0.0036064899 -0.057387 -0.005891082 -0.04498958
0000c0 4a 6c 95 bd 44 d7 8a bd 5c e1 68 3c 9b 93 84 bd
       -0.07296045 -0.0677934 0.014213886 -0.06473466
0000d0 48 c6 1b 3c 19 f0 95 bd 65 3b 12 3c 0c 30 14 bd
       0.009507723 -0.073211856 0.008925294 -0.036178634
0000e0 9b 33 82 3b ac cf a8 bc 69 9b 29 bd 40 73 96 bd
       0.003973437 -0.020606838 -0.041407976 -0.07346201
0000f0 1c 03 1a bd 70 dd 1e 3d 99 28 2c bd 96 e8 1a 3d
       -0.03760062 0.038785398 -0.042030904 0.037819467

normalization3.weight f4 [64]
000000 0c ed 83 3f 9b 0b 85 3f b2 9c 84 3f af 95 82 3f
       1.0306716 1.0394167 1.036032 1.020193
000010 b4 fe 84 3f cc 70 83 3f 2a 5c 84 3f 13 24 83 3f
       1.0390229 1.0268798 1.0340626 1.0245384
000020 2c 13 83 3f 0e c8 83 3f d4 41 81 3f dc bd 82 3f
       1.0240226 1.0295427 1.0098214 1.021419
000030 ef 7f 85 3f ec dc 84 3f 0a 80 82 3f dc 6d 82 3f
       1.0429667 1.037992 1.0195324 1.0189776
000040 65 09 81 3f 11 53 85 3f e7 ce 83 3f 98 00 83 3f
       1.0080992 1.0415975 1.0297517 1.0234556
000050 1b da 83 3f 89 63 88 3f 7e 2a 85 3f 92 d5 82 3f
       1.0300936 1.0655376 1.0403593 1.0221426
000060 4d 79 83 3f 43 20 83 3f 96 07 83 3f e7 9f 81 3f
       1.0271393 1.024422 1.023669 1.0126923
000070 f4 85 83 3f 1f 15 83 3f 3a fb 87 3f 08 6c 82 3f
       1.0275254 1.0240821 1.0623543 1.0189219
000080 36 6b 84 3f da 85 85 3f 9e 5a 81 3f c9 0c 84 3f
       1.0345218 1.0431473 1.0105779 1.0316402
000090 76 c1 84 3f bf e8 82 3f 08 4e 84 3f e9 61 83 3f
       1.037154 1.0227278 1.0336313 1.0264255
0000a0 ea 28 84 3f b2 5c 84 3f 8f f2 81 3f d3 15 87 3f
       1.0324986 1.0340788 1.0152148 1.0553535
0000b0 3b ad 84 3f 1c 44 84 3f 20 48 85 3f 87 76 83 3f
       1.0365366 1.0333285 1.0412636 1.0270547
0000c0 38 2c 83 3f ea c8 84 3f fe ae 83 3f 99 89 81 3f
       1.024787 1.0373814 1.0287778 1.0120116
0000d0 bd 08 83 3f 1e e1 83 3f 58 d4 82 3f ec b4 85 3f
       1.0237042 1.0303075 1.0221052 1.0445838
0000e0 d1 4b 84 3f 9b b7 83 3f 9a ae 82 3f cc 63 85 3f
       1.0335637 1.0290407 1.0209534 1.042108
0000f0 d0 7a 83 3f 28 69 82 3f 4e 51 83 3f f0 f8 85 3f
       1.0271854 1.0188341 1.0259187 1.0466595

normalization3.bias f4 [64]
000000 b0 70 23 bc 60 e4 0e bc 93 30 64 bc 7b fa 89 bb
       -0.009975597 -0.008721441 -0.013927597 -0.004210768
000010 f0 c2 ef 3b 62 c9 24 bc 0a b0 32 bc 51 00 25 bb
       0.0073169395 -0.010057779 -0.010906229 -0.002517719
000020 61 18 50 bb 16 c6 04 bc 40 1b 29 bc 02 7a af 3a
       -0.0031752812 -0.008103868 -0.010321438 0.0013387802
000030 3b e4 d4 b9 60 64 59 bc 35 e9 09 bc 81 93 92 bb
       -0.00040605836 -0.01326856 -0.008417417 -0.0044731502
000040 d7 78 23 39 dd 0d 31 bb 67 2f 6a bc 2e c3 64 bc
       0.00015589908 -0.002701632 -0.014293528 -0.01396255
000050 5b f1 31 bc 63 b0 d8 3b ed 30 df ba 21 ad d9 bb
       -0.010860766 0.006612824 -0.0017028131 -0.006642953
000060 05 16 7e bb 60 2d 5c bc d9 f4 32 bb 8b b1 95 bb
       -0.003877045 -0.013438553 -0.0027306585 -0.004568284
000070 4a a5 85 bc 2e a9 41 bb e3 1c 5d bc 45 54 6e bc
       -0.016314168 -0.0029550302 -0.013495657 -0.014546459
000080 f9 ed db 3b a5 2b a3 bc dd 9d cb 3b 7a 83 1c bc
       0.006711718 -0.019918272 0.006213887 -0.009552831
000090 1d 9f 6b 39 ba 97 b3 bb cf 74 2e bc 9b e8 32 bc
       0.00022470621 -0.0054807337 -0.0106479665 -0.010919715
0000a0 8c 3d f2 bb 59 2b b0 bb 5f 0f 53 bb 6c 8b aa bc
       -0.007392591 -0.005376261 -0.0032205207 -0.020818435
0000b0 81 45 00 bc 79 5d ba 3b 6c b8 3b bc 2b 54 f1 b9
       -0.007829071 0.0056874123 -0.011457544 -0.00046029812
0000c0 1c 08 48 bc 90 d5 90 3b e8 63 f8 bb 65 07 b8 bb
       -0.012208965 0.00441999 -0.007580269 -0.005616116
0000d0 5e 77 32 bc fc cb 8a bb bc c1 04 3b c0 c7 9a 3b
       -0.010892717 -0.0042357426 0.0020257076 0.004723519
0000e0 cb 5e 00 bb f9 ec 49 b9 48 ea 40 bc 71 3f 8d bc
       -0.001958775 -0.00019257133 -0.011774607 -0.017242165
0000f0 8d 32 46 bb 2f 38 5a bc 0f b3 42 bc cb 83 bc 3a
       -0.0030242533 -0.013319059 -0.011883511 0.0014382539

normalization3.running_mean f4 [64]
000000 f2 d8 50 3d c6 a6 2d 3d 2a c9 3d 3d f0 62 83 3d
       0.050988145 0.042395376 0.046334423 0.06415355
000010 3f d6 e5 3c da a8 9b 3d a4 3f 31 3d 02 40 03 3d
       0.028056262 0.07600565 0.043273583 0.032043464
000020 9e 62 c9 3c 5e 74 9d 3d b5 cb 67 3e 10 fc 55 3d
       0.024583157 0.07688211 0.22636302 0.05224234
000030 e4 8a 7f 3d 96 0e 11 3d fa 3f f2 3d 7b 4c b6 3d
       0.062388316 0.0354143 0.11828609 0.08901306
000040 47 89 95 3e 93 b4 06 3d ff 1b 05 3d 21 02 4b 3d
       0.29206297 0.032887053 0.032497402 0.049562577
000050 03 65 44 3d dc d5 be 3c 2a 94 d8 3c 24 26 96 3d
       0.047947895 0.023295335 0.026437838 0.073314935
000060 d7 6a a8 3d c1 6b 8f 3d fc 18 8b 3d 3d c2 28 3e
       0.08223503 0.07002974 0.06791875 0.16480346
000070 26 f8 8e 3d 68 d0 3c 3d 7e 9b cc 3c 2c 91 76 3d
       0.06980924 0.04609719 0.024976488 0.06019704
000080 59 0f c4 3c 3d 55 a6 3c 7a 4d 6b 3d 81 a1 1f 3d
       0.0239331 0.020304317 0.057446934 0.03897238
000090 81 15 af 3c 7b 20 9e 3d a9 cf af 3d 82 ef 66 3d
       0.021372559 0.07721039 0.0858453 0.056380756
0000a0 59 eb 08 3d 08 a9 a3 3c 4d 4f 5a 3d 33 c8 c4 3c
       0.03342757 0.019978061 0.053298283 0.024021244
0000b0 90 c3 c3 3c 69 6d 1c 3d 1a 72 db 3c 23 55 3b 3d
       0.023896962 0.03819028 0.026787806 0.04573549
0000c0 dd 98 ce 3d 97 a9 87 3c eb d8 4b 3d e0 37 77 3d
       0.1008775 0.016560359 0.049767416 0.06035602
0000d0 64 0d cb 3d 49 02 df 3c 0d 00 cb 3d 20 ba ab 3c
       0.099146634 0.02722277 0.09912119 0.020962775
0000e0 34 51 07 3d 86 1c d3 3c 93 62 87 3d 68 c1 19 3d
       0.033036426 0.025770437 0.066105984 0.037537962
0000f0 17 94 77 3d cc a1 94 3e 59 76 fc 3d 79 99 03 3d
       0.060443964 0.2902969 0.123272605 0.032128785

normalization3.running_var f4 [64]
000000 06 02 d1 3c a3 ef bc 3c 2c 50 a9 3c e5 41 f6 3c
       0.02551366 0.023063486 0.020668112 0.030060718
000010 fb e4 75 3c 9d 6e 19 3d 2b 97 99 3c 4e c6 73 3c
       0.0150082065 0.037459005 0.01874884 0.0148788225
000020 58 47 3a 3c c1 2c 28 3d 91 52 09 3e e0 0b b7 3c
       0.011369549 0.041058306 0.13410403 0.02234453
000030 69 7e ea 3c d5 e0 85 3c cc ad 4d 3d 96 63 1f 3d
       0.02862473 0.01634256 0.050214574 0.038913332
000040 f0 8f 37 3e b4 29 32 3c eb 10 85 3c 4f 71 ce 3c
       0.17926002 0.010874201 0.016243419 0.025200514
000050 25 2e b6 3c 05 5a 20 3c 62 6f 3b 3c ae dd 29 3d
       0.0222388 0.009787087 0.01144013 0.041471176
000060 94 c7 25 3d 79 8b fb 3c cd 67 ee 3c ad fe f4 3d
       0.040473536 0.030706154 0.02910223 0.11962638
000070 c9 71 15 3d b9 b7 b7 3c 22 c5 55 3c 12 d0 02 3d
       0.036485467 0.022426473 0.013047488 0.031936713
000080 20 bb 29 3c 98 ee 1d 3c 67 ef f7 3c 2d 61 98 3c
       0.0103595555 0.009639405 0.030265523 0.018601025
000090 34 02 06 3c f6 eb f7 3c 00 8a 31 3d 79 7f e5 3c
       0.008179236 0.030263882 0.043344498 0.028014885
0000a0 50 d6 55 3c 45 ff 21 3c 0d 78 c7 3c 4a 55 3f 3c
       0.013051584 0.009887521 0.024349237 0.011678049
0000b0 2f 42 15 3c d9 8c 92 3c 9f 5a 5f 3c 38 a2 ae 3c
       0.009110018 0.017889427 0.013632446 0.021317586
0000c0 31 50 3f 3d cf a8 ef 3b 15 21 db 3c 18 3f f3 3c
       0.046707336 0.0073138247 0.026749173 0.029693171
0000d0 21 37 41 3d 19 f1 48 3c a0 2a 27 3d 73 bb f5 3b
       0.047171716 0.012264513 0.040812135 0.0074991523
0000e0 70 b5 70 3c 81 94 38 3c 18 c7 05 3d 69 97 95 3c
       0.014691696 0.011265875 0.032660574 0.018260675
0000f0 42 1f 07 3d 9e cc 17 3e 41 0f 67 3d a4 1e 48 3c
       0.032988794 0.14824149 0.05641103 0.012214337

dense.weight f4 [2, 16384]
000000 01 14 0a 3c 31 c3 ba bb 48 9f 1f 3a c0 be 12 bc
       0.008427621 -0.005699538 0.00060891034 -0.008956611
000010 4e 73 49 3c 2c f8 28 3c 29 71 36 3c 4d 11 cc 3b
       0.012295557 0.010313075 0.011135378 0.0062276484
000020 d7 8e 95 3c f1 a3 5c 3c 99 2d 8a 3b af 32 89 3c
       0.018256588 0.013466821 0.0042168614 0.0167478
000030 1d 16 30 3c 98 3c a8 3c 74 a5 4f 3c fd 41 34 3c
       0.01074746 0.020536706 0.012673724 0.011002061
000040 11 b5 9c bc 11 2c 85 bb 49 c5 59 3c b9 f4 fb bb
       -0.019129308 -0.004064091 0.013291665 -0.0076890853
000050 25 17 26 bd 45 89 87 bc b3 7b aa bb 71 f8 36 bc
       -0.040549416 -0.016544947 -0.0052027344 -0.0111676315
000060 99 d6 a4 3c 35 d4 e2 b8 a7 c2 f3 bb 44 26 3e bc
       0.02012186 -0.000108160464 -0.007438976 -0.011605803
000070 29 40 87 3b ab c9 8a 3c 14 67 ad 3c da 94 fe 3b
       0.0041275215 0.016941866 0.021167316 0.0077692093
000080 5c d0 86 bc 49 fc a0 bc 64 dc d2 bc 4d 52 0b 3b
       -0.016456775 -0.019651549 -0.025739856 0.0021258772
000090 35 bf f9 bb 99 65 9e bc a1 28 ba bc b1 ae 4b 3b
       -0.0076216706 -0.019335555 -0.022724451 0.0031079466
0000a0 c6 0c 31 bd d3 77 45 b9 2e 5c e5 3a 4d 61 15 3c
       -0.043225072 -0.00018832022 0.0017498785 0.009117437
0000b0 82 e8 d5 3c af 51 86 3c ed b5 d4 bb 74 d6 f8 bb
       0.026111845 0.016396372 -0.006491414 -0.007593924
0000c0 5f bd 6d 3b bb 0c ae bc f4 e9 a3 bc d4 c9 0b bc
       0.0036276204 -0.021246305 -0.020009018 -0.008532006
0000d0 75 c2 54 bc 71 35 36 bd f3 79 0a 3c 7d 91 41 bb
       -0.012985815 -0.04448456 0.0084519265 -0.002953618
0000e0 f4 07 08 3c b2 11 a4 bb fa 5d 30 3c 58 68 b0 3b
       0.008302677 -0.0050069923 0.010764593 0.0053835325
0000f0 35 12 9a 3c ed aa 90 bb c3 48 a9 3c 83 a4 7e 3b
       0.01880751 -0.004414907 0.020664578 0.003885538
000100 ec 88 1e 3c 9e f7 e1 bb 78 e1 d5 3b a4 62 b2 bb
       0.009676199 -0.0068959733 0.006527122 -0.005443888
000110 0b cd 7c bb f7 f1 4c bc 95 2e 30 3b e4 bd 85 bc
       -0.0038574364 -0.012508861 0.0026883234 -0.016325898
000120 b7 51 a5 bc 0e 4c 37 bc 06 c7 eb 3a 9f 4c e9 3b
       -0.020180566 -0.011187566 0.0017988391 0.0071197296
000130 49 72 57 ba 44 05 c0 3c ca c9 5e 3b 68 c9 06 bc
       -0.0008218629 0.02344001 0.0033994787 -0.00822673
000140 dc 68 92 3c cf f5 d5 bc b5 21 4a bc 3f 5e 11 3c
       0.017872266 -0.026118187 -0.012337138 0.008872568
000150 ef eb 9e 3c 9d d4 7c bc e6 c9 ee bc 82 8a c6 3c
       0.019399611 -0.01543155 -0.029149007 0.024235968
000160 a5 14 be bc 37 80 3e bc 37 a3 3a 3c 1b 08 81 bb
       -0.023203203 -0.0116272485 0.0113914525 -0.003937734
000170 f4 62 65 bb 92 ce 9d bc ee 31 d4 3b e1 c1 2c bb
       -0.0035001608 -0.01926354 0.0064756786 -0.0026360678
000180 ee 64 66 bc e0 f9 f1 3a 06 58 bc bc 9e 6f ad 3b
       -0.014062149 0.0018461309 -0.022991192 0.005292847
000190 f6 bb 00 bd 80 60 d3 3b 03 0e be bb ad 7e ac bc
       -0.031429254 0.0064507127 -0.00580001 -0.021056497
0001a0 c4 9f 95 bc a3 70 83 3b 37 94 bc 3b 0f a5 7f bc
       -0.018264659 0.00401123 0.0057549733 -0.015603318
0001b0 cf 31 d1 3b 21 9c aa 3b 2d d9 e6 bb 3d 6d 15 bc
       0.0063841115 0.0052066003 -0.0070449323 -0.009120283
0001c0 9f c6 2b 3c 60 ba 70 3c 1c 6f a6 bb ed f5 a4 bc
       0.010484367 0.014692873 -0.0050791632 -0.020136798
0001d0 27 6e af bb c8 73 cf bc e3 b9 bd bc f2 ad cf 3b
       -0.0053537074 -0.025323763 -0.023159927 0.0063378746
0001e0 de 7e 9b ba 0b 3c 03 bb 91 e0 db 3b bc 49 02 3d
       -0.0011863371 -0.0020024802 0.00671012 0.0318086
0001f0 53 9c 39 3c ce a1 a6 3b 0f 38 f2 bb c1 b1 a2 3b
       0.0113287745 0.0050852066 -0.0073919366 0.0049650376
000200 87 0f ca 3c 14 90 a5 3b 15 bc 06 bc fd 8a 0d bc
       0.024665607 0.005052576 -0.008223553 -0.008639094
000210 09 6a 0a bc 00 53 c1 bb fb fe 66 bc 50 61 e3 bc
       -0.008448132 -0.005899787 -0.014098878 -0.027756363
000220 6b 57 8d bc bf 05 8c bc 1d 52 a8 bc 0c fc d9 3c
       -0.017253598 -0.017092584 -0.020546967 0.026609443
000230 5a 1e 5b bc 4b 9d cc 3b f3 79 92 ba 7a 76 8f b9
       -0.013373936 0.0062443367 -0.001117526 -0.00027363357
000240 6b 2e 93 3a e3 45 d6 3c 3c 02 82 bb 44 84 42 3c
       0.0011229044 0.026156371 -0.0039675515 0.011872355
000250 06 ef bb bc 87 4c 59 3b 13 fb 71 bc f3 3f ad bc
       -0.022941124 0.0033157186 -0.014769333 -0.021148657
000260 ab cb bb bc 40 f9 91 bc b5 e1 b4 bb 0b 61 74 3b
       -0.022924265 -0.017819047 -0.0055200704 0.0037289287
000270 53 cc 1b bc ab e8 87 3c 23 62 94 bc b3 df 53 3c
       -0.009509164 0.016590437 -0.018113201 0.012931752
000280 5a 84 8f bb de 3f 80 bc 9b 65 44 bc 6c 0f 15 3b
       -0.004379791 -0.015655454 -0.011987115 0.0022744788
000290 54 88 c8 bc e4 0f bf bb 6e 9a 63 3c 5a f5 2a 3c
       -0.024479069 -0.0058307517 0.013891799 0.010434473
0002a0 13 91 9e bb 41 3c f8 bb 2a 2a 9f 3c 0f ca a4 3c
       -0.0048390715 -0.007575542 0.019429285 0.02011588
0002b0 8a a0 80 3c 11 de de 3b bb 37 a7 b9 ba 68 aa 3c
       0.015701551 0.0068013747 -0.00031894245 0.02080189
0002c0 33 05 21 3c 0d a9 34 bc 0a dd 5f bc 05 0e 16 bc
       0.0098279 -0.011026633 -0.01366354 -0.009158616
0002d0 0c 47 ef ba 25 38 41 bc 98 20 48 3d 70 e9 dd 3a
       -0.0018255427 -0.011793171 0.04885921 0.0016930532
0002e0 52 9f aa 3c c3 f3 70 bb 58 29 5d 3c b7 31 62 bc
       0.020827923 -0.0036766387 0.013498627 -0.013805798
0002f0 1f 6e a4 3c 13 fe 1d bc dd 1d 69 39 5d 5c ea 3c
       0.020072041 -0.009643096 0.00022231737 0.028608495
000300 d8 10 02 bd 82 11 57 bc e8 cd 7a bc c5 34 19 3c
       -0.031754345 -0.013126733 -0.015307881 0.00935096
000310 b1 6e ae bc b0 8b 92 ba 9e 08 3d bc 59 c5 2f 3c
       -0.021293016 -0.0011180546 -0.011537699 0.010728204
000320 6e cc 52 bb 6b 70 5e ba 54 11 50 3c b5 d1 da 3a
       -0.0032165307 -0.00084853795 0.012699444 0.0016694578
000330 ac 6c de 3c 81 b3 af bc 0e 38 5c 39 31 91 05 3b
       0.027151428 -0.021447899 0.00021001717 0.002038073
000340 61 c8 ab 3c 63 6f 8b 3b 08 f8 7e 3c f8 6b 5f ba
       0.020969572 0.0042552217 0.015562065 -0.00085228635
000350 39 08 19 3b 80 c5 31 3c 2e ff c2 ba 30 36 8f 3c
       0.0023350848 0.01085031 -0.0014877075 0.017481893
000360 83 8a 80 3b 0d 37 40 3c 97 31 ec ba 9a 54 6f ba
       0.003922762 0.011731875 -0.001802015 -0.0009129733
000370 12 c1 78 ba 06 22 59 3c 42 01 39 bc 01 36 a3 bc
       -0.0009489219 0.013252741 -0.011291804 -0.019923212
000380 b6 06 2f 3b 09 be 30 3c dd 4b 69 3b 1e 7f eb 3b
       0.002670688 0.010787495 0.0035598197 0.0071867844
000390 dc 3f 9c bc ba ef 1c bc db db 5d 3c 9a 7c 8a bc
       -0.01907342 -0.00957864 0.013541187 -0.016905118
0003a0 bd 03 d5 b9 fd 27 a7 3c 10 03 e5 bb 34 e7 ac bc
       -0.0004062931 0.02040481 -0.0069888905 -0.02110634
0003b0 a3 0d 5a 3a b7 ea 7f 3b 16 90 02 3c f7 f8 b5 3c
       0.0008318072 0.0039049813 0.007968923 0.022213442
0003c0 70 ad ec 3a e5 6b b4 ba 4d d0 3f bc 9f 9b 3a ba
       0.001805706 -0.0013765065 -0.011707378 -0.0007118526
0003d0 5b 86 3f 3b 6d e1 a0 bc ac 04 b6 bc 9a 0b 5c bb
       0.002922437 -0.019638741 -0.022219025 -0.003357625
0003e0 14 b9 c5 bb ff 2c d4 bc db 63 05 3c f8 7a 2a 3c
       -0.006034026 -0.025900362 0.008141483 0.010405295
0003f0 83 d1 0c bc d8 62 41 3c 35 8a dc 3b e0 4e dc b9
       -0.008594873 0.011803351 0.0067303427 -0.00042020436

dense.bias f4 [2]
000000 e7 39 97 3b 17 2d 46 bc
       0.004615057 -0.012095711

stack.0.weight f4 [16, 1, 3, 3]
000000 de 49 2f bc 23 98 a1 3d a9 6f 7d 3d e8 61 0f be
       -0.010698764 0.07890346 0.061874066 -0.14002192
000010 57 d5 13 3c 21 23 e7 3d c2 a8 13 3e 1a 91 8b be
       0.009023032 0.11285997 0.14419845 -0.2725914
000020 e4 40 eb bd b7 67 4f 3e 91 23 57 3d c4 92 70 3e
       -0.11486986 0.20254408 0.052524153 0.23493487
000030 14 25 02 be ad ac aa be 04 eb 10 be 18 6d 13 bd
       -0.12709457 -0.33334866 -0.14152151 -0.03599271
000040 bd 7a 8d bd 0d 37 7e 3e 89 3c 31 be 3c fe 47 3e
       -0.06908176 0.24825688 -0.17308249 0.19530576
000050 ab ab 27 3e 1c 61 08 3e 38 50 94 be 6f 7f 24 be
       0.1637408 0.13318294 -0.28967452 -0.16064237
000060 ba ed 2f bd d0 9f b6 bd bc 53 35 3e 71 5c 8c 3e
       -0.042951323 -0.089172006 0.17707723 0.27414277
000070 2a 5b 13 bd 0f b9 3e be d2 f6 7d 3e 72 9e 8c be
       -0.035975613 -0.18625282 0.24801186 -0.27464634
000080 33 74 9f 3e 40 ab ff bd 4f d9 fa 3c 0f 66 81 be
       0.3114334 -0.12483835 0.030621199 -0.25273177
000090 7d 63 bf 3d 46 d7 9e be a5 ec 3a bd fc b9 3e 3d
       0.09345148 -0.31023616 -0.045635838 0.046564087
0000a0 8f 86 ab be 90 2e 75 be 9e 12 ac 3e 59 37 b2 3e
       -0.33501098 -0.23943543 0.33607954 0.34807852
0000b0 f5 46 9b 3d 70 26 95 bd b6 56 85 3e ac d0 5c be
       0.07581893 -0.07282722 0.26042718 -0.21563977
0000c0 0d fa 90 be e7 29 80 3d ae fb 4a 3c 80 09 3d be
       -0.28315774 0.06257992 0.012389107 -0.18460655
0000d0 ef f1 25 be 5e 15 f6 3d 68 b0 3c 3c 1c 26 3e be
       -0.16205572 0.12015794 0.011516668 -0.18569225
0000e0 85 12 77 3e 96 0b b7 bd 07 94 53 be ea 50 7b 3e
       0.24128158 -0.08937757 -0.20661937 0.24542585
0000f0 cb ac 79 be 96 0d 3d bc c4 5c 95 3e 50 69 90 bd
       -0.24382322 -0.011538884 0.29172337 -0.07051337
000100 ad 7e 19 be bb 92 5d be bd 4d 1c be 0b 9d 0b bd
       -0.14989729 -0.21638004 -0.1526403 -0.034085315
000110 ac 2d 47 3e 3c 02 97 be 8f a4 79 bd 78 c6 0e 3e
       0.19451016 -0.29493892 -0.06094795 0.13942897
000120 1b 78 57 3d 2d 80 69 3e 1b 87 ed bd fb cf 1e bd
       0.052604776 0.22802801 -0.11598035 -0.038772564
000130 34 41 b3 be 36 bf 2f be 9b c2 b8 3e de 47 d2 bd
       -0.35010684 -0.17162785 0.36085972 -0.10267614
000140 a6 ce 0c bd ca e2 95 be bb 5e a2 bd 19 b9 56 be
       -0.034376763 -0.2927459 -0.07928225 -0.20969047
000150 6d 0a 17 be 89 9e 37 3d f7 05 92 3e d7 7b 3a 3e
       -0.14750071 0.044828925 0.28520176 0.18211304
000160 8c fa 86 3e 96 0b 1a 3e cd 6f 9b be 1b d3 6e 3e
       0.26363027 0.15043482 -0.30358735 0.23322718
000170 4e 27 b0 be d9 d9 a9 bd b7 b3 8a bd 0b e7 6b be
       -0.34404987 -0.08293504 -0.06772559 -0.23037355
000180 85 2f ca bd 5f 61 41 3d 6e 4e ac be df e2 01 3d
       -0.09872345 0.047212 -0.33653587 0.0317105
000190 57 24 e8 3c 25 8f 1e 3e dd e7 82 3e 53 f8 7b bc
       0.02833764 0.15484293 0.25567523 -0.015379029
0001a0 bd 61 88 bd 64 d2 b5 3e 8d 9a 07 be aa 8a a9 be
       -0.06659267 0.35512078 -0.1324255 -0.33113605
0001b0 60 96 a1 be 29 3d 71 3e 99 96 26 be 00 33 61 be
       -0.3156004 0.23558487 -0.16268386 -0.21992111
0001c0 99 b3 4c 3e a3 ba 45 3d 89 34 e1 bd fb ed af 3e
       0.19990386 0.048273694 -0.109963484 0.34361252
0001d0 15 67 23 bc 30 43 67 3e de c9 92 3e d0 b2 21 be
       -0.009973307 0.22584224 0.28669637 -0.15790868
0001e0 77 45 cf bd c5 7f 8d bd 37 c7 91 3e 50 6c 09 3d
       -0.10120671 -0.06909136 0.284723 0.03355056
0001f0 d5 b5 64 3e 34 7d 0c 3e 36 e7 9b be c0 15 ba 3c
       0.22334988 0.13719636 -0.30449837 0.02271545
000200 e0 44 66 bd 21 5c 81 3e f8 9b 3f be 74 0a 83 3d
       -0.056218028 0.252656 -0.18711841 0.06398478
000210 96 ee c4 bd 7e a2 a4 be 3e b3 1a 3e 44 70 85 be
       -0.09615819 -0.32155222 0.15107438 -0.26062214
000220 2d fd 82 be 19 7b 1e be 4f 94 7a be a6 4a 50 be
       -0.25583783 -0.15476646 -0.24470638 -0.20340976
000230 cf 67 ce 3d a2 29 bb 3e 79 80 94 3e 1a 7a 89 3e
       0.10078394 0.365552 0.29004267 0.2685097

stack.0.bias f4 [16]
000000 ed f9 93 3e 89 b9 31 3e 70 e7 86 3e 21 19 91 be
       0.28901616 0.17355932 0.26348448 -0.28339484
000010 bc cb 6a ba 86 97 b7 3d 76 e0 88 be 88 a6 43 3e
       -0.00089567504 0.08964448 -0.2673375 0.19106495
000020 97 50 f3 3c 99 d9 a8 3e da 3c 8b 3e 41 da 25 be
       0.029701514 0.32978514 0.27194864 -0.16196539
000030 2d 18 2a bc 5b 6b 17 bc 1b bb 70 be e2 6e a6 3d
       -0.0103817405 -0.009241904 -0.23508875 0.08126618

stack.2.weight f4 [16]
000000 e8 1e 7b 3f 32 a1 84 3f 81 02 7c 3f 18 0c 7f 3f
       0.98094034 1.0361693 0.9844132 0.9962783
000010 e1 2d 86 3f 61 90 7c 3f 28 c3 78 3f 1e 39 7e 3f
       1.0482751 0.98657805 0.97172785 0.99305904
000020 48 40 7f 3f ff f7 7e 3f 5e 75 7b 3f 22 0f 81 3f
       0.9970746 0.9959716 0.98225963 1.0082743
000030 d4 62 81 3f 16 aa 78 3f 00 00 80 3f 8d a7 83 3f
       1.0108285 0.9713453 1.0 1.0285507

stack.2.bias f4 [16]
000000 19 c0 66 bc 3d 0d 71 3c 61 ee ac 3b 2d 22 26 3c
       -0.014083886 0.014712629 0.0052774404 0.010139984
000010 3a 6d 4f 3b 0a 73 77 3b b8 2e 6e 3b 0c c0 9e 3a
       0.0031650797 0.0037757778 0.0036343765 0.0012111678
000020 a0 5a e7 3b 2a 25 0f 3c 95 5c ae 3a ce c2 98 3a
       0.007060364 0.008736888 0.0013302738 0.0011654736
000030 f6 4e 3a bc 2c b2 4c 3c e5 51 53 3c 9c 68 f9 3b
       -0.011371365 0.012493651 0.012897943 0.0076113474

stack.2.running_mean f4 [16]
000000 4f fa 68 3e bd 7e 3d 3e 55 e7 62 3e bd 5c 0d 38
       0.22751735 0.18505378 0.22158559 3.370339e-05
000010 7f 92 59 3c 2f 1e 05 3c dc 64 87 39 fb 3a dd 3c
       0.013279556 0.008124872 0.00025824353 0.027005663
000020 47 db c2 3b 97 74 d8 3e 7a 51 d7 3c d4 66 b7 3c
       0.00594655 0.4227645 0.026283968 0.0223879
000030 38 19 49 3c c9 98 c8 3e 00 00 00 00 e0 31 51 3d
       0.012274079 0.39179066 0.0 0.051072955

stack.2.running_var f4 [16]
000000 33 00 e3 3a 6a e0 a4 3a b2 2b 8e 3a a4 f6 b4 35
       0.0017318785 0.0012579088 0.0010846762 1.3482827e-06
000010 3f f3 ac 3a a0 6f e8 39 65 fb d5 37 74 16 21 3b
       0.0013195052 0.00044333655 2.5508643e-05 0.0024580033
000020 8e 63 aa 39 af 0f f8 3b 20 70 65 3b e9 dc d8 3a
       0.000324991 0.007570229 0.0035009459 0.0016545329
000030 5a bc cb 3a 8b 76 44 3d 04 00 00 00 95 1b 87 3b
       0.0015543804 0.047964614 6e-45 0.004123161
