grj/MINIST/MINIST_full_binary.pth (torch, 409768 bytes, 8 tensors)

BinaryLinearLayer1.weight f4 [128, 784]
0.025334954 -0.029278565 -0.016578658 0.0026629493 -0.029206077 -0.012183057 0.029393796 -0.027625903
0.014202915 -0.0233044 -0.031034859 0.017105155 -0.005733375 0.03221427 -0.021385845 -0.008469433
0.0036393814 0.011032119 -0.031827852 0.021278195 -0.003566794 -0.01719935 -0.03171648 0.0070348345
0.0054001138 -0.028859012 -0.015731651 0.002867438 0.029964041 0.016278945 0.0060893744 -0.021228727
-0.022550706 -0.007850617 0.039532892 0.01721083 0.057911433 -0.006447439 0.03624377 -0.0099543575
0.054394968 0.03507595 0.039121687 0.020388609 -0.015724842 0.058403257 0.030158658 -0.008088192
0.061016712 -0.003109494 0.0077206623 0.02888872 -0.007377336 -0.02118894 -0.002266042 0.0104615465
0.024779353 0.0072002336 -0.015239426 9.1410046e-05 0.012359759 0.015347813 0.016469765 0.024665274
0.02137469 -0.003550179 -0.0013181235 -0.029007746 -0.049553752 -0.1170232 0.0071273497 0.052844394
0.07259769 0.12714928 0.13917741 0.12428495 0.08812852 0.08708268 0.07671227 0.0056715887
-0.0018672262 0.02400197 -0.0118881725 -0.017069452 0.03197999 -0.034582783 -0.010128582 0.012325837
0.05014119 -0.03366941 0.033875085 -0.05020646 -0.048935484 -0.06835453 -0.102358446 -0.15087861
-0.324381 -0.3216926 -0.114083946 -0.068624 0.00041337684 0.04590086 0.3084368 0.4579894
0.33458787 0.35528535 0.20634717 0.05569678 0.0107826125 0.022658708 -0.0062749423 0.017201826
-0.03360571 0.034614388 -0.01307167 -0.011653802 -0.023734301 -0.0676072 -0.070260905 -0.114152946
-0.1970809 -0.2381405 -0.2299513 -0.13625808 -0.3418843 -0.2923915 -0.10461589 -0.2750306
-0.22328125 0.009887951 0.12940647 0.20695211 0.2890153 0.3671008 0.18968877 0.19277734
0.10596893 0.0723619 0.011504187 0.0037926733 0.02787495 -0.010087227 0.02444152 -0.00562355
-0.07187531 -0.1375821 -0.12718475 -0.10423332 -0.041578025 0.098255426 0.1836929 0.22458024
-0.025921332 -0.12011891 0.021668937 0.074211 0.10152923 -0.050709724 0.036403436 -0.1487236
-0.04066852 -0.03150828 0.10146873 0.28064552 0.12720339 0.04206907 0.03144532 -0.004288281
0.009034596 0.027405187 -0.032848194 -0.0480319 -0.113464735 -0.14253771 -0.22452182 -0.14935768
-0.061802715 -0.09502138 0.101120666 0.09281925 0.00903906 -0.04989948 0.20807645 0.38078055
0.38081208 0.5528877 0.44772157 0.46299478 0.35322246 0.074483335 0.12243368 0.20899795
0.16801818 0.11849184 -0.012692995 -0.007485391 -0.019491568 0.005957656 -0.031910002 -0.08996444
-0.16945124 -0.14889406 -0.17842142 -0.07036968 -0.050795566 -0.035170577 0.13224229 0.149817
0.1327522 0.24844769 0.41512328 0.3540625 0.42995855 0.69017255 0.6358647 0.6011694
0.7291413 0.39366454 0.07352756 0.18091138 0.025536137 0.11197709 0.0022123707 0.030981198
0.006983395 0.003074313 -0.024039138 -0.023345282 -0.13080026 -0.15441255 -0.08739227 0.067362875
-0.052844096 -0.18176101 -0.12564015 0.24398579 0.2971018 0.24636802 0.059518684 0.11199624
0.15419677 0.14636198 -0.025632882 0.2975346 0.22079204 0.030074367 -0.118755415 -0.1533582
-0.112845324 0.050894476 0.01931377 -0.002895981 0.01083425 -0.027785901 -0.0005073932 -0.053944908
00000000: 408b cf3c 9ad9 efbc f7cf 87bc e084 2e3b
00000010: 9541 efbc 729b 47bc 42cb f03c b84f e2bc
00000020: 58b3 683c dee8 bebc d13c febc 1c20 8c3c
00000030: 09df bbbb 1cf3 033d 5e31 afbc 60c3 0abc
00000040: b082 6e3b 10c0 343c ec5d 02bd 9c4f ae3c
00000050: e0c0 69bb a7e5 8cbc 24e9 01bd 7884 e63b
00000060: 70f3 b03b bc69 ecbc aadf 80bc a0eb 3b3b
00000070: 2677 f53c 6c5b 853c 6089 c73b dee7 adbc
00000080: 42bc b8bc e09f 00bc 3eed 213d bafd 8c3c
00000090: 8a34 6d3d 0a45 d3bb 5974 143d 9a17 23bc
000000a0: 42cd 5e3d cdab 0f3d 103e 203d 0306 a73c
000000b0: 62d1 80bc 4138 6f3d 4a0f f73c 5684 04bc
000000c0: a9ec 793d a7c8 4bbb 9cfd fc3b 09a8 ec3c
000000d0: 94bd f1bb 6e94 adbc e081 14bb e866 2b3c
000000e0: 12fe ca3c f0ef eb3b c9ae 79bc 65b3 bf38
000000f0: 9680 4a3c 6575 7b3c 9aeb 863c d40e ca3c
00000100: f919 af3c 1faa 68bb e3c4 acba a7a1 edbc
00000110: e0f8 4abd dca9 efbd 8b8c e93b 5d73 583d
00000120: 19ae 943d 6c33 023e 8684 0e3e 1c89 fe3d
00000130: ba7c b43d 6758 b23d 531b 9d3d bcd8 b93b
00000140: b7bd f4ba c89f c43c 9cc6 42bc 3cd5 8bbc
00000150: 73fd 023d ada6 0dbd 5af2 25bc 4ff2 493c
00000160: d960 4d3d efe8 09bd 9ac0 0a3d 4aa5 4dbd
00000170: 9370 48bd 76fd 8bbd 4ea1 d1bd ec7f 1abe
00000180: 4415 a6be e4b4 a4be d8a4 e9bd bd8a 8cbd
00000190: 80ba d839 8a02 3c3d 6eeb 9d3e 967d ea3e
000001a0: 1a4f ab3e f6e7 b53e ac4c 533e 4f22 643d
000001b0: 8ea9 303c c19e b93c 089e cdbb d8ea 8c3c
000001c0: 24a6 09bd d1c7 0d3d 8f2a 56bc 97ef 3ebc
000001d0: 706e c2bc a575 8abd f3e4 8fbd 05c9 e9bd
000001e0: 93cf 49be 1adb 73be 5b78 6bbe 3d87 0bbe
000001f0: 750b afbe 57b4 95be db40 d6bd d0d0 8cbe
00000200: d7a3 64be 1301 223c 2183 043e 41eb 533e
00000210: d0f9 933e a3f4 bb3e c63d 423e 6c67 453e
00000220: 3d06 d93d 7a32 943d 0f7c 3c3c 808e 783b
00000230: 025a e43c e644 25bc 9539 c83c c245 b8bb
00000240: 5d33 93bd 52e2 0cbe b83c 02be 4778 d5bd
00000250: b84d 2abd 243a c93d fe19 3c3e 5df8 653e
00000260: f958 d4bc e700 f6bd 0e83 b13c f0fb 973d
00000270: 8fee cf3d 00b5 4fbd c51b 153d 004b 18be
00000280: 0994 26bd d40e 01bd d6ce cf3d c5b0 8f3e
00000290: 9b41 023e 9e50 2c3d cfcc 003d b584 8cbb
000002a0: d805 143c d880 e03c d48b 06bd 19bd 44bd
000002b0: 3360 e8bd 68f5 11be 0ce9 65be 38f1 18be
000002c0: d824 7dbd 929a c2bd 5a18 cf3d 0518 be3d
000002d0: 9118 143c 6663 4cbd fe11 553e abf5 c23e
000002e0: cdf9 c23e 0c8a 0d3f c33b e53e a70d ed3e
000002f0: 93d9 b43e b88a 983d 82be fa3d 8f03 563e
00000300: f50c 2c3e daab f23d 48f6 4fbc 0348 f5bb
00000310: c8ac 9fbc 7138 c33b 10b4 02bd 473f b8bd
00000320: a084 2dbe af77 18be 1bb4 36be fb1d 90bd
00000330: 030f 50bd 060f 10bd 866a 073e a169 193e
00000340: 31f0 073e 1269 7e3e 0a8b d43e ae47 b53e
00000350: 8723 dc3e 26af 303f 07c8 223f 3de6 193f
00000360: 01a9 3a3f 668e c93e 9e95 963d d540 393e
00000370: 2931 d13c 3f54 e53d 6cfd 103b 48cc fd3c
00000380: f7d4 e43b 6a7a 493b baed c4bc 9b3e bfbc
00000390: 81f0 05be 531e 1ebe b8fa b2bd 8cf5 893d
000003a0: 0d73 58bd 8f1f 3abe d0a7 00be 69d7 793e
000003b0: ba1d 983e e647 7c3e ddc9 733d 495e e53d
000003c0: c2e5 1d3e eadf 153e 0dfc d1bc 7556 983e
000003d0: 4f17 623e 855e f63c 0a36 f3bd ef09 1dbe
000003e0: 731b e7bd ba76 503d e937 9e3c 80ca 3dbb
000003f0: 2382 313c 429f e3bc 9502 05ba 56f5 5cbd

BinaryLinearLayer1.bias f4 [128]
-0.04953289 0.38208273 0.13703726 -0.33557165 0.082855254 -0.23507814 0.20799182 -0.3792755
-0.3698037 -0.16110896 -0.6693109 -0.21911848 -0.08899147 0.34119785 0.034489524 0.23444071
0.19313616 -0.4311254 -0.23815298 -0.5195767 -0.24340342 -0.40549284 -0.33774534 0.00502014
-0.65155965 -0.302228 0.048896533 0.019312251 -0.34277388 0.17295563 -0.18507275 -0.3866294
-0.39103556 -0.030607656 -0.20057483 0.20503649 -0.45088047 -0.19634877 -0.16386151 -0.5153574
-0.17718804 0.24333745 -0.1762407 -0.19923222 -0.094070844 -0.21444316 -0.52186745 0.069248654
-0.5568572 -0.059977427 0.18933715 0.15959929 0.4255192 -0.035823893 0.54536474 -0.2855592
-0.17916906 -0.10677839 -0.10273286 0.0155083975 -0.1983312 -0.61720407 0.111895755 -0.15942384
-0.18930335 -0.012998306 -0.62852263 -0.253339 -0.042205293 0.12909077 -0.045385525 -0.4348159
-0.18300037 0.46183756 -0.43858302 0.32946223 -0.45038626 -0.23764916 -0.20104408 -0.25458243
-0.089389056 0.11538045 -0.3647212 0.21074478 0.3869574 0.07989327 0.14008738 0.34717506
-0.15028545 0.10859655 -0.26886308 -0.5319189 -0.5645623 -0.59813225 -0.08529604 0.045254976
-0.23395315 0.4054967 -0.2608805 -0.056647796 -0.2589917 0.21687463 0.60896504 -0.7576408
-0.39272127 -0.5081308 -0.06799546 -0.47745708 0.2322254 0.016464496 0.20035222 -0.15055911
0.07537196 -0.07826089 0.12805851 -0.09555 -0.42906868 -0.59247756 0.36844268 -0.35468575
0.4608695 0.038055327 -0.6938775 0.21758993 -0.11941277 -0.110025674 -0.38863146 -0.019824455
00000000: 00e3 4abd 59a0 c33e 7f53 0c3e 0cd0 abbe
00000010: 04b0 a93d 53b8 70be cffb 543e 6630 c2be
00000020: e956 bdbe bff9 24be f657 2bbf 9860 60be
00000030: 2941 b6bd 7cb1 ae3e e344 0d3d 3a11 703e
00000040: 7cc5 453e 78bc dcbe 60de 73be fb02 05bf
00000050: bf3e 79be c29c cfbe f5ec acbe fd7f a43b
00000060: 9dcc 26bf a1bd 9abe bb47 483d ba34 9e3c
00000070: 0f80 afbe 481b 313e b683 3dbe 4af4 c5be
00000080: d035 c8be e8bc fabc 7d63 4dbe 16f5 513e
00000090: ced9 e6be a70f 49be 50cb 27be 76ee 03bf
000000a0: c870 35be 742d 793e 7178 34be 8803 4cbe
000000b0: 37a8 c0bd fd96 5bbe 1b99 05bf 3dd2 8d3d
000000c0: 328e 0ebf e4aa 75bd 99e1 413e ff6d 233e
000000d0: a7dd d93e 13bc 12bd 069d 0b3f d134 92be
000000e0: 1878 37be a1ae dabd 9b65 d2bd ef16 7e3c
000000f0: 5617 4bbe 1601 1ebf 9a29 e53d 0140 23be
00000100: bdd8 41be d9f6 54bc dce6 20bf a6b5 81be
00000110: 75df 2cbd 5f30 043e 2ce6 39bd 31a0 debe
00000120: 7364 3bbe f975 ec3e f48d e0be 46af a83e
00000130: 0799 e6be 4d5a 73be 80de 4dbe a158 82be
00000140: 9c11 b7bd 964c ec3d bdbc babe 7bcd 573e
00000150: 481f c63e 159f a33d 1173 0f3e eec0 b13e
00000160: 6ee4 19be de67 de3d 6ca8 89be d62b 08bf
00000170: 2887 10bf 321f 19bf b1af aebd 485d 393d
00000180: 6a91 6fbe 439d cf3e 2192 85be 8507 68bd
00000190: 8f9a 84be 6214 5e3e 22e5 1b3f bff4 41bf
000001a0: c312 c9be dc14 02bf 3441 8bbd 4175 f4be
000001b0: 7fcc 6d3e 8de0 863c 2229 4d3e 2b2c 1abe
000001c0: 9d5c 9a3d 3f47 a0bd c521 033e b8af c3bd
000001d0: e4ae dbbe 9cac 17bf 85a4 bc3e 5f99 b5be
000001e0: 16f7 eb3e e7df 1b3d f5a1 31bf e5cf 5e3e
000001f0: af8e f4bd 2455 e1bd b4fa c6be e566 a2bc

BinaryLinearLayer2.weight f4 [10, 128]
-1.202208 -0.7523218 -0.7177225 0.47744542 -0.5840726 -1.2695688 0.2241276 -1.1071829
-0.3499763 -0.08924272 0.55819786 -0.7058116 -0.13236107 0.7209623 0.9290649 -0.6999844
0.8653967 1.0678912 0.83077466 -0.5213357 1.4550405 -0.4613755 -0.7808272 -1.362868
0.91172683 -0.13866152 -0.20242219 -0.35573432 -1.1585716 -0.90624475 -0.05751718 0.6526504
-1.053621 0.018657964 0.7673354 0.12329979 -0.92099077 1.0495003 -0.6094395 0.85523134
0.8198722 -0.41217327 0.5601495 -0.32588917 -0.7731682 -1.0775949 -0.41548175 -0.2927596
-0.2292453 0.06959212 1.3958691 -0.37487274 0.92146534 0.15142025 0.24064085 -0.81657064
1.0753883 0.11542439 -0.75110775 0.19132315 0.49485645 0.7685024 -0.3813864 0.39888212
-1.2296228 -0.04106375 1.2099606 0.19986393 0.33309624 -1.1443487 -0.5410417 -0.6526398
0.77841276 -0.78644025 0.8836174 0.5759442 0.1960998 0.9370271 -0.05283061 -1.089461
-0.9752647 0.3021968 0.17788827 -0.43865407 0.13698839 -0.0021359732 0.95933545 -0.783037
-0.8625439 -0.9852175 0.15813583 -0.411369 0.97109276 1.3233528 -0.43894884 0.62383837
-0.17004003 -0.20794079 -0.87848896 -0.6532984 -0.029438982 -0.1888998 0.40250358 0.6624404
0.011345431 -0.96533793 -0.29509413 1.0603621 0.23937362 -0.05572963 -0.5784079 0.71393865
1.0530118 0.7032278 -0.24926512 0.8421304 0.22101095 -0.9968202 -0.56374633 0.67497694
0.65398955 0.59318477 0.3424136 0.35713002 -0.62752366 -0.9686667 -0.77027434 -0.60188055
-0.9135919 -0.5463761 0.77517635 0.3739951 -0.7334781 -0.82503504 1.2645948 -0.48944739
-0.86338687 1.1484256 0.20392247 1.3757418 0.5112987 0.05318787 -0.15033063 -0.45163047
-0.98524797 -0.22711791 0.056111347 1.2897708 0.72734725 -0.9612543 -0.5341576 1.3907242
-0.32658973 -0.39799875 -0.53790563 0.9891798 0.8988039 -0.42984238 -0.0484463 1.1863397
-0.81675404 0.03766187 -0.08600145 -0.51199365 -0.32300228 0.4962889 1.2020295 0.17741197
-0.42873815 1.2068254 -1.0043724 -0.81652534 1.1010565 0.47432795 -0.8221423 -0.6006543
0.33802927 -0.05698444 -0.5393548 -0.661815 -0.3453825 -0.15765241 0.36005223 1.1685878
-0.16877022 -0.2120516 -0.7108168 -0.276032 0.41530845 -0.38773084 -1.0518655 0.29206845
0.86024004 0.011514832 -0.24148889 -0.49725717 -0.9289912 -0.74888295 0.63256603 1.0361965
-0.5066876 -0.62750024 -0.5785829 0.096214965 0.8057925 -0.76422465 1.0014344 -0.7048135
1.2253726 -0.4399542 0.9442629 1.3632928 1.2086512 1.291335 -0.25859743 -0.35187006
1.1575027 0.17422734 1.439215 0.7539856 -0.3836275 0.3056225 1.31421 -0.412637
0.08889483 -0.88136107 -0.5084623 0.00089188776 1.1772461 1.2095001 0.17856736 0.7851789
-0.28813946 0.6214709 0.21031421 -0.7911767 -0.24444342 -0.03509408 -0.2261412 0.18608092
-0.5079347 -0.039018452 -0.15631044 -0.83360714 -0.43372193 -0.09243091 -0.35832095 -0.087640315
-0.39846447 0.23918459 -0.9788585 -0.3226249 -0.38173154 -0.6852388 0.78247243 -0.54748356
00000000: f4e1 99bf 2998 40bf a9bc 37bf ba73 f43e
00000010: c885 15bf 3b81 a2bf b581 653e 2bb8 8dbf
00000020: 1830 b3be e3c4 b6bd 0ee6 0e3f 12b0 34bf
00000030: a989 07be fc90 383f 33d7 6d3f 2d32 33bf
00000040: a38a 5d3f a9b0 883f a6ad 543f 4276 05bf
00000050: c43e ba3f 6939 ecbe 4be4 47bf 7572 aebf
00000060: ee66 693f 49fd 0dbe c347 4fbe cf22 b6be
00000070: 134c 94bf a8ff 67bf 2297 6bbd 1914 273f
00000080: 0edd 86bf 96d8 983c 1870 443f 9a84 fc3d
00000090: 0dc6 6bbf 0756 863f 3a04 1cbf 71f0 5a3f
000000a0: 25e3 513f 6008 d3be f565 0f3f f2da a6be
000000b0: 5aee 45bf a1ee 89bf 06ba d4be 96e4 95be
000000c0: 48bf 6abe 5086 8e3d d7ab b23f 52ef bfbe
000000d0: 27e5 6b3f e90d 1b3e 8e6a 763e c60a 51bf
000000e0: 53a6 893f 9f63 ec3d 9948 40bf 37ea 433e
000000f0: d35d fd3e 93bc 443f 1445 c3be 473a cc3e
00000100: 4864 9dbf 7632 28bd fddf 9a3f 21a9 4c3e
00000110: 978b aa3e 057a 92bf b581 0abf 6713 27bf
00000120: 0f46 473f 2654 49bf c034 623f 1471 133f
00000130: 63ce 483e 02e1 6f3f e964 58bd 7573 8bbf
00000140: f3aa 79bf 8ab9 9a3e 5828 363e 4497 e0be
00000150: af46 0c3e affb 0bbb 0297 753f 1d75 48bf
00000160: adcf 5cbf 3737 7cbf 5cee 213e f59e d2be
00000170: 8999 783f a063 a93f e7bd e0be dfb3 1f3f
00000180: f91e 2ebe 6eee 54be a7e4 60bf 903e 27bf
00000190: 052a f1bc f36e 41be f314 ce3e b295 293f
000001a0: 30e2 393c 6320 77bf 9416 97be f2b9 873f
000001b0: 5c1e 753e c144 64bd 8a12 14bf afc4 363f
000001c0: 17c9 863f bd06 343f 5b3f 7fbe dc95 573f
000001d0: b250 623e 9c2f 7fbf ae51 10bf 4acb 2c3f
000001e0: dc6b 273f f5da 173f d650 af3e bfd9 b63e
000001f0: 64a5 20bf 8afa 77bf b330 45bf d814 1abf
00000200: 29e1 69bf 4edf 0bbf f571 463f 497c bf3e
00000210: 39c5 3bbf 7f35 53bf 3ede a13f d998 fabe
00000220: ec06 5dbf 9cff 923f 0dd1 503e 4f18 b03f
00000230: 79e4 023f 86db 593d 46f0 19be 1c3c e7be
00000240: 3639 7cbf 9991 68be 03d5 653d 3617 a53f
00000250: 6e33 3a3f c314 76bf 8dbe 08bf 4003 b23f
00000260: c536 a7be 7ec6 cbbe 2fb4 09bf e33a 7d3f
00000270: 0318 663f 4d14 dcbe a16f 46bd fbd9 973f
00000280: cb16 51bf 5543 1a3d 8721 b0bd 0412 03bf
00000290: 8e60 a5be 9419 fe3e 1adc 993f 7cab 353e
000002a0: 9183 dbbe 4179 9a3f 468f 80bf ce07 51bf
000002b0: 6bef 8c3f 1ddb f23e eb77 52bf 7bc4 19bf
000002c0: 2c12 ad3e 8468 69bd 2813 0abf b56c 29bf
000002d0: fad5 b0be a26f 21be c458 b83e 4994 953f
000002e0: 1ad2 2cbe 0e24 59be 17f8 35bf 1154 8dbe
000002f0: 4fa3 d43e a884 c6be 87a3 86bf ff89 953e
00000300: b138 5c3f b5a8 3c3c dd48 77be 7e98 febe
00000310: 5ed2 6dbf cbb6 3fbf d9ef 213f 16a2 843f
00000320: 47b6 01bf dba3 20bf 021e 14bf 5a0c c53d
00000330: 6b48 4e3f 3aa4 43bf 012f 803f a86e 34bf
00000340: 02d9 9c3f ad41 e1be 37bb 713f 6180 ae3f
00000350: 15b5 9a3f 774a a53f e266 84be 5028 b4be
00000360: 0c29 943f a768 323e 3238 b83f 3305 413f
00000370: d36a c4be 8d7a 9c3e 0938 a83f 2845 d3be
00000380: 7e0e b63d e1a0 61bf 962a 02bf 93cd 693a
00000390: 00b0 963f e6d0 9a3f 5dda 363e 7c01 493f
000003a0: 0487 93be b818 1f3f 9c5c 573e 8e8a 4abf
000003b0: 604f 7abe cfbe 0fbd 8f91 67be ff8b 3e3e
000003c0: 0208 02bf d0d1 1fbd d80f 20be 4767 55bf
000003d0: cd10 debe 6b4c bdbd d875 b7be c47c b3bd
000003e0: 8903 ccbe ceec 743e 7896 7abf 172f a5be
000003f0: 5172 c3be cf6b 2fbf 1d50 483f e227 0cbf

BinaryLinearLayer2.bias f4 [10]
-0.20889957 0.9127909 -0.7901492 -0.48606533 -0.22683674 0.9146168 -0.2883166 0.1273951
0.16245498 -0.31246564
00000000: c5e9 55be aaac 693f 3847 4abf 8edd f8be
00000010: e447 68be 5424 6a3f 3c9e 93be dc73 023e
00000020: 995a 263e 7ffb 9fbe

stack.0.weight f4 [128, 784]
0.025334954 -0.029278565 -0.016578658 0.0026629493 -0.029206077 -0.012183057 0.029393796 -0.027625903
0.014202915 -0.0233044 -0.031034859 0.017105155 -0.005733375 0.03221427 -0.021385845 -0.008469433
0.0036393814 0.011032119 -0.031827852 0.021278195 -0.003566794 -0.01719935 -0.03171648 0.0070348345
0.0054001138 -0.028859012 -0.015731651 0.002867438 0.029964041 0.016278945 0.0060893744 -0.021228727
-0.022550706 -0.007850617 0.039532892 0.01721083 0.057911433 -0.006447439 0.03624377 -0.0099543575
0.054394968 0.03507595 0.039121687 0.020388609 -0.015724842 0.058403257 0.030158658 -0.008088192
0.061016712 -0.003109494 0.0077206623 0.02888872 -0.007377336 -0.02118894 -0.002266042 0.0104615465
0.024779353 0.0072002336 -0.015239426 9.1410046e-05 0.012359759 0.015347813 0.016469765 0.024665274
0.02137469 -0.003550179 -0.0013181235 -0.029007746 -0.049553752 -0.1170232 0.0071273497 0.052844394
0.07259769 0.12714928 0.13917741 0.12428495 0.08812852 0.08708268 0.07671227 0.0056715887
-0.0018672262 0.02400197 -0.0118881725 -0.017069452 0.03197999 -0.034582783 -0.010128582 0.012325837
0.05014119 -0.03366941 0.033875085 -0.05020646 -0.048935484 -0.06835453 -0.102358446 -0.15087861
-0.324381 -0.3216926 -0.114083946 -0.068624 0.00041337684 0.04590086 0.3084368 0.4579894
0.33458787 0.35528535 0.20634717 0.05569678 0.0107826125 0.022658708 -0.0062749423 0.017201826
-0.03360571 0.034614388 -0.01307167 -0.011653802 -0.023734301 -0.0676072 -0.070260905 -0.114152946
-0.1970809 -0.2381405 -0.2299513 -0.13625808 -0.3418843 -0.2923915 -0.10461589 -0.2750306
-0.22328125 0.009887951 0.12940647 0.20695211 0.2890153 0.3671008 0.18968877 0.19277734
0.10596893 0.0723619 0.011504187 0.0037926733 0.02787495 -0.010087227 0.02444152 -0.00562355
-0.07187531 -0.1375821 -0.12718475 -0.10423332 -0.041578025 0.098255426 0.1836929 0.22458024
-0.025921332 -0.12011891 0.021668937 0.074211 0.10152923 -0.050709724 0.036403436 -0.1487236
-0.04066852 -0.03150828 0.10146873 0.28064552 0.12720339 0.04206907 0.03144532 -0.004288281
0.009034596 0.027405187 -0.032848194 -0.0480319 -0.113464735 -0.14253771 -0.22452182 -0.14935768
-0.061802715 -0.09502138 0.101120666 0.09281925 0.00903906 -0.04989948 0.20807645 0.38078055
0.38081208 0.5528877 0.44772157 0.46299478 0.35322246 0.074483335 0.12243368 0.20899795
0.16801818 0.11849184 -0.012692995 -0.007485391 -0.019491568 0.005957656 -0.031910002 -0.08996444
-0.16945124 -0.14889406 -0.17842142 -0.07036968 -0.050795566 -0.035170577 0.13224229 0.149817
0.1327522 0.24844769 0.41512328 0.3540625 0.42995855 0.69017255 0.6358647 0.6011694
0.7291413 0.39366454 0.07352756 0.18091138 0.025536137 0.11197709 0.0022123707 0.030981198
0.006983395 0.003074313 -0.024039138 -0.023345282 -0.13080026 -0.15441255 -0.08739227 0.067362875
-0.052844096 -0.18176101 -0.12564015 0.24398579 0.2971018 0.24636802 0.059518684 0.11199624
0.15419677 0.14636198 -0.025632882 0.2975346 0.22079204 0.030074367 -0.118755415 -0.1533582
-0.112845324 0.050894476 0.01931377 -0.002895981 0.01083425 -0.027785901 -0.0005073932 -0.053944908
00000000: 408b cf3c 9ad9 efbc f7cf 87bc e084 2e3b
00000010: 9541 efbc 729b 47bc 42cb f03c b84f e2bc
00000020: 58b3 683c dee8 bebc d13c febc 1c20 8c3c
00000030: 09df bbbb 1cf3 033d 5e31 afbc 60c3 0abc
00000040: b082 6e3b 10c0 343c ec5d 02bd 9c4f ae3c
00000050: e0c0 69bb a7e5 8cbc 24e9 01bd 7884 e63b
00000060: 70f3 b03b bc69 ecbc aadf 80bc a0eb 3b3b
00000070: 2677 f53c 6c5b 853c 6089 c73b dee7 adbc
00000080: 42bc b8bc e09f 00bc 3eed 213d bafd 8c3c
00000090: 8a34 6d3d 0a45 d3bb 5974 143d 9a17 23bc
000000a0: 42cd 5e3d cdab 0f3d 103e 203d 0306 a73c
000000b0: 62d1 80bc 4138 6f3d 4a0f f73c 5684 04bc
000000c0: a9ec 793d a7c8 4bbb 9cfd fc3b 09a8 ec3c
000000d0: 94bd f1bb 6e94 adbc e081 14bb e866 2b3c
000000e0: 12fe ca3c f0ef eb3b c9ae 79bc 65b3 bf38
000000f0: 9680 4a3c 6575 7b3c 9aeb 863c d40e ca3c
00000100: f919 af3c 1faa 68bb e3c4 acba a7a1 edbc
00000110: e0f8 4abd dca9 efbd 8b8c e93b 5d73 583d
00000120: 19ae 943d 6c33 023e 8684 0e3e 1c89 fe3d
00000130: ba7c b43d 6758 b23d 531b 9d3d bcd8 b93b
00000140: b7bd f4ba c89f c43c 9cc6 42bc 3cd5 8bbc
00000150: 73fd 023d ada6 0dbd 5af2 25bc 4ff2 493c
00000160: d960 4d3d efe8 09bd 9ac0 0a3d 4aa5 4dbd
00000170: 9370 48bd 76fd 8bbd 4ea1 d1bd ec7f 1abe
00000180: 4415 a6be e4b4 a4be d8a4 e9bd bd8a 8cbd
00000190: 80ba d839 8a02 3c3d 6eeb 9d3e 967d ea3e
000001a0: 1a4f ab3e f6e7 b53e ac4c 533e 4f22 643d
000001b0: 8ea9 303c c19e b93c 089e cdbb d8ea 8c3c
000001c0: 24a6 09bd d1c7 0d3d 8f2a 56bc 97ef 3ebc
000001d0: 706e c2bc a575 8abd f3e4 8fbd 05c9 e9bd
000001e0: 93cf 49be 1adb 73be 5b78 6bbe 3d87 0bbe
000001f0: 750b afbe 57b4 95be db40 d6bd d0d0 8cbe
00000200: d7a3 64be 1301 223c 2183 043e 41eb 533e
00000210: d0f9 933e a3f4 bb3e c63d 423e 6c67 453e
00000220: 3d06 d93d 7a32 943d 0f7c 3c3c 808e 783b
00000230: 025a e43c e644 25bc 9539 c83c c245 b8bb
00000240: 5d33 93bd 52e2 0cbe b83c 02be 4778 d5bd
00000250: b84d 2abd 243a c93d fe19 3c3e 5df8 653e
00000260: f958 d4bc e700 f6bd 0e83 b13c f0fb 973d
00000270: 8fee cf3d 00b5 4fbd c51b 153d 004b 18be
00000280: 0994 26bd d40e 01bd d6ce cf3d c5b0 8f3e
00000290: 9b41 023e 9e50 2c3d cfcc 003d b584 8cbb
000002a0: d805 143c d880 e03c d48b 06bd 19bd 44bd
000002b0: 3360 e8bd 68f5 11be 0ce9 65be 38f1 18be
000002c0: d824 7dbd 929a c2bd 5a18 cf3d 0518 be3d
000002d0: 9118 143c 6663 4cbd fe11 553e abf5 c23e
000002e0: cdf9 c23e 0c8a 0d3f c33b e53e a70d ed3e
000002f0: 93d9 b43e b88a 983d 82be fa3d 8f03 563e
00000300: f50c 2c3e daab f23d 48f6 4fbc 0348 f5bb
00000310: c8ac 9fbc 7138 c33b 10b4 02bd 473f b8bd
00000320: a084 2dbe af77 18be 1bb4 36be fb1d 90bd
00000330: 030f 50bd 060f 10bd 866a 073e a169 193e
00000340: 31f0 073e 1269 7e3e 0a8b d43e ae47 b53e
00000350: 8723 dc3e 26af 303f 07c8 223f 3de6 193f
00000360: 01a9 3a3f 668e c93e 9e95 963d d540 393e
00000370: 2931 d13c 3f54 e53d 6cfd 103b 48cc fd3c
00000380: f7d4 e43b 6a7a 493b baed c4bc 9b3e bfbc
00000390: 81f0 05be 531e 1ebe b8fa b2bd 8cf5 893d
000003a0: 0d73 58bd 8f1f 3abe d0a7 00be 69d7 793e
000003b0: ba1d 983e e647 7c3e ddc9 733d 495e e53d
000003c0: c2e5 1d3e eadf 153e 0dfc d1bc 7556 983e
000003d0: 4f17 623e 855e f63c 0a36 f3bd ef09 1dbe
000003e0: 731b e7bd ba76 503d e937 9e3c 80ca 3dbb
000003f0: 2382 313c 429f e3bc 9502 05ba 56f5 5cbd

stack.0.bias f4 [128]
-0.04953289 0.38208273 0.13703726 -0.33557165 0.082855254 -0.23507814 0.20799182 -0.3792755
-0.3698037 -0.16110896 -0.6693109 -0.21911848 -0.08899147 0.34119785 0.034489524 0.23444071
0.19313616 -0.4311254 -0.23815298 -0.5195767 -0.24340342 -0.40549284 -0.33774534 0.00502014
-0.65155965 -0.302228 0.048896533 0.019312251 -0.34277388 0.17295563 -0.18507275 -0.3866294
-0.39103556 -0.030607656 -0.20057483 0.20503649 -0.45088047 -0.19634877 -0.16386151 -0.5153574
-0.17718804 0.24333745 -0.1762407 -0.19923222 -0.094070844 -0.21444316 -0.52186745 0.069248654
-0.5568572 -0.059977427 0.18933715 0.15959929 0.4255192 -0.035823893 0.54536474 -0.2855592
-0.17916906 -0.10677839 -0.10273286 0.0155083975 -0.1983312 -0.61720407 0.111895755 -0.15942384
-0.18930335 -0.012998306 -0.62852263 -0.253339 -0.042205293 0.12909077 -0.045385525 -0.4348159
-0.18300037 0.46183756 -0.43858302 0.32946223 -0.45038626 -0.23764916 -0.20104408 -0.25458243
-0.089389056 0.11538045 -0.3647212 0.21074478 0.3869574 0.07989327 0.14008738 0.34717506
-0.15028545 0.10859655 -0.26886308 -0.5319189 -0.5645623 -0.59813225 -0.08529604 0.045254976
-0.23395315 0.4054967 -0.2608805 -0.056647796 -0.2589917 0.21687463 0.60896504 -0.7576408
-0.39272127 -0.5081308 -0.06799546 -0.47745708 0.2322254 0.016464496 0.20035222 -0.15055911
0.07537196 -0.07826089 0.12805851 -0.09555 -0.42906868 -0.59247756 0.36844268 -0.35468575
0.4608695 0.038055327 -0.6938775 0.21758993 -0.11941277 -0.110025674 -0.38863146 -0.019824455
00000000: 00e3 4abd 59a0 c33e 7f53 0c3e 0cd0 abbe
00000010: 04b0 a93d 53b8 70be cffb 543e 6630 c2be
00000020: e956 bdbe bff9 24be f657 2bbf 9860 60be
00000030: 2941 b6bd 7cb1 ae3e e344 0d3d 3a11 703e
00000040: 7cc5 453e 78bc dcbe 60de 73be fb02 05bf
00000050: bf3e 79be c29c cfbe f5ec acbe fd7f a43b
00000060: 9dcc 26bf a1bd 9abe bb47 483d ba34 9e3c
00000070: 0f80 afbe 481b 313e b683 3dbe 4af4 c5be
00000080: d035 c8be e8bc fabc 7d63 4dbe 16f5 513e
00000090: ced9 e6be a70f 49be 50cb 27be 76ee 03bf
000000a0: c870 35be 742d 793e 7178 34be 8803 4cbe
000000b0: 37a8 c0bd fd96 5bbe 1b99 05bf 3dd2 8d3d
000000c0: 328e 0ebf e4aa 75bd 99e1 413e ff6d 233e
000000d0: a7dd d93e 13bc 12bd 069d 0b3f d134 92be
000000e0: 1878 37be a1ae dabd 9b65 d2bd ef16 7e3c
000000f0: 5617 4bbe 1601 1ebf 9a29 e53d 0140 23be
00000100: bdd8 41be d9f6 54bc dce6 20bf a6b5 81be
00000110: 75df 2cbd 5f30 043e 2ce6 39bd 31a0 debe
00000120: 7364 3bbe f975 ec3e f48d e0be 46af a83e
00000130: 0799 e6be 4d5a 73be 80de 4dbe a158 82be
00000140: 9c11 b7bd 964c ec3d bdbc babe 7bcd 573e
00000150: 481f c63e 159f a33d 1173 0f3e eec0 b13e
00000160: 6ee4 19be de67 de3d 6ca8 89be d62b 08bf
00000170: 2887 10bf 321f 19bf b1af aebd 485d 393d
00000180: 6a91 6fbe 439d cf3e 2192 85be 8507 68bd
00000190: 8f9a 84be 6214 5e3e 22e5 1b3f bff4 41bf
000001a0: c312 c9be dc14 02bf 3441 8bbd 4175 f4be
000001b0: 7fcc 6d3e 8de0 863c 2229 4d3e 2b2c 1abe
000001c0: 9d5c 9a3d 3f47 a0bd c521 033e b8af c3bd
000001d0: e4ae dbbe 9cac 17bf 85a4 bc3e 5f99 b5be
000001e0: 16f7 eb3e e7df 1b3d f5a1 31bf e5cf 5e3e
000001f0: af8e f4bd 2455 e1bd b4fa c6be e566 a2bc

stack.2.weight f4 [10, 128]
-1.202208 -0.7523218 -0.7177225 0.47744542 -0.5840726 -1.2695688 0.2241276 -1.1071829
-0.3499763 -0.08924272 0.55819786 -0.7058116 -0.13236107 0.7209623 0.9290649 -0.6999844
0.8653967 1.0678912 0.83077466 -0.5213357 1.4550405 -0.4613755 -0.7808272 -1.362868
0.91172683 -0.13866152 -0.20242219 -0.35573432 -1.1585716 -0.90624475 -0.05751718 0.6526504
-1.053621 0.018657964 0.7673354 0.12329979 -0.92099077 1.0495003 -0.6094395 0.85523134
0.8198722 -0.41217327 0.5601495 -0.32588917 -0.7731682 -1.0775949 -0.41548175 -0.2927596
-0.2292453 0.06959212 1.3958691 -0.37487274 0.92146534 0.15142025 0.24064085 -0.81657064
1.0753883 0.11542439 -0.75110775 0.19132315 0.49485645 0.7685024 -0.3813864 0.39888212
-1.2296228 -0.04106375 1.2099606 0.19986393 0.33309624 -1.1443487 -0.5410417 -0.6526398
0.77841276 -0.78644025 0.8836174 0.5759442 0.1960998 0.9370271 -0.05283061 -1.089461
-0.9752647 0.3021968 0.17788827 -0.43865407 0.13698839 -0.0021359732 0.95933545 -0.783037
-0.8625439 -0.9852175 0.15813583 -0.411369 0.97109276 1.3233528 -0.43894884 0.62383837
-0.17004003 -0.20794079 -0.87848896 -0.6532984 -0.029438982 -0.1888998 0.40250358 0.6624404
0.011345431 -0.96533793 -0.29509413 1.0603621 0.23937362 -0.05572963 -0.5784079 0.71393865
1.0530118 0.7032278 -0.24926512 0.8421304 0.22101095 -0.9968202 -0.56374633 0.67497694
0.65398955 0.59318477 0.3424136 0.35713002 -0.62752366 -0.9686667 -0.77027434 -0.60188055
-0.9135919 -0.5463761 0.77517635 0.3739951 -0.7334781 -0.82503504 1.2645948 -0.48944739
-0.86338687 1.1484256 0.20392247 1.3757418 0.5112987 0.05318787 -0.15033063 -0.45163047
-0.98524797 -0.22711791 0.056111347 1.2897708 0.72734725 -0.9612543 -0.5341576 1.3907242
-0.32658973 -0.39799875 -0.53790563 0.9891798 0.8988039 -0.42984238 -0.0484463 1.1863397
-0.81675404 0.03766187 -0.08600145 -0.51199365 -0.32300228 0.4962889 1.2020295 0.17741197
-0.42873815 1.2068254 -1.0043724 -0.81652534 1.1010565 0.47432795 -0.8221423 -0.6006543
0.33802927 -0.05698444 -0.5393548 -0.661815 -0.3453825 -0.15765241 0.36005223 1.1685878
-0.16877022 -0.2120516 -0.7108168 -0.276032 0.41530845 -0.38773084 -1.0518655 0.29206845
0.86024004 0.011514832 -0.24148889 -0.49725717 -0.9289912 -0.74888295 0.63256603 1.0361965
-0.5066876 -0.62750024 -0.5785829 0.096214965 0.8057925 -0.76422465 1.0014344 -0.7048135
1.2253726 -0.4399542 0.9442629 1.3632928 1.2086512 1.291335 -0.25859743 -0.35187006
1.1575027 0.17422734 1.439215 0.7539856 -0.3836275 0.3056225 1.31421 -0.412637
0.08889483 -0.88136107 -0.5084623 0.00089188776 1.1772461 1.2095001 0.17856736 0.7851789
-0.28813946 0.6214709 0.21031421 -0.7911767 -0.24444342 -0.03509408 -0.2261412 0.18608092
-0.5079347 -0.039018452 -0.15631044 -0.83360714 -0.43372193 -0.09243091 -0.35832095 -0.087640315
-0.39846447 0.23918459 -0.9788585 -0.3226249 -0.38173154 -0.6852388 0.78247243 -0.54748356
00000000: f4e1 99bf 2998 40bf a9bc 37bf ba73 f43e
00000010: c885 15bf 3b81 a2bf b581 653e 2bb8 8dbf
00000020: 1830 b3be e3c4 b6bd 0ee6 0e3f 12b0 34bf
00000030: a989 07be fc90 383f 33d7 6d3f 2d32 33bf
00000040: a38a 5d3f a9b0 883f a6ad 543f 4276 05bf
00000050: c43e ba3f 6939 ecbe 4be4 47bf 7572 aebf
00000060: ee66 693f 49fd 0dbe c347 4fbe cf22 b6be
00000070: 134c 94bf a8ff 67bf 2297 6bbd 1914 273f
00000080: 0edd 86bf 96d8 983c 1870 443f 9a84 fc3d
00000090: 0dc6 6bbf 0756 863f 3a04 1cbf 71f0 5a3f
000000a0: 25e3 513f 6008 d3be f565 0f3f f2da a6be
000000b0: 5aee 45bf a1ee 89bf 06ba d4be 96e4 95be
000000c0: 48bf 6abe 5086 8e3d d7ab b23f 52ef bfbe
000000d0: 27e5 6b3f e90d 1b3e 8e6a 763e c60a 51bf
000000e0: 53a6 893f 9f63 ec3d 9948 40bf 37ea 433e
000000f0: d35d fd3e 93bc 443f 1445 c3be 473a cc3e
00000100: 4864 9dbf 7632 28bd fddf 9a3f 21a9 4c3e
00000110: 978b aa3e 057a 92bf b581 0abf 6713 27bf
00000120: 0f46 473f 2654 49bf c034 623f 1471 133f
00000130: 63ce 483e 02e1 6f3f e964 58bd 7573 8bbf
00000140: f3aa 79bf 8ab9 9a3e 5828 363e 4497 e0be
00000150: af46 0c3e affb 0bbb 0297 753f 1d75 48bf
00000160: adcf 5cbf 3737 7cbf 5cee 213e f59e d2be
00000170: 8999 783f a063 a93f e7bd e0be dfb3 1f3f
00000180: f91e 2ebe 6eee 54be a7e4 60bf 903e 27bf
00000190: 052a f1bc f36e 41be f314 ce3e b295 293f
000001a0: 30e2 393c 6320 77bf 9416 97be f2b9 873f
000001b0: 5c1e 753e c144 64bd 8a12 14bf afc4 363f
000001c0: 17c9 863f bd06 343f 5b3f 7fbe dc95 573f
000001d0: b250 623e 9c2f 7fbf ae51 10bf 4acb 2c3f
000001e0: dc6b 273f f5da 173f d650 af3e bfd9 b63e
000001f0: 64a5 20bf 8afa 77bf b330 45bf d814 1abf
00000200: 29e1 69bf 4edf 0bbf f571 463f 497c bf3e
00000210: 39c5 3bbf 7f35 53bf 3ede a13f d998 fabe
00000220: ec06 5dbf 9cff 923f 0dd1 503e 4f18 b03f
00000230: 79e4 023f 86db 593d 46f0 19be 1c3c e7be
00000240: 3639 7cbf 9991 68be 03d5 653d 3617 a53f
00000250: 6e33 3a3f c314 76bf 8dbe 08bf 4003 b23f
00000260: c536 a7be 7ec6 cbbe 2fb4 09bf e33a 7d3f
00000270: 0318 663f 4d14 dcbe a16f 46bd fbd9 973f
00000280: cb16 51bf 5543 1a3d 8721 b0bd 0412 03bf
00000290: 8e60 a5be 9419 fe3e 1adc 993f 7cab 353e
000002a0: 9183 dbbe 4179 9a3f 468f 80bf ce07 51bf
000002b0: 6bef 8c3f 1ddb f23e eb77 52bf 7bc4 19bf
000002c0: 2c12 ad3e 8468 69bd 2813 0abf b56c 29bf
000002d0: fad5 b0be a26f 21be c458 b83e 4994 953f
000002e0: 1ad2 2cbe 0e24 59be 17f8 35bf 1154 8dbe
000002f0: 4fa3 d43e a884 c6be 87a3 86bf ff89 953e
00000300: b138 5c3f b5a8 3c3c dd48 77be 7e98 febe
00000310: 5ed2 6dbf cbb6 3fbf d9ef 213f 16a2 843f
00000320: 47b6 01bf dba3 20bf 021e 14bf 5a0c c53d
00000330: 6b48 4e3f 3aa4 43bf 012f 803f a86e 34bf
00000340: 02d9 9c3f ad41 e1be 37bb 713f 6180 ae3f
00000350: 15b5 9a3f 774a a53f e266 84be 5028 b4be
00000360: 0c29 943f a768 323e 3238 b83f 3305 413f
00000370: d36a c4be 8d7a 9c3e 0938 a83f 2845 d3be
00000380: 7e0e b63d e1a0 61bf 962a 02bf 93cd 693a
00000390: 00b0 963f e6d0 9a3f 5dda 363e 7c01 493f
000003a0: 0487 93be b818 1f3f 9c5c 573e 8e8a 4abf
000003b0: 604f 7abe cfbe 0fbd 8f91 67be ff8b 3e3e
000003c0: 0208 02bf d0d1 1fbd d80f 20be 4767 55bf
000003d0: cd10 debe 6b4c bdbd d875 b7be c47c b3bd
000003e0: 8903 ccbe ceec 743e 7896 7abf 172f a5be
000003f0: 5172 c3be cf6b 2fbf 1d50 483f e227 0cbf

stack.2.bias f4 [10]
-0.20889957 0.9127909 -0.7901492 -0.48606533 -0.22683674 0.9146168 -0.2883166 0.1273951
0.16245498 -0.31246564
00000000: c5e9 55be aaac 693f 3847 4abf 8edd f8be
00000010: e447 68be 5424 6a3f 3c9e 93be dc73 023e
00000020: 995a 263e 7ffb 9fbe
