grj/MINIST/MINIST_binary_weights.pth (torch, 409792 bytes, 8 tensors)

BinaryLinearLayer1.weight f4 [128, 784]
0	0xbc36578a	-0.011129269
1	0xbc7dabfc	-0.015482899
2	0xbcc0484c	-0.023471974
3	0xbca633a5	-0.020288298
4	0xbc3af920	-0.011411935
5	0xbcefe5ca	-0.029284377
6	0x3b0f19f0	0.0021835528
7	0x3ceb74e2	0.028742258
8	0x3ceeb78e	0.02914026
9	0xbca501f5	-0.020142535
10	0x3c516e98	0.012782715
11	0xbcf60ff8	-0.030036911
12	0x3a254940	0.00063051656
13	0x3cd8515a	0.026405979
14	0x3cacdb7e	0.021100756
15	0x37c9b800	2.4046749e-05
16	0x3c16aba8	0.0091961995
17	0xbc9171f0	-0.017754525
18	0xbcd61fec	-0.026138268
19	0x3c43f9e0	0.01196143
20	0x3d09fa1b	0.033685785
21	0xbc86b430	-0.016443342
22	0x3cfc227e	0.030778166
23	0x3cc8d2cc	0.024514578
24	0x3cb05e66	0.021529388
25	0x3c797a00	0.015226841
26	0xbc985e77	-0.018599732
27	0x3cc9fdf8	0.024657235
28	0xbc9f6dec	-0.019461595
29	0x3c62ac84	0.013835076
30	0xbc8747d3	-0.01651374
31	0x3cc30c4c	0.023809575
32	0x3bdee038	0.0068016313
33	0x3cf2e672	0.0296509
34	0xbc32c96e	-0.010912282
35	0x3ccc542a	0.024942476
36	0x3cadd1ee	0.021218266
37	0x3bb42118	0.005497109
38	0xbcc4dfc3	-0.02403248
39	0x3d091d1b	0.033475023
40	0x3c3d524b	0.011555265
41	0x3c2ee93c	0.010675725
42	0xbb5a2d9f	-0.0033291352
43	0x3b988124	0.0046540666
44	0xbb6a8d22	-0.0035789688
45	0x3ca4eaa7	0.020131422
46	0xba8378c2	-0.0010030495
47	0x3ca8a8cf	0.020588307
48	0x3cbb66cb	0.022876164
49	0x3c9a7648	0.018855229
50	0x3cc301a8	0.0238045
51	0x3b8e3b10	0.004340537
52	0x3c254268	0.010086633
53	0x3c92a76c	0.017902099
54	0x3c9734d0	0.0184578
55	0x3d022233	0.031770896
56	0x3c4f12a0	0.012638718
57	0xbb4fa050	-0.0031681247
58	0x3cb08bae	0.02155098
59	0xbbfe6a2c	-0.0077641215
60	0x3cfa72aa	0.030572254
61	0x3ce21a39	0.027600395
62	0x3b4a6897	0.0030885094
63	0x3c18c35f	0.009323924
64	0xbcba9db8	-0.022780284
65	0xbc847a07	-0.016171468
66	0xbc16a60f	-0.009194865
67	0xbb58ecaf	-0.0033100059
68	0xbc8314ad	-0.01600107
69	0xbcf3c50f	-0.02975705
70	0x3c7393c7	0.014866776
71	0x3cbab2e2	0.022790376
72	0x3c15a03e	0.009132443
73	0xbb428fb2	-0.00296877
74	0x3b94675c	0.004528923
75	0x3cb690d7	0.022285862
76	0xbceb1671	-0.028697224
77	0xbbfb99c4	-0.0076782424
78	0x3d063883	0.032768738
79	0xbc4a5e7c	-0.012351628
80	0x3c2195a4	0.009862337
81	0xbc50ca6a	-0.012743572
82	0xbd07330b	-0.033007663
83	0x3cd842e8	0.02639909
84	0x3cfbf0ae	0.030754413
85	0xbca748e3	-0.020420497
86	0xbc9b6367	-0.018968297
87	0x3d084120	0.033265233
88	0xbcfe7680	-0.031062365
89	0x3cb8d7b7	0.022563798
90	0xbc5d538f	-0.013508691
91	0x3b6dde8b	0.0036295976
92	0xbc92e13b	-0.017929664
93	0x3bc34164	0.005958723
94	0x3c8bd053	0.01706711
95	0x3cd5323b	0.026024928
96	0x3a43bbf8	0.0007466669
97	0x3cc3d3c0	0.023904681
98	0x3bb6f650	0.005583562
99	0xbb3ba5d7	-0.0028632784
100	0xbd2fb632	-0.042898364
101	0xbcba7d83	-0.022764927
102	0x3c91cb47	0.017797126
103	0xbd119d02	-0.035550125
104	0x3c2254eb	0.009907941
105	0x3b1119e0	0.0022140667
106	0xbce77de1	-0.028258266
107	0x3cf46cfa	0.02983712
108	0xbc20f57c	-0.009824153
109	0xbc6efef8	-0.0145871565
110	0x3c113390	0.008862391
111	0x3ca2806a	0.019836623
112	0x3c671974	0.01410519
113	0x3c6c6308	0.014427908
114	0xbcb59dde	-0.022170004
115	0x3cfb1e6e	0.030654158
116	0x3bdf1be3	0.0068087443
117	0xbbc01fad	-0.005863151
118	0xbcc1c053	-0.023651278
119	0x3c1c76db	0.009549822
120	0xbc70a335	-0.014687349
121	0xbb9c57dd	-0.0047712163
122	0xbcb19ab1	-0.021680208
123	0x3bd30226	0.006439465
124	0xbc8a4b8f	-0.016881732
125	0xbbd368d5	-0.006451706
126	0xbca42f56	-0.020042103
127	0xbca77deb	-0.020445785
128	0xbb9c38eb	-0.0047675273
129	0xbcbae6bc	-0.0228151
130	0xbd08f2dc	-0.033434734
131	0xbc65188d	-0.013982904
132	0xbd055cab	-0.03255908
133	0x3b61dfc2	0.0034465645
134	0xbd106e74	-0.035261586
135	0x3c07efd7	0.008296928
136	0x3c49d66b	0.012319188
137	0x3cfbe7ff	0.030750273
138	0x3bf0d4eb	0.0073496005
139	0x3c89e014	0.016830482
140	0xbc505358	-0.012715183
141	0xbcd041ba	-0.025421966
142	0x3ce83e4d	0.02835002
143	0xbca04b99	-0.019567298
144	0x3cfb2c4a	0.030660767
145	0xbb680bdd	-0.0035407462
146	0x3c0f8c16	0.008761426
147	0x3c2c71d4	0.010525186
148	0xbd1d4d3d	-0.03840374
149	0xbc613fe3	-0.013748142
150	0xbc9c37ba	-0.019069541
151	0xbd400be7	-0.04688635
152	0xbbbc635d	-0.0057491497
153	0x3cdd255d	0.026995355
154	0xbd1fbe99	-0.039000127
155	0xbcbdf304	-0.023187168
156	0x3cc7e67c	0.024401896
157	0xbd2317f6	-0.039817773
158	0xbcfff580	-0.031244993
159	0xbcd0ba8a	-0.025479574
160	0xbce651ba	-0.028115142
161	0xbca6182e	-0.020275202
162	0xbd08bfd6	-0.033386074
163	0xbcd0e3fd	-0.025499338
164	0xbc857ddc	-0.016295366
165	0xbccc8d3f	-0.024969695
166	0xbcd62f63	-0.026145643
167	0x3bf61958	0.0075103454
168	0x3b883838	0.0041570924
169	0xbb5b4e60	-0.0033463463
170	0xbc17b5e3	-0.009259674
171	0x3c350434	0.011048365
172	0xbcf83cb4	-0.030302383
173	0xbd16dfac	-0.036834404
174	0xbc869f87	-0.01643349
175	0xbcdde9d3	-0.027089035
176	0x3c722f92	0.014781849
177	0xbcabbf48	-0.020965233
178	0xbd0fcf4a	-0.035109796
179	0x3c53ac6c	0.012919527
180	0xbca0b24c	-0.019616269
181	0x3c8910e8	0.016731694
182	0xbcdc95fb	-0.026926985
183	0xbd116432	-0.035495944
184	0xbcc22cf9	-0.023703085
185	0xbd0cd6a0	-0.03438437
186	0xbd0afdac	-0.033933327
187	0xbd1f4c08	-0.03889087
188	0xbd211422	-0.03932584
189	0x3c94b9c9	0.018154996
190	0x3d1a4e7b	0.0376725
191	0xbb7446fd	-0.0037273758
192	0xbc8074db	-0.015680721
193	0x3b9b9e4c	0.004749095
194	0x3bbdc3c6	0.0057911603
195	0xbc67dc17	-0.014151595
196	0x3ce592ca	0.028024096
197	0xba726483	-0.0009246545
198	0x3c5536e1	0.013013572
199	0xbc817bc4	-0.015806086
200	0xbc8c6d4d	-0.017141962
201	0xbc3ae6b6	-0.011407545
202	0xbcc415b4	-0.02393613
203	0xbd1dbfbc	-0.03851293
204	0x3c45b8e1	0.012068004
205	0xbce0d158	-0.027443573
206	0xbc6afa5e	-0.014341919
207	0xbc966017	-0.018356366
208	0xbd157269	-0.036486063
209	0x3c861cac	0.016371094
210	0x3c6be66f	0.014398201
211	0x3c941490	0.018076211
212	0xbd1561e0	-0.036470294
213	0xbcb893dc	-0.022531442
214	0xbc8d4075	-0.01724265
215	0xbcbf1e5b	-0.023329904
216	0xbd0585d3	-0.032598328
217	0xbcf7beb8	-0.030242309
218	0xbbe06417	-0.006847869
219	0xbc8879b7	-0.0166596
220	0xbd256d4d	-0.04038744
221	0xbc880670	-0.016604632
222	0xbcc99834	-0.024608709
223	0x3b62ccf2	0.003460702
224	0xbcfa0818	-0.030521438
225	0x3caf8512	0.021425758
226	0xbbde8255	-0.006790439
227	0x3c9e279e	0.019306
228	0xbc895e88	-0.016768709
229	0x3c734848	0.014848776
230	0x3c47fc11	0.012206093
231	0xbc9bc311	-0.019013913
232	0xbd40955d	-0.047017444
233	0xbbcfcf21	-0.0063418304
234	0xbd58c6c0	-0.052923918
235	0xbca404d5	-0.020021835
236	0xbcfbc96c	-0.030735694
237	0x3ca09300	0.019601345
238	0xbcfc6ba1	-0.03081304
239	0x3cb445aa	0.022005875
240	0x3d0b1711	0.033957545
241	0xbccc3e7e	-0.024932142
242	0x3d164b77	0.036693063
243	0xbc9b67cb	-0.01897039
244	0xbd54053e	-0.05176281
245	0xbcab1488	-0.020883814
246	0xbcd296a9	-0.025706606
247	0xbcb314f4	-0.021860577
248	0xbcd52a36	-0.026021104
249	0xbc91475a	-0.017734218
250	0xbc7be835	-0.015375187
251	0xbd0bb25a	-0.034105636
252	0xbcbd7768	-0.023128226
253	0xbc8d5684	-0.017253168
254	0xbc9b1767	-0.018932058
255	0x3cb87e28	0.022521093

BinaryLinearLayer1.bias f4 [128]
0	0x3cbb973a	0.022899259
1	0xbbee5869	-0.007273723
2	0xbc587b6c	-0.01321302
3	0x3cdb36aa	0.026759464
4	0x3c968636	0.018374544
5	0xbca61664	-0.020274349
6	0xbca38f18	-0.019965693
7	0xbc7abf2c	-0.015304368
8	0x3c9b6b04	0.018971927
9	0x3ce7f9c6	0.028317343
10	0xbd24a4d8	-0.04019627
11	0xbc5e09be	-0.013552127
12	0xbcb31284	-0.021859415
13	0x3cc83477	0.02443908
14	0x3ccd7754	0.025081314
15	0x3cef303c	0.029197805
16	0xbc0b9e2b	-0.008521597
17	0x3cc12f48	0.023582116
18	0x3d04afa4	0.032394066
19	0xbc4d8b8d	-0.0125454785
20	0xbbc11f1c	-0.005893601
21	0xbd137799	-0.03600273
22	0xbcf97825	-0.030452797
23	0x3cca07fc	0.02466201
24	0xbd04584c	-0.03231077
25	0xbbc2c354	-0.005943695
26	0xbc5e7a86	-0.013579017
27	0x3ae955c3	0.0017802048
28	0x3b961d6f	0.0045811455
29	0x3ce2d7b9	0.027690755
30	0xbb923727	-0.004462141
31	0x3bbeda24	0.005824344
32	0xbbc0ab58	-0.0058798008
33	0x3a86d31c	0.0010286304
34	0x3c807dd5	0.015685001
35	0xbd0cddd4	-0.03439124
36	0x3c52b765	0.0128611075
37	0xbca45d27	-0.02006395
38	0xbc783947	-0.015150375
39	0xbcbf4403	-0.02334786
40	0xbba0d0e3	-0.0049077137
41	0xbcea4b21	-0.028600277
42	0x3c0b00e7	0.008484102
43	0x3c9c241e	0.01906019
44	0xbc38a6b1	-0.011270211
45	0xbcbfd386	-0.023416292
46	0xbccea7a6	-0.025226425
47	0xbc22d208	-0.009937771
48	0xbc1a27e8	-0.009408928
49	0x3c923094	0.01784543
50	0x3cc31406	0.023813259
51	0x3b6ec5ef	0.0036433896
52	0x3ca53512	0.020166907
53	0x3badf2c2	0.00530848
54	0xbd009e33	-0.03140087
55	0xbc655aa1	-0.013998658
56	0x3c6eb83e	0.014570294
57	0x3cf54ace	0.029942896
58	0x3c770325	0.015076433
59	0x3cd3b1af	0.025841562
60	0x3c69ca0c	0.014269363
61	0xbc7c39db	-0.015394653
62	0xbc4abb4d	-0.012373758
63	0xbbfbb9b9	-0.007682052
64	0x3bb8351a	0.0056215646
65	0x3c6708b9	0.014101201
66	0x3c9bded6	0.019027155
67	0x3cbc3e36	0.022978883
68	0xbc97ca6d	-0.018529141
69	0x3cb940d2	0.022613917
70	0x3bd7ae71	0.0065820743
71	0x3ca20549	0.01977791
72	0x3d3346cf	0.0437687
73	0x3ce35a5f	0.027753053
74	0xbca75768	-0.02042742
75	0x3bf7de31	0.007564329
76	0xbc9a3a90	-0.018826753
77	0x3cac26c2	0.021014575
78	0xbcdf1197	-0.027230067
79	0xbd119bf7	-0.03554913
80	0xbc5c5a90	-0.013449326
81	0xbce5316d	-0.02797767
82	0xbc5a5ab0	-0.013327286
83	0xbd1ffeb4	-0.039061263
84	0xbc9a0483	-0.01880098
85	0xb8a1a04c	-7.706936e-05
86	0xbbab41ed	-0.005226365
87	0x3c0b6997	0.008509061
88	0xbd095463	-0.033527743
89	0xbcb4bc19	-0.022062348
90	0x3a5fdd42	0.0008539745
91	0x3cf991d5	0.030465046
92	0xbcea4704	-0.028598316
93	0x3cc8371a	0.024440337
94	0xbc8bb6d1	-0.017054947
95	0x3a4aea09	0.00077405624
96	0xbd155430	-0.03645724
97	0x3c8cb11d	0.017174298
98	0xbcf1f733	-0.02953682
99	0x3cb15952	0.021649037
100	0xbc65f350	-0.014035061
101	0xbc948adb	-0.018132618
102	0x3c526934	0.012842465
103	0xbc9c6d0c	-0.019094966
104	0x3c49dea2	0.012321146
105	0xbc714448	-0.014725752
106	0xbcbaa219	-0.022782372
107	0xbcb20548	-0.021731034
108	0x3cda8350	0.026673943
109	0xbafd0c7f	-0.0019306092
110	0xbca526a5	-0.020160029
111	0x3bb12b62	0.005406783
112	0x3d00507d	0.03132676
113	0x3cc9e674	0.024646021
114	0xbacf8725	-0.0015833123
115	0xbc4d4d6e	-0.012530668
116	0xbb06476a	-0.0020489343
117	0x3a9434b3	0.001130721
118	0x3ccd3ea7	0.025054289
119	0xbc12368d	-0.008924139
120	0x3c021ce8	0.007941462
121	0xbbf8d349	-0.0075935465
122	0x3ba7da4e	0.0051224595
123	0xbceaee5f	-0.028678117
124	0xbc4c96be	-0.012487112
125	0x3c61c549	0.013779947
126	0x3cb5fe3b	0.022215953
127	0xbca14913	-0.019688165

BinaryLinearLayer2.weight f4 [10, 128]
0	0x3da6a5d2	0.081370965
1	0xbd852775	-0.065016665
2	0x3d0ec7bd	0.034858454
3	0xbd5f8cae	-0.054577522
4	0x3d53e394	0.051730707
5	0x3c6ad0c0	0.014331996
6	0xbcd043d6	-0.025422972
7	0x3dcc81ee	0.099857196
8	0xbd7843b4	-0.06061144
9	0xbd057da9	-0.032590542
10	0xbd790712	-0.06079776
11	0x3da5db7b	0.08098503
12	0xbd9202a4	-0.0712941
13	0xbc862815	-0.016376534
14	0xbd8ced03	-0.06881144
15	0xbd142c89	-0.036175285
16	0xbd63a1dd	-0.055574287
17	0xbd765570	-0.060140073
18	0x3d9598ab	0.0730451
19	0xbd3aa520	-0.04556763
20	0x3d43d6ce	0.047812276
21	0xbda813bc	-0.08206889
22	0xbccfd16f	-0.02536842
23	0xbd2fdab7	-0.042933192
24	0xbd1ba98d	-0.038003493
25	0xbd87f36d	-0.06638227
26	0x3d69f7ac	0.057120964
27	0xbd14e550	-0.036351502
28	0x3cc8a574	0.024492957
29	0x3cbdfb06	0.023190986
30	0x3d7efb99	0.06225166
31	0xbd31b3d9	-0.043384407
32	0xbd2250e5	-0.03962793
33	0xbccc4456	-0.024934929
34	0x3ddf9b89	0.10918338
35	0xbd6ca502	-0.05777455
36	0xbd39128b	-0.0451837
37	0x3d35a37f	0.044345375
38	0xbda39654	-0.07987657
39	0xbd8616ab	-0.06547292
40	0xbd2f2eca	-0.04276923
41	0x3ddc204d	0.107483484
42	0x3d4e5990	0.050378382
43	0xbcb0103c	-0.021492116
44	0xbd30f3be	-0.0432012
45	0xbd0707ca	-0.032966413
46	0x3d937ec5	0.07201914
47	0x3d5d7e4e	0.05407553
48	0xbd398ec4	-0.045302168
49	0x3cb0ec82	0.02159715
50	0xbdaa0848	-0.08302361
51	0xbd470ead	-0.04859798
52	0xbce385af	-0.027773706
53	0xbd5d3d5d	-0.0540136
54	0xbca82740	-0.020526528
55	0xbd51f32e	-0.051257305
56	0xbd9e8fb5	-0.07742254
57	0xbd15b26f	-0.03654712
58	0xbdb15b4e	-0.08659993
59	0x3cb000ee	0.021484818
60	0xbd51a6a6	-0.05118432
61	0xbd30e918	-0.043191046
62	0xbce18f4e	-0.027534153
63	0xbd22678b	-0.039649528
64	0x3e1d2b30	0.15348506
65	0xbd04b178	-0.03239581
66	0xbd4efd26	-0.05053439
67	0xbdb1b9c7	-0.08678012
68	0xbd835a93	-0.0641376
69	0xbda0249d	-0.078194834
70	0xbd8638c6	-0.065537974
71	0x3dbaae35	0.091152586
72	0xbd0e55ec	-0.03474991
73	0xbdacc0e2	-0.08435227
74	0x3dbe90f7	0.093049936
75	0xbd018c33	-0.031627845
76	0xbdb1c1c4	-0.08679536
77	0xbd570937	-0.052499022
78	0x3dd8a551	0.105784066
79	0x3cfaf8c4	0.030636199
80	0x3d92d021	0.07168604
81	0x3d92f24d	0.071751215
82	0x3e015458	0.12629831
83	0xbd4da2ef	-0.050204214
84	0xbda745ee	-0.08167635
85	0x3d9d2973	0.076739214
86	0xbd230c78	-0.039806813
87	0x3dc424e2	0.09577347
88	0xbd3ba566	-0.045812033
89	0x3de58f6c	0.11208996
90	0x3e193b90	0.14964128
91	0xbdbf81f9	-0.09350962
92	0x3d80d0ec	0.06289849
93	0xbd117fe5	-0.03552236
94	0x3cb84ee1	0.02249855
95	0x3dde3061	0.10849071
96	0xbd9fe38a	-0.078070715
97	0x3ce8d3d1	0.028421314
98	0xbc4cbf13	-0.0124967275
99	0xbdaaf35b	-0.083471976
100	0xbc661b79	-0.014044636
101	0x3d109594	0.0352989
102	0xbd8f7176	-0.07004063
103	0x3d3d54f8	0.04622361
104	0xbd0ade4e	-0.033903413
105	0x3d0e1bc9	0.034694467
106	0x3d5e4dfc	0.05427359
107	0xbcdae514	-0.026720561
108	0xbd8bbd9f	-0.06823277
109	0xbd9b5dfe	-0.07586287
110	0x3d07d5e3	0.033162963
111	0xbd5c1cec	-0.05373852
112	0xbdc01ad2	-0.093801156
113	0xbd3c9ea3	-0.046049725
114	0x3d457087	0.048203018
115	0x3d98bb7b	0.07457634
116	0xbcf3da2b	-0.029767117
117	0xbcb76c2d	-0.02239045
118	0xbd9d338e	-0.07675849
119	0x3da6e9a3	0.081500314
120	0xbc5a3575	-0.013318409
121	0x3d3541f7	0.044252362
122	0x3d22b58b	0.039723914
123	0xbd5bf6d8	-0.053702205
124	0xbd540f72	-0.051772542
125	0x3dcd9214	0.10037628
126	0x3d216ee8	0.03941241
127	0xbd4f0d0a	-0.050549544
128	0xbd8b1ce5	-0.067926206
129	0xbe3ce911	-0.18448283
130	0xbd9afc7e	-0.0756769
131	0x3ceab9c7	0.028653039
132	0xbcac879c	-0.021060757
133	0xbd39a632	-0.04532451
134	0x3cfe2b08	0.031026378
135	0x3dbf6477	0.09345334
136	0xbd3a5fe4	-0.045501605
137	0x3da8fda5	0.08251504
138	0x3d3096c1	0.04311252
139	0xbd1ee26e	-0.03879016
140	0x3d8f0668	0.06983644
141	0xbcfc05b6	-0.030764442
142	0x3cc5a80d	0.024127984
143	0x3dbbc2d0	0.09168017
144	0x3ddd3e4f	0.108029
145	0x3c0e2df9	0.008677953
146	0x3d07e776	0.033179723
147	0xbd909873	-0.070603274
148	0xbd7031e9	-0.058641348
149	0xbdead52d	-0.11466441
150	0xbcec87ac	-0.028873287
151	0x3d095420	0.033527493
152	0x3dd27496	0.10276143
153	0x3da4a6f1	0.08039654
154	0xbcfa3533	-0.030542945
155	0x3da4a45b	0.08039161
156	0xbd2b3a90	-0.041803896
157	0xbd925596	-0.071452305
158	0xbc67977d	-0.014135239
159	0xbcf572b1	-0.029961916
160	0xbde58845	-0.11207632
161	0xbd57b6e8	-0.052664667
162	0xbca48cbc	-0.020086639
163	0x3d86ebf4	0.06587973
164	0xbdba71ba	-0.09103723
165	0xbd209ea5	-0.039213795
166	0xbd0ccc15	-0.034374315
167	0xbd17515b	-0.03694282
168	0x3da0a26a	0.07843478
169	0xbdaacc81	-0.08339787
170	0xbd3bbb39	-0.045832846
171	0x3d3870e1	0.045029525
172	0xbd7ae644	-0.061254755
173	0x3d110fc5	0.03541543
174	0x3c46ce1e	0.012134103
175	0xbd881b3f	-0.06645822
176	0xbd43ce47	-0.047804143
177	0x3da8167a	0.08207412
178	0xbdd76db1	-0.10518969
179	0x3d583128	0.052781254
180	0xbcdcb9ed	-0.026944125
181	0x3d031a1a	0.032007314
182	0xbd814a99	-0.063130565
183	0xbca57f4f	-0.020202307
184	0x3d23ab14	0.039958075
185	0xbd0f5f30	-0.035002887
186	0xbda7f36d	-0.08200727
187	0xbc44c3bf	-0.01200956
188	0x3bc4556d	0.005991629
189	0x3da9c68c	0.08289823
190	0xbd0a82af	-0.033816036
191	0x3dfe6621	0.12421823
192	0xbda2d775	-0.079512514
193	0x3d71e206	0.059053443
194	0xbd133081	-0.03593493
195	0x3cd4da43	0.025982982
196	0x3d41ca21	0.047311906
197	0x3d1e5376	0.038653813
198	0x3ce2134d	0.027597094
199	0xbcf09e3f	-0.029372333
200	0x3d8594a7	0.06522494
201	0x3cf53abc	0.029935233
202	0x3da6879f	0.081313364
203	0x3d8bcd18	0.06826228
204	0x3d79a687	0.06094983
205	0x3b74ff1b	0.00373835
206	0xbc0c6c23	-0.008570704
207	0xbd63a4a6	-0.055576943
208	0xbd6a368c	-0.057180926
209	0x3d8ecc1b	0.06972524
210	0xbd18f74d	-0.03734522
211	0xbcf7e2c8	-0.030259505
212	0xbda4055d	-0.080088355
213	0xbd8fbed1	-0.07018817
214	0x3d8c3576	0.06846134
215	0xbda0b844	-0.07847646
216	0x3d77ba95	0.060480673
217	0xbd4e4891	-0.050362173
218	0xbd3b4c55	-0.045727093
219	0xbe190d9b	-0.14946596
220	0x3d893d68	0.067011654
221	0xbd998c6e	-0.07497488
222	0x3dbf72a1	0.093480356
223	0xbd23b11f	-0.039963838
224	0xbe0694df	-0.13142727
225	0xbd74bf94	-0.059753016
226	0xbd311ba6	-0.04323926
227	0xbd7f871d	-0.062384713
228	0xbd1593fa	-0.036518075
229	0xbba3e931	-0.005002164
230	0x3da4a97c	0.08040139
231	0x3d5fa3af	0.05459946
232	0xbd49464d	-0.04913931
233	0xbd96e4e2	-0.07367875
234	0xbdaf1b19	-0.0855009
235	0xbd882192	-0.06647028
236	0x3cf66591	0.030077728
237	0xbd155981	-0.03646231
238	0xbd64482d	-0.055732895
239	0xbd3c7d42	-0.046017893
240	0xbbceb7ca	-0.0063085305
241	0x3d950cf3	0.072778605
242	0xbd182045	-0.03714015
243	0xbd5ea4ca	-0.054356374
244	0xbd4645a4	-0.04840626
245	0x3da2aa8d	0.07942686
246	0x3d99f316	0.07517068
247	0x3d37d2c9	0.044878755
248	0xbc9097f2	-0.017650578
249	0xbd02daa1	-0.031946782
250	0xbda95c68	-0.08269578
251	0x3d9fef4e	0.078093156
252	0xbd3fc5f8	-0.046819657
253	0x3cd0ba98	0.0254796
254	0xbd24a2b4	-0.04019423
255	0xbd1d0ae5	-0.038340468

BinaryLinearLayer2.bias f4 [10]
0	0x3dae93dd	0.085242964
1	0xbd4fabd1	-0.050700966
2	0xbd622b59	-0.05521712
3	0x3d50bf68	0.05096379
4	0xbcf91ab5	-0.030408243
5	0xbca1e6a5	-0.0197633
6	0xbdbfbb2b	-0.09361871
7	0xbd2c70f7	-0.04209992
8	0x3e80ea28	0.25178647
9	0xbde54b14	-0.11195961

stack.0.weight f4 [128, 784]
0	0xbc36578a	-0.011129269
1	0xbc7dabfc	-0.015482899
2	0xbcc0484c	-0.023471974
3	0xbca633a5	-0.020288298
4	0xbc3af920	-0.011411935
5	0xbcefe5ca	-0.029284377
6	0x3b0f19f0	0.0021835528
7	0x3ceb74e2	0.028742258
8	0x3ceeb78e	0.02914026
9	0xbca501f5	-0.020142535
10	0x3c516e98	0.012782715
11	0xbcf60ff8	-0.030036911
12	0x3a254940	0.00063051656
13	0x3cd8515a	0.026405979
14	0x3cacdb7e	0.021100756
15	0x37c9b800	2.4046749e-05
16	0x3c16aba8	0.0091961995
17	0xbc9171f0	-0.017754525
18	0xbcd61fec	-0.026138268
19	0x3c43f9e0	0.01196143
20	0x3d09fa1b	0.033685785
21	0xbc86b430	-0.016443342
22	0x3cfc227e	0.030778166
23	0x3cc8d2cc	0.024514578
24	0x3cb05e66	0.021529388
25	0x3c797a00	0.015226841
26	0xbc985e77	-0.018599732
27	0x3cc9fdf8	0.024657235
28	0xbc9f6dec	-0.019461595
29	0x3c62ac84	0.013835076
30	0xbc8747d3	-0.01651374
31	0x3cc30c4c	0.023809575
32	0x3bdee038	0.0068016313
33	0x3cf2e672	0.0296509
34	0xbc32c96e	-0.010912282
35	0x3ccc542a	0.024942476
36	0x3cadd1ee	0.021218266
37	0x3bb42118	0.005497109
38	0xbcc4dfc3	-0.02403248
39	0x3d091d1b	0.033475023
40	0x3c3d524b	0.011555265
41	0x3c2ee93c	0.010675725
42	0xbb5a2d9f	-0.0033291352
43	0x3b988124	0.0046540666
44	0xbb6a8d22	-0.0035789688
45	0x3ca4eaa7	0.020131422
46	0xba8378c2	-0.0010030495
47	0x3ca8a8cf	0.020588307
48	0x3cbb66cb	0.022876164
49	0x3c9a7648	0.018855229
50	0x3cc301a8	0.0238045
51	0x3b8e3b10	0.004340537
52	0x3c254268	0.010086633
53	0x3c92a76c	0.017902099
54	0x3c9734d0	0.0184578
55	0x3d022233	0.031770896
56	0x3c4f12a0	0.012638718
57	0xbb4fa050	-0.0031681247
58	0x3cb08bae	0.02155098
59	0xbbfe6a2c	-0.0077641215
60	0x3cfa72aa	0.030572254
61	0x3ce21a39	0.027600395
62	0x3b4a6897	0.0030885094
63	0x3c18c35f	0.009323924
64	0xbcba9db8	-0.022780284
65	0xbc847a07	-0.016171468
66	0xbc16a60f	-0.009194865
67	0xbb58ecaf	-0.0033100059
68	0xbc8314ad	-0.01600107
69	0xbcf3c50f	-0.02975705
70	0x3c7393c7	0.014866776
71	0x3cbab2e2	0.022790376
72	0x3c15a03e	0.009132443
73	0xbb428fb2	-0.00296877
74	0x3b94675c	0.004528923
75	0x3cb690d7	0.022285862
76	0xbceb1671	-0.028697224
77	0xbbfb99c4	-0.0076782424
78	0x3d063883	0.032768738
79	0xbc4a5e7c	-0.012351628
80	0x3c2195a4	0.009862337
81	0xbc50ca6a	-0.012743572
82	0xbd07330b	-0.033007663
83	0x3cd842e8	0.02639909
84	0x3cfbf0ae	0.030754413
85	0xbca748e3	-0.020420497
86	0xbc9b6367	-0.018968297
87	0x3d084120	0.033265233
88	0xbcfe7680	-0.031062365
89	0x3cb8d7b7	0.022563798
90	0xbc5d538f	-0.013508691
91	0x3b6dde8b	0.0036295976
92	0xbc92e13b	-0.017929664
93	0x3bc34164	0.005958723
94	0x3c8bd053	0.01706711
95	0x3cd5323b	0.026024928
96	0x3a43bbf8	0.0007466669
97	0x3cc3d3c0	0.023904681
98	0x3bb6f650	0.005583562
99	0xbb3ba5d7	-0.0028632784
100	0xbd2fb632	-0.042898364
101	0xbcba7d83	-0.022764927
102	0x3c91cb47	0.017797126
103	0xbd119d02	-0.035550125
104	0x3c2254eb	0.009907941
105	0x3b1119e0	0.0022140667
106	0xbce77de1	-0.028258266
107	0x3cf46cfa	0.02983712
108	0xbc20f57c	-0.009824153
109	0xbc6efef8	-0.0145871565
110	0x3c113390	0.008862391
111	0x3ca2806a	0.019836623
112	0x3c671974	0.01410519
113	0x3c6c6308	0.014427908
114	0xbcb59dde	-0.022170004
115	0x3cfb1e6e	0.030654158
116	0x3bdf1be3	0.0068087443
117	0xbbc01fad	-0.005863151
118	0xbcc1c053	-0.023651278
119	0x3c1c76db	0.009549822
120	0xbc70a335	-0.014687349
121	0xbb9c57dd	-0.0047712163
122	0xbcb19ab1	-0.021680208
123	0x3bd30226	0.006439465
124	0xbc8a4b8f	-0.016881732
125	0xbbd368d5	-0.006451706
126	0xbca42f56	-0.020042103
127	0xbca77deb	-0.020445785
128	0xbb9c38eb	-0.0047675273
129	0xbcbae6bc	-0.0228151
130	0xbd08f2dc	-0.033434734
131	0xbc65188d	-0.013982904
132	0xbd055cab	-0.03255908
133	0x3b61dfc2	0.0034465645
134	0xbd106e74	-0.035261586
135	0x3c07efd7	0.008296928
136	0x3c49d66b	0.012319188
137	0x3cfbe7ff	0.030750273
138	0x3bf0d4eb	0.0073496005
139	0x3c89e014	0.016830482
140	0xbc505358	-0.012715183
141	0xbcd041ba	-0.025421966
142	0x3ce83e4d	0.02835002
143	0xbca04b99	-0.019567298
144	0x3cfb2c4a	0.030660767
145	0xbb680bdd	-0.0035407462
146	0x3c0f8c16	0.008761426
147	0x3c2c71d4	0.010525186
148	0xbd1d4d3d	-0.03840374
149	0xbc613fe3	-0.013748142
150	0xbc9c37ba	-0.019069541
151	0xbd400be7	-0.04688635
152	0xbbbc635d	-0.0057491497
153	0x3cdd255d	0.026995355
154	0xbd1fbe99	-0.039000127
155	0xbcbdf304	-0.023187168
156	0x3cc7e67c	0.024401896
157	0xbd2317f6	-0.039817773
158	0xbcfff580	-0.031244993
159	0xbcd0ba8a	-0.025479574
160	0xbce651ba	-0.028115142
161	0xbca6182e	-0.020275202
162	0xbd08bfd6	-0.033386074
163	0xbcd0e3fd	-0.025499338
164	0xbc857ddc	-0.016295366
165	0xbccc8d3f	-0.024969695
166	0xbcd62f63	-0.026145643
167	0x3bf61958	0.0075103454
168	0x3b883838	0.0041570924
169	0xbb5b4e60	-0.0033463463
170	0xbc17b5e3	-0.009259674
171	0x3c350434	0.011048365
172	0xbcf83cb4	-0.030302383
173	0xbd16dfac	-0.036834404
174	0xbc869f87	-0.01643349
175	0xbcdde9d3	-0.027089035
176	0x3c722f92	0.014781849
177	0xbcabbf48	-0.020965233
178	0xbd0fcf4a	-0.035109796
179	0x3c53ac6c	0.012919527
180	0xbca0b24c	-0.019616269
181	0x3c8910e8	0.016731694
182	0xbcdc95fb	-0.026926985
183	0xbd116432	-0.035495944
184	0xbcc22cf9	-0.023703085
185	0xbd0cd6a0	-0.03438437
186	0xbd0afdac	-0.033933327
187	0xbd1f4c08	-0.03889087
188	0xbd211422	-0.03932584
189	0x3c94b9c9	0.018154996
190	0x3d1a4e7b	0.0376725
191	0xbb7446fd	-0.0037273758
192	0xbc8074db	-0.015680721
193	0x3b9b9e4c	0.004749095
194	0x3bbdc3c6	0.0057911603
195	0xbc67dc17	-0.014151595
196	0x3ce592ca	0.028024096
197	0xba726483	-0.0009246545
198	0x3c5536e1	0.013013572
199	0xbc817bc4	-0.015806086
200	0xbc8c6d4d	-0.017141962
201	0xbc3ae6b6	-0.011407545
202	0xbcc415b4	-0.02393613
203	0xbd1dbfbc	-0.03851293
204	0x3c45b8e1	0.012068004
205	0xbce0d158	-0.027443573
206	0xbc6afa5e	-0.014341919
207	0xbc966017	-0.018356366
208	0xbd157269	-0.036486063
209	0x3c861cac	0.016371094
210	0x3c6be66f	0.014398201
211	0x3c941490	0.018076211
212	0xbd1561e0	-0.036470294
213	0xbcb893dc	-0.022531442
214	0xbc8d4075	-0.01724265
215	0xbcbf1e5b	-0.023329904
216	0xbd0585d3	-0.032598328
217	0xbcf7beb8	-0.030242309
218	0xbbe06417	-0.006847869
219	0xbc8879b7	-0.0166596
220	0xbd256d4d	-0.04038744
221	0xbc880670	-0.016604632
222	0xbcc99834	-0.024608709
223	0x3b62ccf2	0.003460702
224	0xbcfa0818	-0.030521438
225	0x3caf8512	0.021425758
226	0xbbde8255	-0.006790439
227	0x3c9e279e	0.019306
228	0xbc895e88	-0.016768709
229	0x3c734848	0.014848776
230	0x3c47fc11	0.012206093
231	0xbc9bc311	-0.019013913
232	0xbd40955d	-0.047017444
233	0xbbcfcf21	-0.0063418304
234	0xbd58c6c0	-0.052923918
235	0xbca404d5	-0.020021835
236	0xbcfbc96c	-0.030735694
237	0x3ca09300	0.019601345
238	0xbcfc6ba1	-0.03081304
239	0x3cb445aa	0.022005875
240	0x3d0b1711	0.033957545
241	0xbccc3e7e	-0.024932142
242	0x3d164b77	0.036693063
243	0xbc9b67cb	-0.01897039
244	0xbd54053e	-0.05176281
245	0xbcab1488	-0.020883814
246	0xbcd296a9	-0.025706606
247	0xbcb314f4	-0.021860577
248	0xbcd52a36	-0.026021104
249	0xbc91475a	-0.017734218
250	0xbc7be835	-0.015375187
251	0xbd0bb25a	-0.034105636
252	0xbcbd7768	-0.023128226
253	0xbc8d5684	-0.017253168
254	0xbc9b1767	-0.018932058
255	0x3cb87e28	0.022521093

stack.0.bias f4 [128]
0	0x3cbb973a	0.022899259
1	0xbbee5869	-0.007273723
2	0xbc587b6c	-0.01321302
3	0x3cdb36aa	0.026759464
4	0x3c968636	0.018374544
5	0xbca61664	-0.020274349
6	0xbca38f18	-0.019965693
7	0xbc7abf2c	-0.015304368
8	0x3c9b6b04	0.018971927
9	0x3ce7f9c6	0.028317343
10	0xbd24a4d8	-0.04019627
11	0xbc5e09be	-0.013552127
12	0xbcb31284	-0.021859415
13	0x3cc83477	0.02443908
14	0x3ccd7754	0.025081314
15	0x3cef303c	0.029197805
16	0xbc0b9e2b	-0.008521597
17	0x3cc12f48	0.023582116
18	0x3d04afa4	0.032394066
19	0xbc4d8b8d	-0.0125454785
20	0xbbc11f1c	-0.005893601
21	0xbd137799	-0.03600273
22	0xbcf97825	-0.030452797
23	0x3cca07fc	0.02466201
24	0xbd04584c	-0.03231077
25	0xbbc2c354	-0.005943695
26	0xbc5e7a86	-0.013579017
27	0x3ae955c3	0.0017802048
28	0x3b961d6f	0.0045811455
29	0x3ce2d7b9	0.027690755
30	0xbb923727	-0.004462141
31	0x3bbeda24	0.005824344
32	0xbbc0ab58	-0.0058798008
33	0x3a86d31c	0.0010286304
34	0x3c807dd5	0.015685001
35	0xbd0cddd4	-0.03439124
36	0x3c52b765	0.0128611075
37	0xbca45d27	-0.02006395
38	0xbc783947	-0.015150375
39	0xbcbf4403	-0.02334786
40	0xbba0d0e3	-0.0049077137
41	0xbcea4b21	-0.028600277
42	0x3c0b00e7	0.008484102
43	0x3c9c241e	0.01906019
44	0xbc38a6b1	-0.011270211
45	0xbcbfd386	-0.023416292
46	0xbccea7a6	-0.025226425
47	0xbc22d208	-0.009937771
48	0xbc1a27e8	-0.009408928
49	0x3c923094	0.01784543
50	0x3cc31406	0.023813259
51	0x3b6ec5ef	0.0036433896
52	0x3ca53512	0.020166907
53	0x3badf2c2	0.00530848
54	0xbd009e33	-0.03140087
55	0xbc655aa1	-0.013998658
56	0x3c6eb83e	0.014570294
57	0x3cf54ace	0.029942896
58	0x3c770325	0.015076433
59	0x3cd3b1af	0.025841562
60	0x3c69ca0c	0.014269363
61	0xbc7c39db	-0.015394653
62	0xbc4abb4d	-0.012373758
63	0xbbfbb9b9	-0.007682052
64	0x3bb8351a	0.0056215646
65	0x3c6708b9	0.014101201
66	0x3c9bded6	0.019027155
67	0x3cbc3e36	0.022978883
68	0xbc97ca6d	-0.018529141
69	0x3cb940d2	0.022613917
70	0x3bd7ae71	0.0065820743
71	0x3ca20549	0.01977791
72	0x3d3346cf	0.0437687
73	0x3ce35a5f	0.027753053
74	0xbca75768	-0.02042742
75	0x3bf7de31	0.007564329
76	0xbc9a3a90	-0.018826753
77	0x3cac26c2	0.021014575
78	0xbcdf1197	-0.027230067
79	0xbd119bf7	-0.03554913
80	0xbc5c5a90	-0.013449326
81	0xbce5316d	-0.02797767
82	0xbc5a5ab0	-0.013327286
83	0xbd1ffeb4	-0.039061263
84	0xbc9a0483	-0.01880098
85	0xb8a1a04c	-7.706936e-05
86	0xbbab41ed	-0.005226365
87	0x3c0b6997	0.008509061
88	0xbd095463	-0.033527743
89	0xbcb4bc19	-0.022062348
90	0x3a5fdd42	0.0008539745
91	0x3cf991d5	0.030465046
92	0xbcea4704	-0.028598316
93	0x3cc8371a	0.024440337
94	0xbc8bb6d1	-0.017054947
95	0x3a4aea09	0.00077405624
96	0xbd155430	-0.03645724
97	0x3c8cb11d	0.017174298
98	0xbcf1f733	-0.02953682
99	0x3cb15952	0.021649037
100	0xbc65f350	-0.014035061
101	0xbc948adb	-0.018132618
102	0x3c526934	0.012842465
103	0xbc9c6d0c	-0.019094966
104	0x3c49dea2	0.012321146
105	0xbc714448	-0.014725752
106	0xbcbaa219	-0.022782372
107	0xbcb20548	-0.021731034
108	0x3cda8350	0.026673943
109	0xbafd0c7f	-0.0019306092
110	0xbca526a5	-0.020160029
111	0x3bb12b62	0.005406783
112	0x3d00507d	0.03132676
113	0x3cc9e674	0.024646021
114	0xbacf8725	-0.0015833123
115	0xbc4d4d6e	-0.012530668
116	0xbb06476a	-0.0020489343
117	0x3a9434b3	0.001130721
118	0x3ccd3ea7	0.025054289
119	0xbc12368d	-0.008924139
120	0x3c021ce8	0.007941462
121	0xbbf8d349	-0.0075935465
122	0x3ba7da4e	0.0051224595
123	0xbceaee5f	-0.028678117
124	0xbc4c96be	-0.012487112
125	0x3c61c549	0.013779947
126	0x3cb5fe3b	0.022215953
127	0xbca14913	-0.019688165

stack.2.weight f4 [10, 128]
0	0x3da6a5d2	0.081370965
1	0xbd852775	-0.065016665
2	0x3d0ec7bd	0.034858454
3	0xbd5f8cae	-0.054577522
4	0x3d53e394	0.051730707
5	0x3c6ad0c0	0.014331996
6	0xbcd043d6	-0.025422972
7	0x3dcc81ee	0.099857196
8	0xbd7843b4	-0.06061144
9	0xbd057da9	-0.032590542
10	0xbd790712	-0.06079776
11	0x3da5db7b	0.08098503
12	0xbd9202a4	-0.0712941
13	0xbc862815	-0.016376534
14	0xbd8ced03	-0.06881144
15	0xbd142c89	-0.036175285
16	0xbd63a1dd	-0.055574287
17	0xbd765570	-0.060140073
18	0x3d9598ab	0.0730451
19	0xbd3aa520	-0.04556763
20	0x3d43d6ce	0.047812276
21	0xbda813bc	-0.08206889
22	0xbccfd16f	-0.02536842
23	0xbd2fdab7	-0.042933192
24	0xbd1ba98d	-0.038003493
25	0xbd87f36d	-0.06638227
26	0x3d69f7ac	0.057120964
27	0xbd14e550	-0.036351502
28	0x3cc8a574	0.024492957
29	0x3cbdfb06	0.023190986
30	0x3d7efb99	0.06225166
31	0xbd31b3d9	-0.043384407
32	0xbd2250e5	-0.03962793
33	0xbccc4456	-0.024934929
34	0x3ddf9b89	0.10918338
35	0xbd6ca502	-0.05777455
36	0xbd39128b	-0.0451837
37	0x3d35a37f	0.044345375
38	0xbda39654	-0.07987657
39	0xbd8616ab	-0.06547292
40	0xbd2f2eca	-0.04276923
41	0x3ddc204d	0.107483484
42	0x3d4e5990	0.050378382
43	0xbcb0103c	-0.021492116
44	0xbd30f3be	-0.0432012
45	0xbd0707ca	-0.032966413
46	0x3d937ec5	0.07201914
47	0x3d5d7e4e	0.05407553
48	0xbd398ec4	-0.045302168
49	0x3cb0ec82	0.02159715
50	0xbdaa0848	-0.08302361
51	0xbd470ead	-0.04859798
52	0xbce385af	-0.027773706
53	0xbd5d3d5d	-0.0540136
54	0xbca82740	-0.020526528
55	0xbd51f32e	-0.051257305
56	0xbd9e8fb5	-0.07742254
57	0xbd15b26f	-0.03654712
58	0xbdb15b4e	-0.08659993
59	0x3cb000ee	0.021484818
60	0xbd51a6a6	-0.05118432
61	0xbd30e918	-0.043191046
62	0xbce18f4e	-0.027534153
63	0xbd22678b	-0.039649528
64	0x3e1d2b30	0.15348506
65	0xbd04b178	-0.03239581
66	0xbd4efd26	-0.05053439
67	0xbdb1b9c7	-0.08678012
68	0xbd835a93	-0.0641376
69	0xbda0249d	-0.078194834
70	0xbd8638c6	-0.065537974
71	0x3dbaae35	0.091152586
72	0xbd0e55ec	-0.03474991
73	0xbdacc0e2	-0.08435227
74	0x3dbe90f7	0.093049936
75	0xbd018c33	-0.031627845
76	0xbdb1c1c4	-0.08679536
77	0xbd570937	-0.052499022
78	0x3dd8a551	0.105784066
79	0x3cfaf8c4	0.030636199
80	0x3d92d021	0.07168604
81	0x3d92f24d	0.071751215
82	0x3e015458	0.12629831
83	0xbd4da2ef	-0.050204214
84	0xbda745ee	-0.08167635
85	0x3d9d2973	0.076739214
86	0xbd230c78	-0.039806813
87	0x3dc424e2	0.09577347
88	0xbd3ba566	-0.045812033
89	0x3de58f6c	0.11208996
90	0x3e193b90	0.14964128
91	0xbdbf81f9	-0.09350962
92	0x3d80d0ec	0.06289849
93	0xbd117fe5	-0.03552236
94	0x3cb84ee1	0.02249855
95	0x3dde3061	0.10849071
96	0xbd9fe38a	-0.078070715
97	0x3ce8d3d1	0.028421314
98	0xbc4cbf13	-0.0124967275
99	0xbdaaf35b	-0.083471976
100	0xbc661b79	-0.014044636
101	0x3d109594	0.0352989
102	0xbd8f7176	-0.07004063
103	0x3d3d54f8	0.04622361
104	0xbd0ade4e	-0.033903413
105	0x3d0e1bc9	0.034694467
106	0x3d5e4dfc	0.05427359
107	0xbcdae514	-0.026720561
108	0xbd8bbd9f	-0.06823277
109	0xbd9b5dfe	-0.07586287
110	0x3d07d5e3	0.033162963
111	0xbd5c1cec	-0.05373852
112	0xbdc01ad2	-0.093801156
113	0xbd3c9ea3	-0.046049725
114	0x3d457087	0.048203018
115	0x3d98bb7b	0.07457634
116	0xbcf3da2b	-0.029767117
117	0xbcb76c2d	-0.02239045
118	0xbd9d338e	-0.07675849
119	0x3da6e9a3	0.081500314
120	0xbc5a3575	-0.013318409
121	0x3d3541f7	0.044252362
122	0x3d22b58b	0.039723914
123	0xbd5bf6d8	-0.053702205
124	0xbd540f72	-0.051772542
125	0x3dcd9214	0.10037628
126	0x3d216ee8	0.03941241
127	0xbd4f0d0a	-0.050549544
128	0xbd8b1ce5	-0.067926206
129	0xbe3ce911	-0.18448283
130	0xbd9afc7e	-0.0756769
131	0x3ceab9c7	0.028653039
132	0xbcac879c	-0.021060757
133	0xbd39a632	-0.04532451
134	0x3cfe2b08	0.031026378
135	0x3dbf6477	0.09345334
136	0xbd3a5fe4	-0.045501605
137	0x3da8fda5	0.08251504
138	0x3d3096c1	0.04311252
139	0xbd1ee26e	-0.03879016
140	0x3d8f0668	0.06983644
141	0xbcfc05b6	-0.030764442
142	0x3cc5a80d	0.024127984
143	0x3dbbc2d0	0.09168017
144	0x3ddd3e4f	0.108029
145	0x3c0e2df9	0.008677953
146	0x3d07e776	0.033179723
147	0xbd909873	-0.070603274
148	0xbd7031e9	-0.058641348
149	0xbdead52d	-0.11466441
150	0xbcec87ac	-0.028873287
151	0x3d095420	0.033527493
152	0x3dd27496	0.10276143
153	0x3da4a6f1	0.08039654
154	0xbcfa3533	-0.030542945
155	0x3da4a45b	0.08039161
156	0xbd2b3a90	-0.041803896
157	0xbd925596	-0.071452305
158	0xbc67977d	-0.014135239
159	0xbcf572b1	-0.029961916
160	0xbde58845	-0.11207632
161	0xbd57b6e8	-0.052664667
162	0xbca48cbc	-0.020086639
163	0x3d86ebf4	0.06587973
164	0xbdba71ba	-0.09103723
165	0xbd209ea5	-0.039213795
166	0xbd0ccc15	-0.034374315
167	0xbd17515b	-0.03694282
168	0x3da0a26a	0.07843478
169	0xbdaacc81	-0.08339787
170	0xbd3bbb39	-0.045832846
171	0x3d3870e1	0.045029525
172	0xbd7ae644	-0.061254755
173	0x3d110fc5	0.03541543
174	0x3c46ce1e	0.012134103
175	0xbd881b3f	-0.06645822
176	0xbd43ce47	-0.047804143
177	0x3da8167a	0.08207412
178	0xbdd76db1	-0.10518969
179	0x3d583128	0.052781254
180	0xbcdcb9ed	-0.026944125
181	0x3d031a1a	0.032007314
182	0xbd814a99	-0.063130565
183	0xbca57f4f	-0.020202307
184	0x3d23ab14	0.039958075
185	0xbd0f5f30	-0.035002887
186	0xbda7f36d	-0.08200727
187	0xbc44c3bf	-0.01200956
188	0x3bc4556d	0.005991629
189	0x3da9c68c	0.08289823
190	0xbd0a82af	-0.033816036
191	0x3dfe6621	0.12421823
192	0xbda2d775	-0.079512514
193	0x3d71e206	0.059053443
194	0xbd133081	-0.03593493
195	0x3cd4da43	0.025982982
196	0x3d41ca21	0.047311906
197	0x3d1e5376	0.038653813
198	0x3ce2134d	0.027597094
199	0xbcf09e3f	-0.029372333
200	0x3d8594a7	0.06522494
201	0x3cf53abc	0.029935233
202	0x3da6879f	0.081313364
203	0x3d8bcd18	0.06826228
204	0x3d79a687	0.06094983
205	0x3b74ff1b	0.00373835
206	0xbc0c6c23	-0.008570704
207	0xbd63a4a6	-0.055576943
208	0xbd6a368c	-0.057180926
209	0x3d8ecc1b	0.06972524
210	0xbd18f74d	-0.03734522
211	0xbcf7e2c8	-0.030259505
212	0xbda4055d	-0.080088355
213	0xbd8fbed1	-0.07018817
214	0x3d8c3576	0.06846134
215	0xbda0b844	-0.07847646
216	0x3d77ba95	0.060480673
217	0xbd4e4891	-0.050362173
218	0xbd3b4c55	-0.045727093
219	0xbe190d9b	-0.14946596
220	0x3d893d68	0.067011654
221	0xbd998c6e	-0.07497488
222	0x3dbf72a1	0.093480356
223	0xbd23b11f	-0.039963838
224	0xbe0694df	-0.13142727
225	0xbd74bf94	-0.059753016
226	0xbd311ba6	-0.04323926
227	0xbd7f871d	-0.062384713
228	0xbd1593fa	-0.036518075
229	0xbba3e931	-0.005002164
230	0x3da4a97c	0.08040139
231	0x3d5fa3af	0.05459946
232	0xbd49464d	-0.04913931
233	0xbd96e4e2	-0.07367875
234	0xbdaf1b19	-0.0855009
235	0xbd882192	-0.06647028
236	0x3cf66591	0.030077728
237	0xbd155981	-0.03646231
238	0xbd64482d	-0.055732895
239	0xbd3c7d42	-0.046017893
240	0xbbceb7ca	-0.0063085305
241	0x3d950cf3	0.072778605
242	0xbd182045	-0.03714015
243	0xbd5ea4ca	-0.054356374
244	0xbd4645a4	-0.04840626
245	0x3da2aa8d	0.07942686
246	0x3d99f316	0.07517068
247	0x3d37d2c9	0.044878755
248	0xbc9097f2	-0.017650578
249	0xbd02daa1	-0.031946782
250	0xbda95c68	-0.08269578
251	0x3d9fef4e	0.078093156
252	0xbd3fc5f8	-0.046819657
253	0x3cd0ba98	0.0254796
254	0xbd24a2b4	-0.04019423
255	0xbd1d0ae5	-0.038340468

stack.2.bias f4 [10]
0	0x3dae93dd	0.085242964
1	0xbd4fabd1	-0.050700966
2	0xbd622b59	-0.05521712
3	0x3d50bf68	0.05096379
4	0xbcf91ab5	-0.030408243
5	0xbca1e6a5	-0.0197633
6	0xbdbfbb2b	-0.09361871
7	0xbd2c70f7	-0.04209992
8	0x3e80ea28	0.25178647
9	0xbde54b14	-0.11195961
