grj/MINIST/model_weights.pth (torch, 409280 bytes, 4 tensors)

stack.0.weight f4 [128, 784]
00000000: e059 cebc 2893 263c 20e3 f4ba 0c97 f1bc
00000010: 902c d6bc 0002 65b9 3eab ccbc da8c 9bbc
00000020: c052 e0bb 9434 0e3c 539d b7bc 1e69 dd3c
00000030: ec21 063d cde8 5c3c 5799 10bd 82bb eb3c
00000040: 902b 4d3c 9c88 3a3c 2a7f f53c 400b 25bc
00000050: 6023 cf3c ce97 dc3c 053c e8bc 0010 13b9
00000060: b847 3d3c 20de 74bc d69e 06bd 2872 c63c
00000070: f93f 0f3d 8060 d3bb 100a 3d3c 5097 96bc
00000080: 8b66 04bd a8aa e3bc 07e7 98bc a634 08bd
00000090: 1a6a 043b 9e34 3fbc 8a07 063d fdde 0d3d
000000a0: 45f4 aabc 2f8e 34bb 2bd4 843c 2aaa 07bc
000000b0: fed9 dabc c01b 7fbb 7d74 3dbc a693 24bc
000000c0: c1a6 af38 df9d cebc ff15 efbc e921 113d
000000d0: 286d eb3b 4690 c93c 6efe f4bc 1007 94bc
000000e0: b07a cc3b b2a8 f53c 86be bd3a 3885 153c
000000f0: 19d6 4a3b 9cac 403c b283 083c ee61 bcbc
00000100: 38a8 d33b 3480 d9ba cba3 fc3c fae1 373c
00000110: 9ca3 bcbc 2d55 10bd 0e5e 3d3c 1f52 873b
00000120: e48b 0d3c 5a73 ac3c 1211 a33b d8fd 3cbd
00000130: 73eb bf3c 3cbf 363c 8cec c6bc 1834 bcbc
00000140: 8ff3 7abc 18e3 5d3c fe19 06bd 6a61 ecbc
00000150: 6eed 75bc 50c9 9a3b e0a0 aabc f20e ecbc
00000160: 4263 ccbc f798 52bc 9fcb d1bc 0dee a7ba
00000170: 906f d93c 6ea8 4b3d bc8d 313d ffbb 6a3b
00000180: 64b7 053c 367d 84bd 4684 2cbd 5006 9c3c
00000190: a253 c5bb 08d6 0cbd 2e6f 9c3c 57be 74bb
000001a0: 17f1 c6bc fbe1 333c 0784 adbc 0906 023d
000001b0: 5300 0a39 f5c5 41bc 87ae 513b 03d7 cfbc
000001c0: b23e b13c ae81 cfbc c2fd 113b 546c 623b
000001d0: 0514 fe3a 295f 613b be05 e93c f330 623d
000001e0: 30c9 4c3d 4956 a93d d7d3 013e bb1d 9d3d
000001f0: 9d3e 9d3d a1a8 963c f949 643d 0c25 e93d
00000200: 4b0d 613e 0e2c 4e3e a640 e63d bdf5 3b3c
00000210: f140 41bd 8ccb 51bd aceb c6bc d88d 0cbd
00000220: 134d 013d 7c6b f53c 88d3 503c fa5d bf3c
00000230: 236c e3bc 4ce2 babc 9e13 edbc c373 173d
00000240: 75ba e03c 3259 68bb 9753 533d c9cf 943d
00000250: 8837 a5bc 7825 6c3c 68b2 e93d d142 b43d
00000260: 5d0b fe3d ff5e 053d 5616 1ebd 9730 35bd
00000270: 81fe 1e3e df99 383e 73c1 803c 384e b23d
00000280: b649 f23d bef3 193d 4801 39bc f344 aebd
00000290: 0ac4 a3bb 93c3 a23c 33a1 923b 2e06 79bc
000002a0: 72b8 c83c fc90 693c dde8 7cbc 8d80 163d
000002b0: b0e0 603d 32ca bc3c 2fee 3d3d 203b d33c
000002c0: b6d1 a63c dca5 8c3d 7e43 a83d d7ee 00bc
000002d0: 2b3a 143c c033 dd3c f404 933c 5a76 9d3d
000002e0: 1a9e c53d 8a74 623d 02f2 42bc 71b0 ee3c
000002f0: 4775 ed3d 2e48 6d3d c33f 843b c5e6 453c
00000300: d6a2 b73a f792 c33c cb2a dcbc c109 b8bc
00000310: 1748 09bd 5417 38bc 3dd9 413a 05c6 30bb
00000320: 1b1d 0f3d caae 093e 0ede 313d c614 7c3b
00000330: 1f24 9b3d 688c 40bb 935a 3dbd dc45 93bd
00000340: fd29 183c 7dec 5cbb 27a4 dbbd 01f4 59bd
00000350: c3fa 92bd b705 88bd cb35 99bd d4fd 3dbb
00000360: b603 7cbb 27cf 933c d432 d73c d071 2b3b
00000370: a399 c7bc 2505 08bd 1f8f dabb 2635 aa3a
00000380: 7766 af3c 4976 dfbb 00ec bbbc db82 b43c
00000390: 67d2 9d3c 7ebe 4b3d 6862 ec3c a929 b93d
000003a0: c3aa e73d 50c2 aa3d 5200 1e3d 7eb6 0a3c
000003b0: ebe9 b03c 4e2a c83d 17cc fcbc f997 71bd
000003c0: 523b 6dbd 7738 12bd fc81 fbbd 56ec 513d
000003d0: a6ca 7e3d b328 4bbc 19e6 463d e374 aabd
000003e0: 42ac 8fbd b2b0 3fbd 2164 30bc bd41 bebc
000003f0: fcec a8b9 d413 e23c 6902 40bc 7322 07b9
-0.02518934 0.010166921 -0.0018683411 -0.02949097 -0.026144296 -0.00021839887 -0.024983998 -0.018988062
-0.006845802 0.008679528 -0.022413885 0.027027663 0.032747194 0.013483238 -0.035302486 0.028775934
0.012522593 0.011385109 0.029967863 -0.010073483 0.025285423 0.026927855 -0.028348932 -0.00014024973
0.011552744 -0.014945537 -0.03286632 0.024224356 0.03497312 -0.0064507127 0.011538044 -0.018382698
-0.032324355 -0.027791336 -0.01866485 -0.033253334 0.0020204843 -0.01167026 0.032722034 0.034636486
-0.02086843 -0.0027550568 0.01621445 -0.008280316 -0.026715275 -0.0038926452 -0.0115634175 -0.010044968
8.3757106e-05 -0.025221763 -0.029185293 0.03543273 0.0071846433 0.024604928 -0.029906478 -0.018069774
0.0062402114 0.029987667 0.0014476336 0.009126 0.0030950366 0.011759903 0.00833218 -0.022995915
0.006459262 -0.0016593994 0.030839821 0.011223311 -0.023027234 -0.03523748 0.011558069 0.0041296626
0.00863931 0.021051098 0.0049764 -0.04614052 0.0234277 0.011153992 -0.024282716 -0.022974059
-0.015316858 0.013542913 -0.03273963 -0.028855044 -0.015010221 0.0047237054 -0.020828664 -0.02881572
-0.024949674 -0.0128538525 -0.02560979 -0.0012812034 0.026542455 0.049721174 0.04334806 0.003581762
0.0081613995 -0.064691946 -0.042118333 0.019045979 -0.0060219327 -0.034383804 0.019095983 -0.0037344897
-0.024284882 0.010979171 -0.02118112 0.031744037 0.00013160826 -0.011826982 0.0031994896 -0.02537108
0.02163634 -0.02533039 0.0022276496 0.0034549432 0.0019384628 0.0034388995 0.02844512 0.055222463
0.049996555 0.08268411 0.12678467 0.07671686 0.07677958 0.018390955 0.05573461 0.11384019
0.21977727 0.20133993 0.112427995 0.011472163 -0.047181074 -0.051219508 -0.024282299 -0.03431496
0.031567644 0.02995848 0.0127457455 0.023360241 -0.027761525 -0.022812985 -0.028940018 0.036975633
0.02743266 -0.0035453555 0.05159339 0.072661944 -0.02016808 0.01441323 0.114109814 0.08801807
0.12404511 0.0325613 -0.03859552 -0.044235792 0.15526773 0.18027447 0.015717244 0.08706325
0.118304655 0.037585966 -0.011291809 -0.08509245 -0.004997735 0.019868648 0.004474783 -0.015199227
0.024502013 0.014255758 -0.015436378 0.03674369 0.05490178 0.023045633 0.046369728 0.025785029
0.02036367 0.06867573 0.08215998 -0.007869444 0.009047071 0.027002215 0.017946698 0.076885894
0.09649296 0.05528692 -0.0118985195 0.029136868 0.115946345 0.057930164 0.0040359213 0.0120789455
0.0014010321 0.02387379 -0.026875874 -0.022465589 -0.033516016 -0.011236031 0.0007394737 -0.0026973498
0.034939867 0.13445583 0.04342466 0.003846453 0.07575249 -0.0029380564 -0.046228956 -0.07191059
0.009287355 -0.0033710294 -0.10724669 -0.053211216 -0.07176735 -0.06641715 -0.07480963 -0.0028990405
-0.003845436 0.018043114 0.026269354 0.0026160367 -0.024365252 -0.03320803 -0.0066698934 0.001298581
0.021411164 -0.0068195206 -0.022939682 0.022035053 0.019265367 0.049742214 0.028855518 0.09041149
0.11311867 0.083378434 0.038574524 0.008466361 0.021595916 0.09773694 -0.030859036 -0.058982823
-0.0579179 -0.03569838 -0.12280652 0.05125078 0.06220498 -0.01239984 0.048559282 -0.083230756
-0.070152774 -0.04679937 -0.01076606 -0.023224706 -0.00032220024 0.027597345 -0.011719325 -0.00012887437

stack.0.bias f4 [128]
00000000: 2462 11be 4f14 a63c ef7f ce3d ef4b 9ebd
00000010: 32b1 67bd 7c8f 403d 780e 973e 23bc b3bd
00000020: 8b7a c73b 19aa 5c3d e731 fdbc d4f8 43be
00000030: 99d5 c23d 4363 063e 06cf 3e3e 5a30 66be
00000040: b0a9 933e afd8 f4bd 718a 003d 9d72 063e
00000050: 7c61 c23e 7304 ecbd 1ebd 283e aa37 d73d
00000060: a5f4 1839 c937 253e 0749 35be 46da 04be
00000070: f3ea 4c3e 889d 133d b3fe 1bbd 14af bdbd
00000080: 0381 02be a5ca 14bd 282a 863e baf9 b03d
00000090: 636e 9e3e e495 a8bd 3ce4 a23d 045f cb3d
000000a0: 232b bb3d e533 de3d eb09 b0be 351b 4b3c
000000b0: 4ba8 fabc 71f6 41be c0fe 353a c0cb 6c3d
000000c0: 3f2e b33c b7ef 4e3d e277 ce3c f8f3 343d
000000d0: 72b8 98be 5b7f 263d 1565 bb3d c2e2 16be
000000e0: 0c96 5b3e f953 9abd 822f ed3d 242b e33d
000000f0: dc46 693d 700c bfbc f9ad 0ebd ce37 393e
00000100: 3750 82bd bcf2 413a cb8a 1a3d d2a7 0abe
00000110: 3e69 8a3e d960 c93d 1e0a 003d bcb6 9a3c
00000120: a9f0 f4bc 24e8 553e 9125 a03c 82fa 5a3e
00000130: 5c15 ccbd 0750 0b3e db0b a03d 0b47 f63d
00000140: 14d6 c0bd bbb3 2a3b a85d 4a3e 759f 013e
00000150: 2932 913d 474a 9b3d 02ab 9fbd a483 57bd
00000160: 1bd1 2bbc 05bc ea3c ebb9 a53d 1da5 643e
00000170: 4956 d83d c0d7 423e 6129 c0bd fd27 3d3e
00000180: 9848 663e 92e8 553e 485a f03c cdc5 593e
00000190: b8d0 12be 07d9 94b9 61fe 1cbe 548f 7a3e
000001a0: bf6b 513d f0a0 ddbd 8122 2a3e ae37 f93d
000001b0: 9a0e 84be 6e90 f4bd 7096 5c3e 5491 453e
000001c0: ba40 e9bc 7a01 19be a005 2c3e 5418 813b
000001d0: 1bc4 473e 4577 30bd b487 8f3e dc52 84be
000001e0: d6f5 31be 4fa5 83bc fea8 6abd f452 a43d
000001f0: 2c46 8d3e d7ea 843d 2b06 ebbd 43bc 3c3e
-0.14197594 0.020273356 0.10082995 -0.07729327 -0.05656547 0.047011837 0.29503226 -0.087761186
0.0060876063 0.053873155 -0.030907584 -0.19137889 0.09513397 0.13123803 0.1863366 -0.22479382
0.288404 -0.119553916 0.031382028 0.13129659 0.37965 -0.11524286 0.16478392 0.10508664
0.00014586987 0.16134562 -0.17703639 -0.1297389 0.20011501 0.036038905 -0.038084697 -0.09261909
-0.12744527 -0.03632607 0.26204038 0.086413816 0.30943593 -0.08231714 0.079536885 0.09930232
0.09139087 0.10849742 -0.34382567 0.012396623 -0.030597826 -0.18941666 0.0006942563 0.0578115
0.021872638 0.05052158 0.025203649 0.04417798 -0.2982822 0.0406488 0.09150139 -0.14734939
0.21443957 -0.07535548 0.11581327 0.11092213 0.056952342 -0.02332136 -0.034833882 0.18087694
-0.06362956 0.0007398536 0.03773002 -0.13540581 0.27033418 0.09832925 0.03125965 0.018885963
-0.029899912 0.20889336 0.019549163 0.21384624 -0.099650115 0.13604747 0.07814761 0.12025269
-0.09415832 0.002604707 0.1976229 0.12658484 0.070896454 0.07582527 -0.07796289 -0.052615777
-0.010486866 0.028654108 0.08092102 0.2232861 0.105633326 0.19027615 -0.093828924 0.18472286
0.2248863 0.208895 0.029339924 0.21266861 -0.14337432 -0.00028390458 -0.15331413 0.24468738
0.051128145 -0.10821712 0.16614725 0.12168823 -0.2579239 -0.1194161 0.21541762 0.1929372
-0.028473247 -0.1494197 0.16799021 0.0039396677 0.19508402 -0.043082494 0.2803322 -0.25844467
-0.17378935 -0.016070036 -0.05729007 0.080236346 0.275926 0.06490105 -0.11475786 0.18431191

stack.2.weight f4 [10, 128]
00000000: 6262 3abf c5ee 59be 54c5 2dbf d110 17bf
00000010: 9975 2abf 0e1b 773e 6c03 81be a3a4 49be
00000020: 2c06 9fbd 294d 793e b60e 403e 5e0c 0e3e
00000030: 6b5e 8fbb e2bf 9c3d b6ce c83e c7ff e83e
00000040: 3b4e 7fbe c603 b9be 8c1c 0cbf 4e73 8d3e
00000050: d3ab 593d 178c 5b3e 7ec3 58bf 54ae 37bd
00000060: 3466 0dbd e6d6 083f b8bd 1d3f d0e3 e63e
00000070: 48ba 03be 3336 e23e 3fa7 c53e 3fb4 2e3e
00000080: c549 91be 9b35 773e 5996 a2be 7701 adbc
00000090: 158e 50be 1c48 043f 2615 79bd 3d43 f7bd
000000a0: cc5f e3be 199b 193e edf3 fbbd 4a3b 81be
000000b0: 3e3b 07bf 1c04 d63e d0d6 3fbe e867 f5bd
000000c0: 2fa2 033b b85f 323f 8b1f 983e e342 abbe
000000d0: f91a 3cbe f8fc aabe 325d 493f f53f a7bd
000000e0: e97b dfbd 1b4d 5abe 9a57 ac3e 822a 17bf
000000f0: 880c 8fbe 7d02 22bf e4dd 69bc 5a55 64be
00000100: 45d0 9bbe 015d 6cbe ee0f 8f3f 4417 f4be
00000110: b773 023e 2d35 47be 1695 d83e f2ba 333d
00000120: 872a edbe cb34 d83c 5e58 fd3e 396c 19bc
00000130: 11cb ae3d 112f 523e 1343 1b3f e5f7 77be
00000140: 31f8 6b3e 5bfb 2bbe 33fe 513f d814 593e
00000150: 163d b2bd 0260 f6bc 9c15 f43d c0ff c8bd
00000160: 50b2 1abf 09a4 2abf 7c68 08bd feed 63be
00000170: 5113 27bf 59e2 663e e804 28bf d591 243d
00000180: b53a 5a3e 574a 5d3e 6da4 3f3e bebd b83c
00000190: 9e0a 98be c98d e5bc 2af3 ce3d 60cf 84bf
000001a0: fbbb a93d ce92 00bf 484d 2cbf 3101 96be
000001b0: 771c 42be 64ad 6cbf 6d05 123d d2ef 21be
000001c0: 3844 213f 6b7f 333e ddd4 a93b 0109 e53e
000001d0: b203 3c3e 197e a13e 6b6f 1d3f f2cf 08bf
000001e0: 82e6 1bbf a38a 213f c2fc 053d c8ab 8a3e
000001f0: fed1 e33d 75aa 603e 5619 c33b 3afd 7fbe
00000200: 0e0c 32be 902f d83c 02df 7a3c 008e 0cbf
00000210: 1c9a c63e 2691 b13e bc35 76bc 72ef 93be
00000220: 2ff8 a83e 9dae 903e a81f aabe a1f3 a93e
00000230: 9219 70bf a148 0c3e d2be 8a3d 6e6f 063e
00000240: 172c eb3e d8d0 5d3e 1ed1 173f 7a70 883e
00000250: 3e1b 843d 050d 783e 4103 453f 0dba 6cbe
00000260: 6601 80be 5473 62be cb4b 423e 198c 72be
00000270: b87c a73e f1b6 d6be cf0c 4dbe 673d 443e
00000280: 774a 8abe 2370 d3bd 3487 2bbe e2ab a6be
00000290: 3f27 f3be 5e17 13bf 7866 6dbe 5bac 00be
000002a0: c1bd 093f bd73 403f 8d97 643f 85f8 adbe
000002b0: 9d5f a63e 2099 91be 978f 993e 4b3d b93d
000002c0: fc1d aabe fbef b23d 6838 41bf e522 f5bd
000002d0: 4fad 373f 6cca 03be b679 f93d bd08 003e
000002e0: 7bfb 32be 6784 423f af7c 85be 0051 d5be
000002f0: 3bb8 fabb 9f94 09bf 539f ff3d 901b 8e3e
00000300: f759 443f b77a 8abe bfe9 e6bd eb26 abbe
00000310: 826a 0ebe 46ec fa3e 8c28 38bf 42c8 eabe
00000320: d022 153f 4a12 863c 9f11 88be 5794 70be
00000330: e803 453e bd68 84be b7bd 65be f222 a5be
00000340: c4e7 06bf c72a 463f 6246 d6bd 4016 df3d
00000350: b4e1 fcbe 79fe 713e ab6a b9bd 0898 a5bd
00000360: 8ff5 823f 8e15 89be f960 cc3e a10a 45bf
00000370: 0ed8 26bd 8f4c c93b 376f 8e3e 7baf 2fbf
00000380: f414 763f 03d4 10bb a7ad 1e3f 2a0e f63a
00000390: bc4b cabd 2d20 5ebf b945 3bbe 2418 b8be
000003a0: 778a 863d 925e 943e b555 183f 9b29 b6be
000003b0: 5899 89bd c421 fe3e 0177 07bf 35e4 113e
000003c0: 53cf f2bc e48d f53d e266 b43e c2c6 73be
000003d0: 124c 4d3e 86fe d13d 9b1b 2bbe 29a9 e83e
000003e0: 972d ef3e 6a34 09bf 69cf f63e 91a3 c53e
000003f0: cf13 b13e 8e69 4ebf a091 1c3f e7bc 9cbe
-0.7280637 -0.2128249 -0.67879224 -0.59010035 -0.6658569 0.24131414 -0.25197923 -0.1969171
-0.07764849 0.2434584 0.18755612 0.13871905 -0.004375269 0.07653786 0.39220208 0.45507643
-0.24932186 -0.3613569 -0.5473106 0.27627033 0.05314238 0.21440159 -0.846733 -0.044843987
-0.034521297 0.5345291 0.6161761 0.45095682 -0.1286403 0.44181976 0.3860416 0.17060946
-0.28376594 0.24141543 -0.3175533 -0.021118863 -0.203667 0.5167253 -0.060811184 -0.120733716
-0.44409025 0.15000571 -0.123023845 -0.25240546 -0.5282477 0.4180001 -0.18734288 -0.11982709
0.0020085683 0.69677305 0.29711565 -0.33449468 -0.18369664 -0.33396125 0.7865783 -0.08166496
-0.10912306 -0.21318476 0.33660585 -0.59049237 -0.27939248 -0.63285047 -0.014274094 -0.22298184
-0.30432335 -0.23082353 1.1176736 -0.47674 0.12739454 -0.19453879 0.42301244 0.043879457
-0.46321508 0.026392361 0.4948148 -0.009364181 0.085348256 0.20525767 0.6064922 -0.24215658
0.23043896 -0.16795103 0.820285 0.21199358 -0.087030575 -0.030075077 0.11918184 -0.098144054
-0.60428333 -0.6665655 -0.03330277 -0.22258756 -0.6526385 0.22547282 -0.65632486 0.04017814
0.21311457 0.2161039 0.18715067 0.022551414 -0.296956 -0.02802171 0.101049736 -1.0375786
0.082878076 -0.50224006 -0.6730542 -0.29297784 -0.18956171 -0.92452073 0.035649706 -0.1581414
0.6299472 0.17529075 0.005182846 0.44733432 0.18360785 0.31541517 0.61498135 -0.534423
-0.608986 0.6310217 0.03271175 0.27084184 0.11124037 0.21940024 0.005953948 -0.24998942
-0.17387411 0.026389867 0.015311958 -0.54904175 0.3878945 0.34681052 -0.01502746 -0.2889362
0.3300185 0.2825822 -0.33227277 0.33193687 -0.9378902 0.1369958 0.06774677 0.13128445
0.45932075 0.21661699 0.5930346 0.26648313 0.064505085 0.24223717 0.7695809 -0.23117848
-0.25001067 -0.22114307 0.18974225 -0.23686256 0.3271234 -0.41936448 -0.20024417 0.19164048
-0.27009937 -0.10324123 -0.16750795 -0.3255301 -0.4749088 -0.5745753 -0.2318362 -0.12565748
0.53805166 0.751766 0.8929375 -0.33978668 0.32494822 -0.28437138 0.29992363 0.09044894
-0.33226 0.08737179 -0.75476694 -0.11969546 0.7174882 -0.12870187 0.12181418 0.12503333
-0.17478745 0.7598328 -0.2607169 -0.4166336 -0.0076513565 -0.537424 0.124815606 0.27755404
0.76699775 -0.2704675 -0.11275052 -0.3342813 -0.13907817 0.49008387 -0.7193687 -0.4585591
0.58256245 0.016366143 -0.26575944 -0.23494087 0.19239771 -0.2586116 -0.22435652 -0.32253224
-0.52697396 0.77409023 -0.10462643 0.10892916 -0.49390948 0.2363223 -0.090535484 -0.08085638
1.0231189 -0.26774257 0.39917734 -0.76969343 -0.04073339 0.0061431597 0.27819225 -0.68627137
0.9612572 -0.0022099025 0.6198372 0.0018772532 -0.098777264 -0.86767846 -0.18288316 -0.35955918
0.06569379 0.289784 0.5950578 -0.35578617 -0.06718701 0.49635136 -0.5291596 0.1424721
-0.029639876 0.11989954 0.35234743 -0.23806289 0.2004855 0.102536246 -0.1670975 0.4544156
0.4671447 -0.535956 0.48205116 0.38601354 0.34585425 -0.80629814 0.61159706 -0.3061287

stack.2.bias f4 [10]
00000000: a313 5fbe 0e0d 9b3d 3d4e 25be dc76 6abe
00000010: 0a00 253d 734d 8e3e 2fc2 63be 1671 efbd
00000020: 6e99 633e 3d4f dc3d
-0.21784835 0.07570849 -0.16143127 -0.22896904 0.04028324 0.27793464 -0.22242044 -0.11691491
0.22226498 0.10757301
